subtaskC/cnn-char-bilstm/checkpoints/epoch-4.pt (torch, 32142 bytes, 29 tensors)

word_embeddings_layer.char_embeds_layer.weight f4 [148, 8]
000000 c8 95 f3 3f c4 6c bd 3f e4 a9 66 3f 90 f9 06 c0
       1.9030085 1.4798818 0.9010298 -2.108982
000010 8a 14 39 3f 27 84 9d bf a2 a4 7c bd 05 10 c9 bf
       0.72296965 -1.2305955 -0.061680444 -1.5708014
000020 22 a3 3f bf 71 3e d8 3f 6c 55 d0 be 7d fd b3 bf
       -0.74858296 1.6894056 -0.40690172 -1.4061733
000030 7f 9e 44 bf 62 79 16 bf db 91 49 bf b1 46 3b 3f
       -0.76804346 -0.58778965 -0.7873818 0.7315474
000040 c1 a3 cf 3f 28 d5 4d be 11 d9 04 bf f8 88 e5 3e
       1.6221849 -0.20100844 -0.5189372 0.4483106
000050 7e 7c 53 bf d3 6f 87 3f 01 5e 59 3f 2c 06 d9 3f
       -0.82611835 1.0581001 0.84909064 1.6955009
000060 34 30 a2 3f 42 b2 a3 3f c4 33 22 3f 0a a0 ab 3f
       1.267096 1.2788775 0.6336024 1.3408215
000070 4c 6d 71 be 99 51 87 bc 06 dc 62 be 98 61 50 3f
       -0.2357685 -0.016518401 -0.22154245 0.81398916
000080 f7 01 b4 bf 64 b2 63 bf 9b 29 59 be 7f a6 de 3f
       -1.40631 -0.8894408 -0.21207277 1.739456
000090 2d fd a9 3e 6f 3e 08 bf 71 94 a1 3e 52 6f 51 bf
       0.3320097 -0.53220266 0.31558564 -0.81810486
0000a0 f4 1b cd bf 75 8c 7c 3f 05 a8 77 bf aa 52 12 bf
       -1.6024156 0.9865182 -0.9674075 -0.57157385
0000b0 e2 fe a4 bf 74 35 06 40 c4 03 9f bf 56 78 09 bf
       -1.2890284 2.0970125 -1.2423024 -0.53699243
0000c0 c7 ec 65 bf 7e 6b 16 bf b5 64 ae 3d 9d cf 01 3f
       -0.8981442 -0.5875777 0.08515302 0.5070742
0000d0 e8 98 f9 be 72 0b 90 3f ea 8a 57 bf 73 46 39 bf
       -0.4874947 1.1253493 -0.8419634 -0.7237312
0000e0 80 b7 b6 bf 42 90 cc 3d 6b b5 9a bd 46 66 4c 3f
       -1.427475 0.099884525 -0.07554134 0.79843557
0000f0 5a d8 0a be da 87 e3 3f 8c 9b 97 bf ad 58 b6 3f
       -0.13559094 1.7775834 -1.1844344 1.4245812
000100 24 f5 bd 3f 51 1f 71 3f 8a d9 12 40 08 be 0f 3f
       1.4840436 0.9418841 2.2945275 0.5614934
000110 02 1b b6 3e d0 5f 8b be 43 ae 8f bf 58 53 aa 3f
       0.3556748 -0.27221537 -1.1225055 1.3306684
000120 58 00 82 be 99 0b e3 3e fd cf f3 bc 8e c8 10 3f
       -0.25390887 0.44344786 -0.029762262 0.5655602
000130 91 c6 00 3f 5b 99 0e bf 0c 3c 0a c0 6a 59 55 bf
       0.5030299 -0.5570275 -2.159915 -0.8333956
000140 fa 56 ba bc 5b 37 cb be 69 64 b5 bf 99 1c 0a bf
       -0.022746552 -0.3969067 -1.4171268 -0.53949887
000150 98 72 09 3f 3b fa 21 3f b0 a3 a1 3f b6 74 6f bd
       0.5369048 0.63272446 1.2628078 -0.058460914
000160 c3 b6 3a 3f 71 88 dd be 77 55 7b bf 71 67 ee 3e
       0.7293512 -0.4326816 -0.98177284 0.46563295
000170 00 23 dd bf 4f 59 51 bf cf da 96 3f 44 69 e2 3e
       -1.7276306 -0.817769 1.1785525 0.44220936
000180 f8 d4 22 c0 59 2e f5 3e 78 a6 43 3f 38 9c 10 bd
       -2.5442486 0.47886923 0.76425886 -0.03530523
000190 92 7e 23 3f 83 d4 16 3f 90 5a 81 3f 5f 30 01 bf
       0.63865006 0.5891802 1.0105762 -0.50464433
0001a0 71 36 8a be 44 50 3e 3f 37 19 c7 3e 34 49 9b 3d
       -0.2699466 0.74341226 0.38886425 0.07582322
0001b0 97 ce 41 3e a9 99 b1 3f 4d 97 a7 3d 97 60 99 be
       0.18926464 1.3875018 0.08183155 -0.29956505
0001c0 3d fc bc bf 30 83 7c bd 9b 42 14 bf f6 09 b1 3e
       -1.4764477 -0.061648548 -0.5791413 0.34577912
0001d0 ca bc 34 3f dc 1c eb 3c 68 be e1 be c6 0d 07 3f
       0.7060057 0.028700285 -0.4409058 0.5275539
0001e0 9f 58 71 3d 30 8b c0 3e d1 2a 3d 3e 55 3f 43 3f
       0.058922406 0.37606192 0.18473364 0.7626851
0001f0 54 15 84 3f e6 ff 6c 3e 69 fd 25 3f 0e ab 04 3f
       1.0319009 0.23144493 0.648398 0.5182351
000200 c0 bb ee 3f 91 91 70 3f b1 79 bf bf d5 2c 8b bf
       1.8651047 0.93972117 -1.4959012 -1.0873057
000210 c0 1b 02 be 7a 17 f4 3f 6f 75 3a 3f 0e 77 09 3f
       -0.12705898 1.9069664 0.7283544 0.5369729
000220 58 28 97 3f 31 04 83 bc 01 6b ee bf 41 d2 7c 3f
       1.1809187 -0.01599321 -1.8626405 0.9875832
000230 1c 41 e3 be 06 56 80 3f c4 bb 3c bf f9 e7 21 3f
       -0.44385612 1.0026252 -0.7372401 0.6324459
000240 ca 0b 80 bf 06 6b 78 3f 4e 45 c8 3f 7f 1b cb 3f
       -1.0003598 0.97038305 1.564615 1.5867766
000250 d6 4e c9 3e 93 f5 d7 bd 73 76 2c bf fd 0b c4 3c
       0.3931796 -0.105448864 -0.6736824 0.023931498
000260 0f 58 c1 3e b4 4e 83 3f a9 ed f3 be 08 95 cd 3f
       0.37762496 1.0258393 -0.47642258 1.6061106
000270 c9 39 20 c0 44 4b eb be f0 90 94 bf 68 52 4f 3f
       -2.503527 -0.4595586 -1.1606731 0.80985117
000280 c2 b3 f5 bf 14 54 8c 3e 49 72 05 3e 42 85 c5 be
       -1.9195483 0.27407897 0.13031878 -0.3857823
000290 6e 64 9c 3e 72 03 38 bf 58 06 16 3e 85 1b 9b bf
       0.30545372 -0.7188026 0.14650857 -1.2117773
0002a0 49 70 ea bf 73 a8 a9 3f e0 27 9f 3f ea fa 07 3e
       -1.8315517 1.3254532 1.2434044 0.1327931
0002b0 d2 b6 b5 bf ca 18 36 3f d5 c8 71 3f 99 1c fb 3f
       -1.4196417 0.71131575 0.9444707 1.9618102
0002c0 80 64 50 3c 9c b8 cc 3d 06 03 3c bf 25 63 4b be
       0.012719274 0.09996149 -0.73442113 -0.1986204
0002d0 80 52 5c bf dc 79 d5 bf ac f5 8d bf 40 98 19 bf
       -0.86063385 -1.6677814 -1.1090598 -0.5999794
0002e0 29 41 05 bf a1 a8 cc bf 62 c5 00 c0 d8 84 76 3e
       -0.5205255 -1.5988961 -2.0120473 0.24074113
0002f0 f5 82 6d 3f dd 1f 34 bf 07 b0 3f 3f fe 69 2c 3f
       0.9277795 -0.7036112 0.7487797 0.6734923
000300 9a e1 e1 3f eb c8 70 bf 7d 65 79 3f 8e b7 b0 be
       1.7646973 -0.94056576 0.97420484 -0.3451504
000310 f7 a5 9d bf a4 33 8a 3e 53 db 01 3f 9c 56 b1 3f
       -1.2316273 0.26992524 0.5072529 1.3854556
000320 01 ac 06 3f a2 2b 07 40 57 50 05 bf f0 97 6e bf
       0.5260621 2.1120381 -0.52075714 -0.9320059
000330 ef 9a 3d 3e e5 ca 88 3f 84 3c a7 3f 6e 6f eb 3e
       0.18516134 1.0686918 1.3065343 0.45983452
000340 14 03 52 bf 95 4d 83 bf 9a 2c 0c bf e4 1f 21 bf
       -0.82035947 -1.0258051 -0.54755557 -0.62939286
000350 dd 54 d7 3c bc 21 d3 3e fc 35 34 be 17 c1 17 c0
       0.026285583 0.41236675 -0.17598718 -2.3711603
000360 9b 4f cb be 31 4b 8d 3f 95 c6 ed bf f6 9d c2 3f
       -0.39709172 1.1038572 -1.8576227 1.5204456
000370 c2 e3 67 3e b0 66 a3 be fa 95 7f 3f 77 61 d9 3f
       0.22645476 -0.31914282 0.9983822 1.6982869
000380 ea a7 b5 3e 21 97 04 40 2e f1 09 3f 4e ef b3 bf
       0.3547967 2.0717242 0.53883636 -1.4057405
000390 c1 25 78 bf eb 24 02 be 34 84 a4 3e 2d eb 1c 40
       -0.9693261 -0.12709396 0.32132113 2.451854
0003a0 60 3f ae 3e 57 06 55 bf c6 4e 11 c0 9d bc a2 bf
       0.34032726 -0.832128 -2.270433 -1.271381
0003b0 7e b5 ae be 23 53 24 be 80 d3 d3 bd fb 73 4d 3f
       -0.34122843 -0.16047339 -0.10343075 0.802551
0003c0 7a db 6d bf e4 68 8d 3e b8 f3 09 bf 98 d7 ec 3e
       -0.9291302 0.27619088 -0.5388751 0.46258235
0003d0 21 34 5f bf 2f 27 de bc a1 dc b4 be ab 5f bb 3f
       -0.8718892 -0.027118294 -0.35324576 1.463857
0003e0 12 b2 a0 3f 58 07 37 bf 77 9a 5a 3f 63 53 03 3f
       1.2554343 -0.7149558 0.85391945 0.51299113
0003f0 d0 2b 0a 3f f0 c4 10 3f 91 7b 01 3f e6 ca 63 3e
       0.539731 0.565505 0.5057917 0.22245368

word_embeddings_layer.conv1.0.weight f4 [21, 8, 3]
000000 74 66 08 3d e2 a4 19 bd ca 23 99 3c 43 61 7e bd
       0.033300832 -0.03751076 0.018693823 -0.062104475
000010 b5 4a 0a 3d a7 a9 1d 3e 77 31 8b bd c6 ba 0d 3e
       0.033762652 0.15396748 -0.06796544 0.1384078
000020 ab 08 32 3e 90 40 12 be 51 78 0a be 5a 76 57 be
       0.17386119 -0.14282441 -0.1352246 -0.21041241
000030 e1 08 c6 bd 70 dd 03 be 70 e3 d1 bc 37 0d 43 bd
       -0.09669662 -0.1287744 -0.025621146 -0.047620025
000040 08 02 f4 bd 39 e5 95 bd 6c 9b e0 bd a7 d7 44 3e
       -0.1191445 -0.073191114 -0.10967144 0.1922289
000050 cd fb a7 bd 5e f1 d9 bd 80 7f 0c 3e 35 13 22 3c
       -0.08202324 -0.1064174 0.13720512 0.009892275
000060 a4 a7 0c 3e f8 b3 03 3e c9 1f 2b 3e 7a 5e 3e be
       0.13735825 0.12861621 0.16711344 -0.18590727
000070 4f fa f6 3d 77 0d 23 3e a9 3d de bd 06 12 0f 3e
       0.12059461 0.15923105 -0.108516045 0.13971719
000080 79 57 26 3e 92 b5 7f 3d b2 a7 9c 3d 8d 56 6b bd
       0.16244306 0.06242902 0.07649173 -0.057455588
000090 80 a4 3a be bc b9 49 3d cb 2b 1b 3d ea 95 b2 bd
       -0.18226814 0.049249396 0.03788356 -0.0872
0000a0 fc 81 15 3e 7f ab 36 be 7c ce f7 3d 15 7b 58 3c
       0.14600366 -0.17838858 0.12099931 0.013212939
0000b0 01 62 a8 3d 82 50 ba bd 37 14 20 3e a2 c8 a1 3d
       0.08221818 -0.09097387 0.15632711 0.07899596
0000c0 a9 05 43 3d c2 0e 28 3d 12 18 1e 3e 83 a5 de bd
       0.04761282 0.0410297 0.1543887 -0.108714126
0000d0 88 c3 ad bd d3 59 a1 3d e4 38 6c bc ec 85 d5 3d
       -0.0848456 0.07878461 -0.014417861 0.10425934
0000e0 a0 d2 8f bd 4c 56 84 3c df 2c 83 3d de cf 1a bd
       -0.070225954 0.01615443 0.06405043 -0.037795894
0000f0 9b d3 83 3d bd f3 4f 3d 3b e7 63 be 1b b0 a3 3c
       0.06436845 0.050769556 -0.22256176 0.019981435
000100 4d 15 2e be 55 4a b6 3c 87 bf 7b bd 8f 00 6d be
       -0.17000313 0.022252241 -0.06146195 -0.23144744
000110 08 34 a4 bd 10 36 24 3d b8 7c 96 bd 38 a1 8a 3e
       -0.08017737 0.04009062 -0.07348007 0.27076125
000120 ab 4c a8 bc 41 3b 29 3e 1e 4e 54 3d f9 48 22 be
       -0.02054437 0.1652651 0.05183231 -0.1584815
000130 e4 2e 91 3d f1 b8 39 3e 2d 76 4b be 46 ea 09 be
       0.07089022 0.18136956 -0.19869299 -0.13468274
000140 ed 22 4d 3e c5 90 18 3e c0 eb ed bd c8 61 c7 3d
       0.20032854 0.14898975 -0.11617231 0.09735447
000150 22 47 06 bd e9 6e 86 be e9 1f 44 3d 64 04 f5 3d
       -0.03278268 -0.26256493 0.047881994 0.11963728
000160 03 21 d6 bd 1b 57 44 3d 81 32 40 be f0 77 25 3d
       -0.10455515 0.047934633 -0.18769266 0.040397584
000170 93 05 09 3e 75 68 3c 3e 60 5f 38 3e cd 69 b9 3d
       0.13381033 0.18399222 0.18005133 0.09053383
000180 75 41 16 be bb 21 72 bb f0 cc 06 3d c1 46 cd bd
       -0.14673407 -0.0036946374 0.032910287 -0.10023261
000190 dd a3 19 be fa c4 1b 3e 6a 74 96 3e 6a d8 43 be
       -0.15003915 0.1521186 0.29385692 -0.19125524
0001a0 ba b2 d9 3d a7 02 08 3e 5c 23 1e 3e 1a 92 f5 3d
       0.106297925 0.13282262 0.15443176 0.11990757
0001b0 8b a0 3e 3e 17 84 95 bd 23 68 0c 3e 5f 6f a7 3d
       0.1861593 -0.07300585 0.137116 0.08175539
0001c0 93 4d 59 be f9 2d 76 be ac 62 a3 39 5e 37 71 3c
       -0.21220998 -0.24040975 0.000311633 0.014722673
0001d0 61 2c 15 be aa 56 0e 3e 04 bd 4e 3c de 8b bf 3d
       -0.1456771 0.13900247 0.012618307 0.093528494
0001e0 b4 44 06 be 6f 88 6b 3e 69 ac 27 3e 8a 3e 2c be
       -0.13112146 0.23001264 0.16374363 -0.16820732
0001f0 82 86 8b bc 5b 3d 36 bc cd ab 2e 3d f6 1c 3a 3e
       -0.017031912 -0.011123027 0.04264431 0.1817511
000200 12 c7 4d 3d af 9a 6c 3c e5 9b 54 3e 2e 89 28 bd
       0.050238676 0.014441176 0.20762594 -0.04114645
000210 66 18 c3 bd 09 53 4c 3b c1 88 af bd 53 b8 3e 3c
       -0.09526138 0.0031177422 -0.085710056 0.011640626
000220 cd d8 c8 bd e8 ba c2 3a 24 9a 1a 3d 28 80 36 3d
       -0.098069765 0.0014856728 0.037744656 0.044555813
000230 c1 96 23 be 83 b8 ca bd e6 bb 34 3e dd 26 72 3e
       -0.15975477 -0.09898474 0.17649803 0.23647638
000240 94 41 38 be 24 48 ec 3d 24 81 03 be 9f 29 ea 3c
       -0.17993766 0.11537197 -0.12842232 0.0285843
000250 62 ab 40 3e bb 2d 32 3e 50 8c 43 be 06 df 1a 3e
       0.18815377 0.17400257 -0.19096494 0.15124139
000260 c7 d8 29 3e 07 7e 29 3c 5b 99 62 3e 3a d9 a6 bd
       0.165866 0.010344989 0.22128813 -0.081469014
000270 ff 6f f1 bd 81 0d 12 be b5 1a 4b 3d 52 2d fe 3d
       -0.1178894 -0.14262964 0.049586017 0.12410988
000280 ac df 14 3d 92 5d 16 be da 3b e0 bd 03 ab 31 bb
       0.036346123 -0.14684132 -0.10948916 -0.0027109988
000290 e2 d1 2f be d1 71 ce bb 7f f4 63 3d 34 c0 ca bd
       -0.17169908 -0.006300189 0.05565309 -0.09899941
0002a0 09 5a d5 3d 76 25 ab 3d 76 b5 b3 3d 4f 39 91 bd
       0.104175635 0.083567545 0.08774845 -0.07091009
0002b0 68 be 0b be 5f ba a3 3d 69 66 64 3c 81 f9 a8 bd
       -0.13646853 0.07994532 0.013940432 -0.08250714
0002c0 79 34 1a be 87 a2 5b 3d 73 5e 70 be 99 62 97 bc
       -0.15059079 0.053621795 -0.2347353 -0.018479632
0002d0 97 c6 02 3e 5c 97 b5 bd 7f 9c af bd 0c 4f 0c be
       0.12771069 -0.0886676 -0.08574771 -0.13702029
0002e0 8b a9 25 3e 29 8c 2e 3e 65 28 3a 3d 33 6e 8e 3e
       0.16177957 0.17045654 0.04544868 0.2781845
0002f0 5e 1c 1f 3e 94 b8 55 be c7 d4 3b 3d 81 21 04 3d
       0.15538165 -0.20871192 0.045857217 0.032258514
000300 63 f1 54 3e e1 4a d9 bb a4 88 ba 3d 5a 1e af 3d
       0.20795207 -0.0066312407 0.091080934 0.08550711
000310 56 c9 f5 3d 34 07 7d be 6a 6e 2a 3e 6d e7 96 be
       0.120012924 -0.24709779 0.16643682 -0.2947344
000320 45 a3 de 3d 89 5a 11 3d da ab 27 be 75 26 7a 3d
       0.10870985 0.03548673 -0.1637415 0.06107183
000330 67 4b 81 bd 30 ca 83 be c8 31 01 be 3b 36 19 3d
       -0.0631321 -0.25740194 -0.12616646 0.037405234
000340 4d 32 5d 3e ad bd 7b bd 62 9f 5d 3e c8 f6 cb 3b
       0.2160122 -0.061460186 0.21642831 0.006224487
000350 91 1d f1 3c 7d bc 09 3e 65 d2 c8 bd c1 87 22 be
       0.029433044 0.13450809 -0.098057546 -0.15872099
000360 2d a3 eb bd fc 09 4f be 29 32 b9 bd ea cb 73 bd
       -0.11505733 -0.20218652 -0.090427704 -0.05952064
000370 75 4b 0e be 86 bb 9b bd 35 cd 49 3d 32 cc ba bb
       -0.13895972 -0.07604127 0.049267966 -0.0057006115
000380 a9 7e 99 bd 82 7e 6e 3d b6 a7 20 bd 63 1c 85 3d
       -0.07494862 0.058226116 -0.03922244 0.06499555
000390 cc 91 ac 3d 6c a3 55 bd 63 ae 3b 3d 78 18 07 bd
       0.08426246 -0.052157804 0.045820605 -0.03298232
0003a0 0b 4a 19 be 00 f3 ac bd 8a 86 06 3d 52 aa 1d 3e
       -0.14969651 -0.08444786 0.03284315 0.15397003
0003b0 e8 9c 00 3e ab f8 94 3d f9 ff b0 bd 77 07 58 be
       0.12559855 0.07273992 -0.08642573 -0.21096598
0003c0 5b ec 3f 3e 1b c9 04 be 48 7e c7 3b 9e 13 88 bd
       0.18742506 -0.1296734 0.006088052 -0.06644367
0003d0 ee 1b 80 bd 50 c8 1b bd 73 17 43 3e 40 cf c6 3d
       -0.06255327 -0.03803283 0.19051914 0.097074986
0003e0 2e 1a c5 3d 04 01 4c 3e 95 53 4c be c4 eb 8e ba
       0.09624134 0.19922262 -0.19953759 -0.0010904004
0003f0 76 89 13 3e a5 72 19 3e 14 5b 60 be 45 ea 3b 3d
       0.14407906 0.1498514 -0.21909744 0.045877714

word_embeddings_layer.conv1.0.bias f4 [21]
000000 ae 50 21 be 4e 76 88 3d 68 68 05 be 6e 62 32 bd
       -0.15753433 0.0666319 -0.13028109 -0.0435509
000010 a7 eb e7 3d cd 00 3a 3e 41 c1 e6 bd 57 72 3e be
       0.11324244 0.18164368 -0.11267329 -0.18598305
000020 ee 29 00 3c c4 65 99 3d 90 d5 d9 3b 9d 0e 36 bd
       0.007822497 0.074901134 0.006647773 -0.04444753
000030 9d 64 e1 bd 06 d7 53 3d 00 40 60 3e dc a3 ba bd
       -0.110055186 0.051718734 0.21899414 -0.09113285
000040 04 8e eb 3d 3f 5d d4 3d 8c 83 30 3e 32 6a 0a 3b
       0.11501697 0.10369348 0.17237681 0.0021120426
000050 d9 82 69 bd
       -0.05700955

word_embeddings_layer.convs2.0.0.weight f4 [10, 21, 3]
000000 3a fa c7 3d d7 c0 ad 3d 77 59 02 3e 24 b6 be bc
       0.09764524 0.08484047 0.1272944 -0.02328021
000010 9b 3a 74 3d 2e f2 e2 3d 12 31 bb bd 5b 2c 4e 3d
       0.059626203 0.11081348 -0.09140219 0.05033527
000020 42 24 29 3d 28 7c d0 3d 3f 89 76 3c 49 b1 60 3d
       0.041294344 0.10179931 0.01504737 0.054856572
000030 15 d0 b5 3d f0 a6 30 bd 0d 2b bc bd 21 7f bd 3c
       0.08877579 -0.043127954 -0.09187899 0.023131909
000040 86 39 cf 3d 21 41 38 3e f8 32 c2 bd 54 c1 dd 3c
       0.101183936 0.17993595 -0.09482378 0.027069725
000050 68 0f 88 bd cb 24 58 3d 15 05 12 3e ff 93 c4 3d
       -0.066435635 0.052769464 0.14259751 0.095985405
000060 a6 3a 12 bd c0 84 ad 3d 9b 68 80 3c 1b 0c 05 3e
       -0.035700463 0.08472586 0.01567488 0.12992899
000070 ba 1d 5c bd 4f aa a7 bd 51 79 a3 3d c5 13 88 3c
       -0.053739287 -0.08186781 0.07982124 0.01661099
000080 b1 f2 5c 3d ef 0d 53 bd 7c cf d1 3d f3 67 21 3e
       0.053942386 -0.05152696 0.10244653 0.1576231
000090 5d b4 ad 3d 29 ba 36 3d 54 14 03 3e 35 d9 63 bc
       0.08481667 0.04461113 0.12800723 -0.013906767
0000a0 e7 3e 64 bb a6 ca f8 3d 12 3b bf 3d ca 3d 69 bd
       -0.0034827532 0.12148027 0.09337439 -0.056943692
0000b0 62 79 e5 3d c1 c8 36 3e 62 4a d3 3d f8 01 84 3e
       0.112047926 0.17850019 0.10316922 0.25782752
0000c0 81 c9 f2 bc aa 56 21 3e 13 41 36 3e 75 52 f8 bc
       -0.0296371 0.15755716 0.17798261 -0.030312756
0000d0 df 7b fb bd 90 d0 f5 ba a8 0b a1 bc 53 75 1c be
       -0.12279486 -0.0018754173 -0.019658878 -0.1527913
0000e0 20 68 2b bd 7d c4 40 3d f3 80 c6 3d c1 70 97 3d
       -0.04184735 0.047062386 0.09692564 0.07394553
0000f0 22 cc 1e 3e 41 84 23 3e 2f 66 eb bb c0 a8 eb bd
       0.15507558 0.1596842 -0.007183812 -0.11506796
000100 d2 7e 54 bc 5f 4f c4 3d 92 36 60 bc 3b ab b2 bc
       -0.012969689 0.09585451 -0.013684886 -0.021810165
000110 fe ed dc bd c2 96 91 3c f5 35 de bd 15 d4 b6 3d
       -0.10787581 0.017772082 -0.10850135 0.0892717
000120 dd 2e a2 3c 44 cd 04 bd 89 c3 e3 3c 6d 3b da 3d
       0.019797737 -0.03242232 0.0278032 0.10655866
000130 94 20 83 bd a9 41 89 3c 92 9c eb 3d ad c5 89 bc
       -0.06402698 0.016754942 0.11504473 -0.016817892
000140 7f 08 13 be e8 2e e9 3b 11 29 03 be e9 40 35 be
       -0.1435871 0.0071161874 -0.12808634 -0.17700543
000150 cf af d3 3d 68 45 9a 3d 37 f9 6e bd 5d 0e bf bd
       0.10336267 0.075327694 -0.05834314 -0.093289115
000160 a0 18 00 be ed 30 b1 3d d8 2a 7c bc 72 1f f4 bd
       -0.12509394 0.0865191 -0.015391074 -0.1192006
000170 28 e0 ae bd a6 6f 5d 3d 06 55 2e bd 18 83 ee bc
       -0.08538848 0.054061554 -0.042561553 -0.029115245
000180 17 f9 5b 3d 85 63 7e bd 46 55 99 3a 0e 01 8a 3d
       0.053704347 -0.062106628 0.0011698387 0.067384824
000190 a9 45 ca bd 0a b4 b7 bc 74 36 1c be a3 f9 d5 bd
       -0.09876568 -0.022424717 -0.15255147 -0.10448005
0001a0 19 65 12 3e 72 c3 39 bd 01 6a 97 3d 05 9a 52 bd
       0.14296378 -0.045352407 0.073932655 -0.051416416
0001b0 ac e3 e1 bd 7d 51 c3 bd ac ec de 3d 47 68 1f bd
       -0.11029753 -0.09537027 0.10884985 -0.038917806
0001c0 1b 84 b7 3d a5 1d a5 3d 34 76 16 bd 0d 71 06 3e
       0.08960744 0.08062295 -0.03673382 0.13129063
0001d0 47 c6 08 be 71 df 6d 3d 5a c2 02 be ff 6e 8d bd
       -0.13356887 0.05807442 -0.12769452 -0.069059364
0001e0 95 64 88 3d f4 56 3c 3c 6c f5 e7 bc ec 42 9a bd
       0.066598095 0.011495341 -0.028315268 -0.075322956
0001f0 fa d8 fe bd 95 94 a3 3d 98 c2 5b bd 85 90 24 bd
       -0.12443729 0.07987324 -0.053652376 -0.040176887
000200 34 a8 09 3c 14 ba 53 3d 34 7a c8 bd df c2 32 bd
       0.008401919 0.05169113 -0.097889334 -0.043642875
000210 d4 f0 01 3e 75 75 94 3d d5 36 fd bc 6a d6 20 be
       0.12689525 0.07248966 -0.030909935 -0.15706792
000220 b0 2b 43 3d b6 d9 a3 3d 4e c3 bd bb f9 f9 a6 3d
       0.047649086 0.080005094 -0.0057911044 0.08153147
000230 42 55 e2 bd cb 42 e4 3c 48 ca b8 bd fc 59 be 3d
       -0.11051418 0.02786388 -0.09022957 0.09294507
000240 22 16 a1 3d 0d 82 14 3d ab c9 09 3e 35 43 98 bc
       0.078655496 0.03625684 0.13455836 -0.018586734
000250 e4 96 56 bd 2b 08 3a be 13 5b 8d 3d 48 23 8a 3c
       -0.052389994 -0.18167178 0.06902137 0.016862527
000260 9c 55 0b be 8c db c8 3c c3 a4 e7 3d 25 7f a1 bd
       -0.13606876 0.02451875 0.11310723 -0.07885579
000270 01 38 d6 3d 32 68 d7 3c cf b1 88 bc 15 a0 00 3e
       0.10459901 0.026294801 -0.016686348 0.12561066
000280 b0 2e b2 3d 1a e2 aa 3d 8a 74 5e 3d f6 d6 b6 ba
       0.08700311 0.08343907 0.05431036 -0.0013949561
000290 4c d8 bb bc de 24 a4 bd ab 06 a6 3c ef e7 f0 bc
       -0.022930287 -0.08014844 0.020266851 -0.02940747
0002a0 3c 4f f2 3c b0 43 07 3c 7f da 6a 3c 36 e7 c8 bd
       0.029578798 0.008255884 0.01433432 -0.09809725
0002b0 70 ca ea bd 15 8f ac 3d 96 31 00 3e 41 c0 8e 3c
       -0.11464393 0.08425728 0.12518916 0.017425658
0002c0 10 10 23 be be e5 96 bd 9f 7b ee bd 71 60 14 3d
       -0.15924096 -0.073680386 -0.116446726 0.036224786
0002d0 41 1f c1 bd 73 dc f2 3c dc bc 7a 3d ea 6e 43 be
       -0.09429789 0.029646134 0.061215267 -0.19085279
0002e0 74 09 42 bd f0 a4 30 bd 09 56 d4 bd bd d0 50 3d
       -0.047372296 -0.043126047 -0.103679724 0.05098032
0002f0 5e a4 c4 bc 5f 53 f7 3d f0 e3 75 bd 75 b5 ab 3d
       -0.024004158 0.12076449 -0.06003183 0.083842196
000300 40 d5 ae bd 51 e2 5f bd 5e 90 46 3d 81 8e 14 3e
       -0.08536768 -0.05465919 0.048477523 0.14507486
000310 b1 6c da 3d 1a 5a c0 bd 8b c8 bc 3c 6c 76 f0 bc
       0.106652625 -0.093921855 0.023044845 -0.029353343
000320 97 c3 a7 3c 36 60 6c bd 97 2e 88 3c 0e 8e 9f 3d
       0.020479007 -0.05770894 0.016623778 0.07790767
000330 37 9a 8f bd d5 be 98 bd ca 50 44 3d 0f de bc 3d
       -0.07011836 -0.07458273 0.04792861 0.09222042
000340 4e 34 a3 3b f0 30 1f 3e a8 1a 8b bd 5f 29 25 bd
       0.0049806004 0.15546012 -0.06792194 -0.040322658
000350 59 86 93 bd 7e 2c 61 3c 6a 2b fc bb ea 7b cf 3d
       -0.07203359 0.013743518 -0.007695605 0.101310566
000360 1b 96 bf 3c 84 ba 2f 3d ae d4 2f bd 65 65 09 3e
       0.023387006 0.042902485 -0.042927437 0.13417585
000370 19 8a 0c 3e 14 68 c3 bd 01 59 0d 3d c0 ae 87 bd
       0.13724555 -0.09541336 0.03450871 -0.06625128
000380 b0 12 b4 3d 00 9e b3 bd a6 f8 2e bd 4a 43 14 3e
       0.08792627 -0.087703705 -0.0427176 0.14478794
000390 c2 90 83 bd c7 f0 f4 3d c7 e4 28 3d 8b 65 06 3e
       -0.06424095 0.11959987 0.041233804 0.13124673
0003a0 e3 01 32 bd cb 2a eb 3d b6 3a 34 3d 3c c3 80 3c
       -0.04345883 0.114827715 0.044001304 0.015718095
0003b0 82 72 13 3e 26 0d bf bd ff 3a bb bd b0 f7 fd 3d
       0.1439915 -0.0932868 -0.09142112 0.12400758
0003c0 50 8d 01 bd 87 ff 23 be 38 10 bf bc 9b 89 ea bc
       -0.031628907 -0.16015445 -0.023323163 -0.028630069
0003d0 07 86 cf bb fc 3b 4c bd 09 cb 73 3d 79 2e cf bd
       -0.006333116 -0.049861893 0.0595198 -0.10116286
0003e0 a3 11 2c 3d f7 cd b9 3d fc 40 a8 3d a4 7e f7 3c
       0.042009007 0.09072488 0.0821552 0.030211754
0003f0 fd 06 34 bc 48 a9 b6 bd b1 2d 6e bd a4 9c f4 bd
       -0.010987994 -0.089190066 -0.058149043 -0.11943939

word_embeddings_layer.convs2.0.0.bias f4 [10]
000000 26 3c 49 3c 2a 68 b0 3d b2 35 61 bb ac 42 73 bd
       0.012282407 0.08613618 -0.003436428 -0.059389755
000010 fa f1 84 bd 4c b3 f9 3d 7c d8 22 3c be 6a 0a bc
       -0.06491466 0.12192401 0.009939309 -0.008448301
000020 5a 29 a1 3c 74 d4 4f bd
       0.019673038 -0.05073972

word_embeddings_layer.convs2.1.0.weight f4 [10, 21, 4]
000000 13 94 0c be 25 bd 21 be 90 c1 4e bd 96 a4 95 bd
       -0.13728361 -0.15794809 -0.050477564 -0.07306783
000010 89 04 5b 3b d6 fd f8 bd 64 df c8 bd 9a 61 83 39
       0.0033419451 -0.1215779 -0.098082334 0.00025058986
000020 78 51 0d bd 60 f7 a5 bd 36 22 96 bc bb ba b3 bd
       -0.034501523 -0.08103824 -0.01832686 -0.087758504
000030 e1 75 2c be 1a ac aa bd 37 47 e3 bd e4 2d 17 3d
       -0.16841842 -0.08333607 -0.110975675 0.036909
000040 ce c9 51 3d d2 ef 73 bd fa 0a e6 3c c4 a1 ed bd
       0.051217847 -0.059554882 0.028081406 -0.1160312
000050 1d 1d 31 3c 02 c6 49 3d 6c 67 83 bd fa 71 1d be
       0.010810164 0.0492611 -0.064162105 -0.1537551
000060 6a 43 73 bd 16 0b f6 bd 05 51 79 bd 3a 3e 18 be
       -0.059390463 -0.12013833 -0.060868282 -0.14867488
000070 e9 d8 8d bd 99 f6 12 be c0 ed 90 bd a9 7e b0 bd
       -0.06926138 -0.14351882 -0.07076597 -0.086179085
000080 8d 73 fd bd 78 84 50 be ca da ef bd 2f 66 cf bc
       -0.12375555 -0.20363033 -0.117116526 -0.02531728
000090 86 b5 ca 3c 94 b2 f2 3c a2 63 1f be 2a b3 22 bd
       0.02474476 0.029626168 -0.1556535 -0.039721645
0000a0 55 6f 06 be cf 3f 18 be ed 8f 8f bd fd a8 16 be
       -0.13128407 -0.14868091 -0.070098735 -0.14712901
0000b0 6c 6c 35 be 6f 3b 44 be e2 cc 1d be 6c 44 da 3c
       -0.17717141 -0.19163297 -0.15410188 0.026643954
0000c0 f0 95 2d bc 3f 87 08 be 19 50 1f be 20 04 47 be
       -0.01059483 -0.13332842 -0.15557899 -0.19435167
0000d0 1a 4d 18 be 67 ee 0b be 7d 49 98 3b a2 79 e2 bc
       -0.14873162 -0.13665162 0.0046474324 -0.02764589
0000e0 74 9b 1d be 74 0f ec 3b 14 d2 25 be c7 51 52 be
       -0.15391332 0.0072039906 -0.1619342 -0.20539008
0000f0 ce c6 44 bd ef 79 23 be ff d6 1e bd 2e 9a b0 3c
       -0.048041157 -0.15964483 -0.038779255 0.021557894
000100 da 56 0e be 16 d0 1c be 28 8d a7 bc 8b fe 22 be
       -0.13900319 -0.15313753 -0.02045305 -0.15917413
000110 23 4c 8b bc e7 3c 0a be 78 ed 98 bc a6 22 55 be
       -0.017004078 -0.13499795 -0.018667921 -0.20813999
000120 75 79 21 be c5 a7 86 bd 73 ca 96 bd 76 47 4d bd
       -0.15768988 -0.06574968 -0.07362833 -0.05011698
000130 57 76 3c bd da 52 03 be 38 f2 b9 bd 4b ac d1 bd
       -0.046011295 -0.12824574 -0.09079403 -0.102379404
000140 46 1a af bd a4 bb 93 bd 81 a5 32 be a3 92 1e be
       -0.08549933 -0.07213524 -0.17445947 -0.15485625
000150 9e 41 92 3d cf fb 80 bd 5f 78 c4 3d e2 90 56 3c
       0.07141422 -0.06298029 0.095932715 0.013096066
000160 3f 49 d8 3c 80 89 c4 3d cb 94 6f bd b8 93 8a bc
       0.026402114 0.095965385 -0.05849151 -0.01691614
000170 38 8b f3 3c b2 8f 96 3d 1c 10 ca bd 41 74 e2 3c
       0.02972947 0.073516265 -0.09866354 0.027643325
000180 25 14 7c bd 6c 40 c8 3c a4 f9 88 3d bc fd ba 3c
       -0.06154265 0.024444781 0.0668824 0.022826068
000190 85 f4 1d 3d 05 14 1c 3c 6f 28 8a 3d b7 37 d5 3d
       0.03856327 0.009526257 0.06745993 0.104110174
0001a0 c6 f6 e7 3c ff d9 80 bd 27 c5 2d bd be f1 cb 3d
       0.028315913 -0.062915795 -0.042424347 0.09958218
0001b0 b0 30 9a 3d a6 7e 78 3d 17 59 a8 bd 0b d4 dc 3d
       0.07528818 0.060667656 -0.082201175 0.107826315
0001c0 9f e2 0f 3c 64 78 82 3d 55 c9 8c 3d 32 c1 fe 3c
       0.008782058 0.06370619 0.068743385 0.031097982
0001d0 69 ae 38 bd b6 7c d7 3d 52 38 ab bd 6d ed 06 3e
       -0.045088205 0.105218336 -0.083603516 0.13176508
0001e0 5f f8 dd bd 3d 4d 44 bd 37 a9 b3 bd a2 56 a2 bd
       -0.10838389 -0.047925223 -0.087725095 -0.0792668
0001f0 9c 48 ca 3d 37 74 87 bd 80 5b e0 bd 43 d0 9e 3d
       0.098771304 -0.06613963 -0.10954952 0.077545665
000200 d1 42 88 3d 9c 75 e1 3c d8 6b 75 bd 8e dd 34 3c
       0.06653369 0.0275219 -0.0599173 0.011039151
000210 64 8e 22 bd 34 68 76 3d 80 ab 42 bd b1 65 1e bd
       -0.039686576 0.06015797 -0.047526836 -0.0386712
000220 16 a2 b9 bd 1f 02 bc bc 3d 70 a3 3d 80 b2 dd 3d
       -0.090641186 -0.02295023 0.07980392 0.10825062
000230 33 20 d3 3a 1c 81 19 bd ad ff e5 3d 83 f0 01 3d
       0.0016107619 -0.037476644 0.11230407 0.03172351
000240 c0 cb 9d bd 5f c5 d0 bd d6 a4 13 bd 5d ec 3b 3d
       -0.07704878 -0.101938955 -0.03604587 0.04587971
000250 a0 f5 e7 3c 4c 1b bd 3d ba 13 83 3c a5 8b 8c 3d
       0.028315365 0.09233722 0.016000617 0.068625726
000260 4d 34 94 bc a6 dc f6 bc 81 2f 48 3b 7e 68 1c be
       -0.018091345 -0.03013451 0.0030545893 -0.15274236
000270 6b 81 95 bd 08 2e a9 bd ae 54 31 3b f3 bf 05 3c
       -0.07300075 -0.08260733 0.002705853 0.00816344
000280 a2 3b 1e bc 37 2c 4f bd db 3a d8 3d 36 60 c5 bc
       -0.009657772 -0.050579276 0.10558101 -0.024093729
000290 5f bb 52 3d dc 3e 79 3d 66 75 d1 bd 75 5e 81 bd
       0.051448222 0.060850963 -0.1022747 -0.063168444
0002a0 38 88 38 bc d7 87 10 3d 05 f0 9d bd 43 22 b8 3c
       -0.011262946 0.035285797 -0.07711796 0.022477275
0002b0 75 7c 07 be bf a2 d7 bd 50 a2 14 3d b1 2e 55 bd
       -0.1323107 -0.10529088 0.036287606 -0.05204648
0002c0 dc 1f df 3d 00 cc f3 bc a2 44 b4 bd a7 5c b9 3d
       0.108947486 -0.02976036 -0.08802153 0.09050875
0002d0 87 9c 5d 3d c6 21 96 bc 72 16 cf bd a5 c1 3a bd
       0.054104354 -0.018326651 -0.10111703 -0.04559483
0002e0 66 88 be bd 5f 5b 6e 3d f2 0b 50 ba 1b b8 27 3d
       -0.0930336 0.058192607 -0.00079363503 0.04094706
0002f0 9d 53 36 3d e6 f2 08 3d 15 eb ac bd 48 a8 ce 3d
       0.044513334 0.03343477 -0.08443276 0.10090691
000300 d2 10 4a 3d bd 45 b4 bd fa 07 8b 3d 81 19 62 bb
       0.049332447 -0.08802364 0.06788631 -0.0034500065
000310 98 c1 c9 bd 68 4f c5 bd 5e 49 d2 bc c8 3a 02 be
       -0.09851378 -0.09634286 -0.02566975 -0.12717736
000320 68 5a f1 3c 0a b0 a3 3d bb ad db bc 91 2f 52 3d
       0.029462054 0.07992561 -0.02681624 0.051314894
000330 b8 70 60 bd 19 bb 2b bc 59 8b 4d bd ec 21 91 3c
       -0.054794997 -0.010481619 -0.05018172 0.01771637
000340 1b f8 a9 3c b0 3e d0 3c 61 30 9d bd 58 0d b2 bd
       0.020748189 0.025420517 -0.07675243 -0.08693951
000350 00 05 66 3d 51 42 66 3d 19 cb 8e bb 7f 01 b8 bd
       0.056157112 0.056215588 -0.004357707 -0.0898466
000360 df ad 9f bc 85 6f 39 bd 41 65 2d 3d d5 fd 91 bd
       -0.019492088 -0.04527237 0.04233289 -0.07128493
000370 e8 15 cd ba 7a 92 f9 bc fc 13 2a 3d 31 ce 3e bb
       -0.0015646787 -0.030465353 0.041522965 -0.00291146
000380 1f 6d 3c 3d 9f 4b 80 3a 7f 75 28 be 22 65 76 bd
       0.046002503 0.0009788162 -0.16451071 -0.06015504
000390 f8 05 a0 bd ed 7d e2 bd c0 4f 3d bd 0b 54 e2 3c
       -0.078136384 -0.11059175 -0.046218634 0.027627965
0003a0 1a 3d 9b bc a1 6a ba 3d 5f 29 bc bd b9 48 f5 bc
       -0.018950034 0.09102369 -0.091875784 -0.029941903
0003b0 24 c3 31 bd 1a 0f 5c bd 05 13 8e bd 58 9c a2 3d
       -0.04339899 -0.05372534 -0.069372214 0.079399765
0003c0 78 85 d2 bd 86 f3 b7 bd db fd 56 bd 92 7e 94 3c
       -0.102793634 -0.08981995 -0.05248819 0.01812676
0003d0 a4 4e 90 bd 55 20 83 bd 6e 1f 51 bd 37 ab 50 3c
       -0.070462495 -0.06402651 -0.051055364 0.012736133
0003e0 54 37 32 3d ba 15 95 3d 9e 20 56 ba 98 1a ac bd
       0.043509796 0.07279535 -0.00081683125 -0.0840351
0003f0 f4 3b b9 bd 75 61 83 bc 13 55 d1 3c 7e 36 95 bd
       -0.09044638 -0.016037682 0.025553262 -0.07285784

word_embeddings_layer.convs2.1.0.bias f4 [10]
000000 db 7a d3 bd 26 8c b3 bd fa 52 1e 3d 2b f6 ae bd
       -0.10326167 -0.087669656 0.03865335 -0.085430466
000010 d1 d3 17 3d 78 77 91 bd 87 43 7d 3d 4a 54 0e 3e
       0.03706724 -0.07102865 0.061831977 0.13899341
000020 2e f8 9c bd c2 aa ed 3d
       -0.07664524 0.11604835

word_embeddings_layer.convs2.2.0.weight f4 [10, 21, 5]
000000 68 a9 82 bb 8a 00 bd bd 39 24 be 3c 73 53 0d 3d
       -0.00398748 -0.092286184 0.023210632 0.03450341
000010 96 21 78 3d 11 4b f4 bd 02 46 6a 3d 87 70 67 3d
       0.060578905 -0.1192838 0.05719567 0.0565038
000020 1d a7 86 3d 91 33 df 3c 38 db a3 bd bf 23 a0 3d
       0.06574843 0.027246268 -0.08000797 0.07819318
000030 3e 39 8b 3d ed 42 93 bd ec 1d 13 bc 1e fa ea 3c
       0.067980275 -0.071904995 -0.008979302 0.028683718
000040 e6 82 44 3d 07 c6 0e 3d 00 0a 21 3d 03 1d a3 bd
       0.047976397 0.034856822 0.039316177 -0.07964518
000050 e1 7e 45 bd ec 19 89 bd 88 72 52 3b 3b b8 d6 3b
       -0.048216704 -0.06694397 0.0032111723 0.0065527237
000060 c5 8a 2c bd e1 1c 22 bd c5 56 eb bd 5a 47 f4 bd
       -0.04212453 -0.039578322 -0.11491159 -0.11927672
000070 5c 56 ad 3d 19 46 2e bd c4 90 8e 3c c7 f6 6c bd
       0.08463737 -0.04254732 0.017403014 -0.057852533
000080 f0 e7 0c bd 0c 5e 0a bd b1 a2 54 3d d7 ba a4 bd
       -0.03440088 -0.033781096 0.051912967 -0.08043449
000090 97 e6 7b 3d 62 bc 83 3c fd 14 60 3d 34 e6 05 be
       0.061499204 0.016081039 0.054707516 -0.13076097
0000a0 da 45 75 bd 80 19 df bd 3f 0b 3f bd 3a 42 26 bd
       -0.05988107 -0.108935356 -0.046641584 -0.040590502
0000b0 a5 f7 64 3c 69 18 93 3d 10 c0 2f bb 72 c6 d0 bd
       0.013975059 0.0718239 -0.002681736 -0.101941004
0000c0 37 c6 46 be 23 3a 07 3e c2 58 81 bc 96 3d 2d 3c
       -0.1941155 0.13205771 -0.015789393 0.010573765
0000d0 db 1d ae bd c2 18 26 bd 6e b5 26 bc 2c 7c dd bd
       -0.08501788 -0.040550955 -0.010175092 -0.108146995
0000e0 46 86 10 3d 54 e8 58 39 b9 3d e5 bd 8d 64 d8 bc
       0.035284303 0.00020685914 -0.11193413 -0.026415134
0000f0 85 94 42 bd 10 73 1a bb 3b 51 5b bd 0f 6c 9d 3d
       -0.04750492 -0.0023567118 -0.053544264 0.07686626
000100 b3 cc 09 be ad 4d a1 bd 82 47 31 bd 7f 09 69 bb
       -0.13456993 -0.078761436 -0.043281086 -0.0035558639
000110 7f f1 d8 3c 42 6d 1b bd 60 76 6e 3d 39 ae df bd
       0.026482342 -0.037945993 0.05821836 -0.10921902
000120 c5 8c fd 3a 68 e7 c3 bd b0 ab a0 bd 95 8c 08 be
       0.0019344321 -0.095656216 -0.07845247 -0.13334878
000130 4d 1e f0 bd e0 39 ed bd 67 a3 7b 3d 8d 33 64 bd
       -0.117245294 -0.115833044 0.06143513 -0.055713225
000140 0d 9d 9f 3c 21 e3 8e bd 18 4a 11 bd 20 08 a4 bc
       0.019484067 -0.06976915 -0.035471052 -0.020023406
000150 64 b7 bd 3d 99 40 05 bd 7e ed 74 3c 3f 8d e7 3c
       0.092634946 -0.03253231 0.014949201 0.028265594
000160 e6 ca 55 3d 61 fe 5b 3d 53 0d b9 3c 15 12 64 bd
       0.052195452 0.05370939 0.022589361 -0.055681307
000170 d9 38 3d bd 68 5f 6d ba 2a 66 af 3c 55 bb 9e bc
       -0.046196792 -0.0009055049 0.02141102 -0.019376436
000180 a5 6e 8c 3c 56 e8 b3 bd 02 eb e7 3c ca 11 02 bd
       0.017142603 -0.08784549 0.028310303 -0.031755246
000190 c6 12 9f bd 0a f2 ea bd 0b 7c d0 bd 4c 7c 19 3d
       -0.077672526 -0.114719465 -0.10179909 0.037472054
0001a0 ef b2 b6 bc 9f c2 df bd 41 e0 fb bd 29 2f 2d be
       -0.022302119 -0.10925793 -0.122986324 -0.16912521
0001b0 13 d1 59 bd 03 10 e3 bd bc 69 1e bd 12 e0 8d 3c
       -0.053177904 -0.11087038 -0.038675055 0.01731876
0001c0 4c c4 f9 bd 89 68 48 3c 69 bc 57 bd df 46 d5 bd
       -0.12195644 0.012231954 -0.052669916 -0.10413908
0001d0 ab 26 62 bd 94 ab 06 bd 1e 3d bd 3c 00 15 84 bc
       -0.055212658 -0.032878473 0.023100432 -0.016123295
0001e0 2c 34 69 bd d0 9c 07 3d 15 e8 6c 3c a9 35 19 be
       -0.05693452 0.033108532 0.01445963 -0.14961876
0001f0 3c 98 65 bc 31 27 38 bd d3 a0 2d bd 99 b4 af bc
       -0.014013346 -0.04495925 -0.042389702 -0.02144842
000200 dc 14 35 bd 09 b9 08 3e 0b 8c 13 be 73 23 64 3d
       -0.044209346 0.13351835 -0.14408891 0.05569787
000210 b0 be c0 bd 4f c0 ac bc 0a f1 0b bd 07 1f 36 bd
       -0.09411371 -0.021087794 -0.03416542 -0.044463184
000220 88 a1 93 3b 08 8a 8c 3d dd f8 42 bd 28 65 52 bd
       0.00450534 0.06862265 -0.047600616 -0.051366
000230 70 ff 09 3d 58 46 55 3d 20 1c 94 3d 63 51 ac 3c
       0.03369087 0.05206904 0.07231927 0.021034902
000240 da 61 ff 3b 7e 51 b4 bd cd 08 ca 3c 82 c8 60 bd
       0.0077936472 -0.08804606 0.0246624 -0.05487872
000250 c6 49 11 be c0 59 32 bd 52 92 e3 bc 18 5b 0b 3e
       -0.14188299 -0.043542624 -0.027779732 0.13608968
000260 71 f2 4a 3d 67 82 a2 3d c4 77 6e 3d 67 c4 4d bd
       0.049547616 0.079350285 0.058219686 -0.050236132
000270 22 4c 70 3d 56 b1 88 bd b4 97 34 bc 3a 46 b4 3d
       0.058666356 -0.06674449 -0.011022497 0.08802457
000280 35 47 9e bd 09 b6 23 bc 1f cd 76 bd e9 bc 80 3d
       -0.077284254 -0.009992131 -0.060254212 0.06286032
000290 8d f8 5b 3d 02 c7 db bd 10 36 d8 bc 36 01 42 bd
       0.053703833 -0.10731317 -0.026392967 -0.047364436
0002a0 4d 73 09 be f3 de 64 bc 1a 4d 05 3d 85 6a 37 3d
       -0.1342289 -0.013969171 0.032544233 0.04477932
0002b0 8b c2 51 bc b1 6f 52 bd f1 68 ff bc 1c 04 90 3c
       -0.01280273 -0.05137605 -0.03117797 0.017580085
0002c0 ae 70 28 3b 9d e3 d9 bd 13 89 6e 3d f1 48 36 3d
       0.0025701928 -0.10639117 0.058236193 0.044503156
0002d0 99 c1 5c bd 4f 45 96 3c ce d9 76 bd ce 85 5d 3d
       -0.053895567 0.018343596 -0.06026631 0.054082684
0002e0 f4 9d bb 3d 02 9f c0 bd 0f fd 56 bc 5d a8 04 bd
       0.091609865 -0.09405328 -0.013121857 -0.032387126
0002f0 ea c0 0d 3d 8a e2 9b bd 9b 42 80 bd 80 d4 39 bc
       0.034607805 -0.07611568 -0.06262704 -0.011342168
000300 51 87 56 bd 56 28 94 3d a7 87 3c bc c6 db ba bd
       -0.05237514 0.07234256 -0.011506951 -0.0912395
000310 50 31 5b bd 5b 82 fa bd d9 ec c2 bd d5 99 4d bd
       -0.053513825 -0.122318946 -0.09517831 -0.050195534
000320 1e 34 fb bc de 09 40 be cd e7 d8 bd df bc 02 3b
       -0.0306645 -0.18753764 -0.105910875 0.0019949002
000330 1f 23 09 be 52 b5 9d 3d 2a 63 a5 3d 9e a7 45 3d
       -0.13392304 0.077006 0.08075555 0.048255555
000340 dc 06 22 3c 08 84 3c 3d d5 72 1b be 44 a7 18 be
       0.009889331 0.046024352 -0.15180524 -0.14907557
000350 74 db 15 3d 95 0b 10 be a9 82 05 be 39 76 97 bd
       0.03658624 -0.14066918 -0.13038124 -0.07395596
000360 8c 69 02 bd 5a ba a4 bc f6 07 a1 bd 99 9d 14 bd
       -0.03183894 -0.02010839 -0.078628466 -0.03628311
000370 4f cd d9 bc 8e 33 a0 3d fd 7b ac 3d 10 0c 26 3d
       -0.026587157 0.07822333 0.084220864 0.040538847
000380 3f 24 83 3c e9 58 5d 3d 12 b3 cd bd 83 47 14 3d
       0.016008494 0.05403987 -0.100439206 0.03620101
000390 fc 4b 8e bd 6d f7 a3 3d ba 68 b2 bd b1 dc 29 3d
       -0.069480866 0.08006177 -0.08711381 0.041470233
0003a0 ef 4d 7a bd c1 15 77 3d 36 c7 cf 3c 61 71 79 3d
       -0.06110948 0.06032348 0.025363546 0.060899142
0003b0 cc 4b ad bd 5c 42 54 3d fa 8e 77 bd 21 27 61 bd
       -0.08461723 0.051821098 -0.060439087 -0.054968957
0003c0 aa 2d dd 3c f6 ea 88 bc 31 1f bb bd 13 45 a7 bd
       0.026999313 -0.0167136 -0.09136809 -0.08167472
0003d0 c1 56 00 bd 30 fe af 3c df 11 c1 3d de 29 a4 3d
       -0.031332735 0.02148351 0.09427237 0.08015798
0003e0 40 12 60 38 81 65 8b bd 4b 6e b9 bd 1e b6 96 3d
       5.342276e-05 -0.0680647 -0.0905424 0.07358955
0003f0 fe 01 8e bd 38 14 2a bd d6 1c 87 bd a9 1f d4 bc
       -0.06933974 -0.04152319 -0.06597297 -0.025894003

word_embeddings_layer.convs2.2.0.bias f4 [10]
000000 65 5f 65 bd aa 0c b6 3d 2f 3e 2f 3c f4 f1 ab bc
       -0.05599918 0.08889134 0.010695978 -0.020989396
000010 22 65 62 3d a6 77 2f bc 2e fd 8e bc 69 e2 2c 3d
       0.05527223 -0.010709679 -0.01745471 0.04220811
000020 5f 17 e3 3b c7 bf 43 bc
       0.0069302763 -0.011947579

word_embeddings_layer.linear.0.weight f4 [30, 30]
000000 1d b0 44 3e 76 c3 fb 3c 22 d1 9a bd 93 b2 a7 bd
       0.19207807 0.030732851 -0.0755942 -0.08188357
000010 ec 94 0c 3e c5 02 4b bd 0a 4c 0b 3e df fc eb bd
       0.13728684 -0.049563188 0.13603225 -0.11522841
000020 dd d4 85 3c 2d 24 09 be 33 f4 c8 3d 8e 6a 33 3e
       0.016336853 -0.13392706 0.09812202 0.17521116
000030 9b 78 f5 3d 84 1a 7c bc 27 b0 14 be 00 3b 31 bd
       0.11985894 -0.015387181 -0.14520322 -0.043269157
000040 23 1c aa bd 11 15 4e 3e bc a9 99 bd 53 77 c6 3d
       -0.08306148 0.20125224 -0.075030774 0.09690728
000050 35 43 32 3e ea 4a d3 3d 71 a5 f4 bd 95 b6 88 3d
       0.1740845 0.10317023 -0.11945618 0.0667545
000060 7a 98 f8 bc b1 b7 40 3e de 30 2b bb df dc 38 3d
       -0.030346144 0.18820073 -0.0026121656 0.045132514
000070 e9 1b 46 3e 62 7e 85 3d 1b 81 7e 3d 81 86 bb bd
       0.19346584 0.06518246 0.062134843 -0.09156514
000080 12 f9 ce 3d ec fd 16 3c 35 63 25 bd 14 0c 29 3c
       0.101061 0.009215813 -0.040377814 0.010317821
000090 03 6a 10 be b2 ea 4a 3b c8 86 68 3d 42 6d 6b be
       -0.1410294 0.0030962643 0.056769162 -0.22990897
0000a0 80 69 42 bd 69 48 ac 3d 72 8a 4d 3d 69 7f 00 3d
       -0.047463894 0.08412249 0.05018086 0.031371508
0000b0 bb 85 b0 bb f5 a1 49 bd ac 6d 13 3e 43 59 33 bd
       -0.0053870357 -0.04922672 0.14397305 -0.0437863
0000c0 68 a2 97 bd e6 4c 93 3d e3 78 20 be 30 50 92 bd
       -0.074040234 0.071924016 -0.15671115 -0.07144201
0000d0 24 89 13 3d 00 a8 94 bd 1a 66 73 3d e4 7f 00 be
       0.03601946 -0.07258606 0.059423544 -0.12548786
0000e0 99 c8 9b bd f3 b9 95 bd d0 5e 76 3e 76 4a 20 3d
       -0.0760662 -0.073108576 0.24059606 0.03913351
0000f0 53 76 0b be 40 ea 90 3d 40 bf 7d bb f6 24 2b 3e
       -0.13619356 0.0707593 -0.003871873 0.16713318
000100 44 59 ce 3d fa 5f da bd 90 a6 26 3e 98 c0 05 bd
       0.1007562 -0.10662837 0.16274476 -0.032654375
000110 5c 49 2a bd bc 9e 5f 3d 26 be 39 3e e0 a3 61 3d
       -0.041573867 0.05459474 0.18138942 0.055087924
000120 12 63 34 be 60 b9 6e bd 46 17 2e 3e 4d c9 83 bd
       -0.17615917 -0.058282256 0.17001066 -0.064348795
000130 19 e3 b3 bd 28 05 15 be 83 67 ce bd 3e 6f cc bd
       -0.0878355 -0.14552748 -0.10078337 -0.09982155
000140 bc 99 32 3d 28 63 95 3d 16 6d 32 3e f8 62 f5 3d
       0.043603644 0.07294303 0.17424425 0.119817674
000150 40 cc 30 3b 30 a6 c9 3d 28 b9 d5 3d 13 41 21 be
       0.0026977211 0.09846151 0.104357064 -0.1574748
000160 94 ac bc 3d ec c7 ff bd 23 fe 42 3e c8 74 df bc
       0.09212604 -0.12489304 0.19042258 -0.027277365
000170 f0 9c bf 3d 1f 5a 46 3d 40 b1 5d 3d 36 df 99 3d
       0.09356105 0.04842579 0.054124117 0.07513277
000180 0e 13 8c bd df 1e 06 3e 40 12 26 3e bb da 59 bb
       -0.06839572 0.13097714 0.162179 -0.0033241946
000190 87 b8 16 be 5c d5 8e bd 5e 21 51 bd 5e 91 58 bb
       -0.14718829 -0.06974289 -0.051057212 -0.003304563
0001a0 6f d0 8e 3d dd 7a e4 bc 07 d2 92 3c 90 d6 26 3e
       0.06973349 -0.027890617 0.017922414 0.16292787
0001b0 17 d3 68 3d d2 15 84 bd f3 a1 1d 3c 46 05 88 bd
       0.056841936 -0.064494744 0.009621131 -0.06641631
0001c0 66 ef 8d bc 08 5c 34 be b0 8c 88 3d 3d c2 1d be
       -0.017326068 -0.17613232 0.06667459 -0.15406127
0001d0 42 74 02 3e 99 67 27 3e 60 b5 12 be 5f a0 33 bd
       0.12739661 0.16348113 -0.14327002 -0.043854114
0001e0 50 ac 12 be b2 cf 2f 3d ea 67 02 3d 24 60 c2 bd
       -0.14323545 0.042922683 0.03183738 -0.094909936
0001f0 cc 01 a5 3d 63 2e a3 3d df 77 86 be 0e b1 fa bd
       0.08056983 0.07967832 -0.2626333 -0.12240802
000200 d3 42 9b bd 61 88 26 be 05 23 c9 3d 42 93 e9 bc
       -0.07581105 -0.16262962 0.098211326 -0.0285126
000210 fe 9c 3c be 38 5b bc 3d f5 21 22 be 23 52 a5 bd
       -0.18419263 0.09197086 -0.15833266 -0.08072307
000220 99 f1 66 3d 0d b4 2a 3e b6 2e 35 3e c8 db 1e bd
       0.05638275 0.16670246 0.176936 -0.03878382
000230 d7 d1 1d 3d 0b a4 88 be be 5d dc bd b4 d9 c7 bd
       0.038530197 -0.26687655 -0.107600674 -0.097583205
000240 c2 57 85 3d 4c e8 18 be b1 27 22 3d 34 a4 c8 3c
       0.06510879 -0.14932364 0.039588634 0.02449236
000250 59 e5 17 3e 16 ab 19 bd a4 c4 2f 3e c4 71 34 be
       0.14833583 -0.037516676 0.17164856 -0.17621523
000260 43 f3 41 bd 5b 51 9b 3d a2 da 24 3c fc c1 ad 3d
       -0.047351133 0.07583877 0.010061892 0.08484265
000270 d3 bd 0c be 8f 52 9f 3c 43 f5 22 be ff cb 31 be
       -0.13744287 0.019448547 -0.15913872 -0.17362975
000280 96 4d c9 bc 84 73 43 be d0 bf 4d be 5d df 43 be
       -0.024573129 -0.19087034 -0.20092702 -0.19128175
000290 8d 97 01 3e 04 11 53 3c 85 85 86 bd fe 64 3e bc
       0.12655468 0.012882475 -0.065684356 -0.011620758
0002a0 5e 1c 1f be c0 c5 32 be d9 84 01 be d4 4a 83 be
       -0.15538165 -0.17458248 -0.12648334 -0.25643027
0002b0 9c 53 d2 3d 3a 19 0c be 83 34 66 bd 37 20 60 be
       0.102698535 -0.13681498 -0.056202423 -0.21887289
0002c0 1b ea 1f 3d e4 ac e2 bd f3 e5 0b be e4 39 e6 3d
       0.03904162 -0.110681325 -0.13661937 0.112415105
0002d0 a8 74 1d 3e 3b 4f 09 be a2 cc c8 3d 37 69 18 bd
       0.15376532 -0.1340913 0.098046556 -0.037209716
0002e0 fd e0 a3 bc 7a ba ac 3d 5c e3 80 bd 1c cd e0 3d
       -0.020004744 0.08434005 -0.06293365 0.109766215
0002f0 ae 1a d3 3d d9 50 14 be 1a fa 13 be 19 c8 32 be
       0.10307823 -0.14483966 -0.14450875 -0.17459144
000300 0e fc 70 bc 63 f8 55 be a7 62 0f be d3 fa 22 be
       -0.014708532 -0.20895533 -0.14002477 -0.15915994
000310 13 45 28 be a0 7b 0f be 22 6e 27 3e 25 ef dd 3d
       -0.164326 -0.14012003 0.16350606 0.10836629
000320 6e da 18 3e bc 97 03 be c1 ff f0 bd 9a 73 0b be
       0.14927074 -0.12850851 -0.11767531 -0.13618317
000330 43 29 af 3c c1 4f 47 be 40 44 ba 3c 19 22 06 be
       0.02138198 -0.19464017 0.022737622 -0.13098945
000340 b1 94 13 bc 92 61 2b 3e 66 6e a4 3a 6e 2f e3 3d
       -0.009007619 0.16736439 0.0012545108 0.11093031
000350 86 b8 22 be 45 b5 55 bd 9d b5 ae bd cc be 4a bd
       -0.15890703 -0.052174825 -0.08530734 -0.049498364
000360 19 28 6d bd d1 ee a3 bd e9 8f 50 be a5 eb 44 bd
       -0.05789957 -0.08004535 -0.20367397 -0.04807629
000370 c4 4c 5d 3d 24 92 55 bd 60 2b 13 be 31 9b 28 3e
       0.054028288 -0.052141324 -0.14372015 0.16465451
000380 72 5b 05 3e 57 4c a5 bd f0 d0 6a 3c 94 13 b9 3d
       0.13023165 -0.08071201 0.014332041 0.09036937
000390 f4 a9 48 be b6 c3 42 be 2a 88 e1 3d f2 2e 83 3c
       -0.19596082 -0.1901997 0.11012299 0.016013596
0003a0 d2 50 90 3d df bc 40 bd 99 df 07 3c a1 08 12 3e
       0.07046665 -0.04705512 0.008293056 0.14261104
0003b0 eb 7b 97 bd 10 4d 01 bd 5f 26 15 be 26 44 63 bd
       -0.07396682 -0.031567633 -0.14565419 -0.055484913
0003c0 fb 8a fb 3d 7b 45 3e be 04 3a a4 bc df d8 17 3e
       0.12282368 -0.18581192 -0.020047195 0.14828824
0003d0 ad 45 87 bd b6 15 64 bd 8c 0f c0 bd 24 3b ea bd
       -0.066050865 -0.055684768 -0.09377965 -0.114370614
0003e0 e2 91 31 3d 82 aa 4d be 61 b3 13 3d 95 f3 85 bd
       0.043352015 -0.20084575 0.03605974 -0.065406
0003f0 2b 34 68 bd 9b 75 41 bd cf cb da 3d 01 4f 17 be
       -0.056690376 -0.047231298 0.10683405 -0.14776231

word_embeddings_layer.linear.0.bias f4 [30]
000000 0a aa 25 3b d2 f8 f3 bc 39 23 1a be c8 f6 44 3d
       0.0025278353 -0.029781733 -0.15052499 0.04808691
000010 ce 96 a3 bd 8c b7 e6 3d a0 bc 26 3e d8 cc 49 be
       -0.07987748 0.112654775 0.16282892 -0.19707048
000020 e6 a2 c2 bd 5c 67 48 3e f6 d2 9e bd ea 0f 28 3e
       -0.09503727 0.19570678 -0.07755081 0.1641232
000030 ac 42 10 3e d2 bd 87 bd 13 99 32 be 59 0e 8f 3d
       0.14087933 -0.06628002 -0.17441206 0.069851585
000040 6c 87 96 3d 2c 98 32 3e b6 4c 1f 3d 39 1f f9 3d
       0.073500484 0.17440861 0.038891517 0.121641584
000050 c8 1b 20 be 72 1b cc 3c be 5c 25 3d 6b 27 cc 3d
       -0.15635598 0.02491543 0.04037165 0.09968456
000060 44 67 ed bd 0e be 27 bd c8 b2 a1 bd 48 c5 c4 bd
       -0.11591962 -0.040952735 -0.07895428 -0.09607941
000070 b9 16 8e 3d 34 f3 0d 3d
       0.06937928 0.034655765
