subtaskC/cnn-char-bilstm/checkpoints/epoch-3.pt (torch, 32142 bytes, 29 tensors)

word_embeddings_layer.char_embeds_layer.weight f4 [148, 8]
000000 22 aa f3 3f 2d 50 bf 3f 6b 01 68 3f f7 0c 07 c0
       1.9036295 1.4946343 0.90627164 -2.1101663
000010 42 bd 38 3f 27 34 9e bf f2 44 a6 bd ec 0e ca bf
       0.72163785 -1.2359666 -0.08118619 -1.5785804
000020 38 2e 3f bf 0a 9b d8 3f 10 ab cc be 54 43 b4 bf
       -0.746799 1.6922314 -0.3997426 -1.4083047
000030 69 b4 45 bf c1 53 19 bf a8 8e 4b bf 97 17 3d 3f
       -0.7722841 -0.59893423 -0.7951455 0.7386412
000040 c2 38 d0 3f 94 c3 3f be 56 77 00 bf 31 bd ea 3e
       1.6267321 -0.18726951 -0.5018209 0.45847467
000050 b0 f8 52 bf be e9 85 3f c2 ca 54 3f c9 a3 d9 3f
       -0.82410717 1.0461957 0.83121884 1.7003108
000060 14 a6 a3 3f 10 4d a5 3f 11 4f 24 3f c0 54 aa 3f
       1.2785058 1.2914143 0.64183146 1.3307114
000070 9e ef 79 be 73 3a 99 bc 44 0b 6a be 00 ac 53 3f
       -0.24407813 -0.018704629 -0.2285586 0.82684326
000080 73 52 b3 bf 11 9c 62 bf f6 ab 67 be 39 3f df 3f
       -1.4009537 -0.8851939 -0.22624192 1.7441169
000090 98 47 a5 3e 09 f2 0a bf 28 33 a2 3e 52 ca 50 bf
       0.32281184 -0.54275566 0.31679654 -0.81558716
0000a0 2b ee cc bf 12 80 79 3f d5 99 79 bf 7e 66 17 bf
       -1.6010183 0.97461045 -0.97500354 -0.59140766
0000b0 3f 68 a5 bf 7f f6 05 40 ac 33 9f bf af 73 07 bf
       -1.2922438 2.09317 -1.2437644 -0.52910894
0000c0 f4 82 68 bf 3a 8e 15 bf 42 05 c8 3d 6c 4c 07 3f
       -0.9082482 -0.58420146 0.09766628 0.52850986
0000d0 2a 82 f9 be 93 5b 90 3f e7 ff 58 bf 96 f0 37 bf
       -0.4873212 1.1277946 -0.84765476 -0.7185148
0000e0 fb 22 b6 bf a8 b5 d3 3d da da 98 bd ca 66 4b 3f
       -1.4229425 0.103373826 -0.074636176 0.7945372
0000f0 d6 4b 0b be 42 80 e4 3f db 2e 98 bf 3d ef b6 3f
       -0.13603148 1.7851641 -1.1889299 1.429176
000100 04 45 bd 3f f4 82 6f 3f ef b3 12 40 6d 7f 13 3f
       1.4786687 0.93559194 2.2922323 0.5761631
000110 48 d4 b9 3e 83 31 8a be 9e 81 90 bf 36 10 aa 3f
       0.3629477 -0.269909 -1.1289556 1.3286197
000120 df 3c 62 be 99 4c f6 3e 90 9f b0 bb bc 7d 07 3f
       -0.22093533 0.48105314 -0.005390115 0.5292623
000130 2b 6c 07 3f 10 71 18 bf 9b 92 0b c0 78 2a 50 bf
       0.52899426 -0.5954752 -2.180823 -0.813148
000140 d8 ae fc bc 54 ed ca be ba 0b b4 bf fc 62 07 bf
       -0.03084509 -0.39634192 -1.4066079 -0.52885413
000150 28 d8 09 3f bb ff 21 3f aa 2e a2 3f 41 e2 58 bd
       0.53845453 0.6328084 1.2670491 -0.052950148
000160 9d 97 3e 3f b0 ce e6 be f7 8b 80 bf c6 4b fb 3e
       0.74450094 -0.45079565 -1.0042714 0.49081248
000170 f0 90 de bf 05 51 58 bf 24 2e 99 3f 3c 7d e8 3e
       -1.7387981 -0.84498626 1.1967206 0.45408046
000180 09 27 22 c0 fb b2 fd 3e 9e b0 46 3f f1 5b 6a bc
       -2.5336325 0.49550614 0.77613246 -0.014304147
000190 a8 9c 25 3f 50 98 15 3f b8 71 7f 3f 6f cd fc be
       0.64692163 0.58435535 0.99782896 -0.49375483
0001a0 2d 32 87 be c9 bd 3e 3f 6f 5c cf 3e 54 6e ad 3d
       -0.2640547 0.7450834 0.4050021 0.08468309
0001b0 7a 92 48 3e 91 9e b0 3f 0f a8 b9 3d 91 2b 99 be
       0.19587126 1.3798391 0.09065258 -0.2991605
0001c0 b8 ce bb bf 25 71 8d bd 9f 26 17 bf 0b 3f c1 3e
       -1.467246 -0.06906346 -0.59043306 0.3774341
0001d0 9f 1d 33 3f 7a 80 8d 3c 44 7c db be f1 95 09 3f
       0.69967073 0.017273176 -0.42868245 0.5374442
0001e0 b0 41 25 3d bc 4e bb 3e de bb 38 3e 78 b4 47 3f
       0.040345848 0.36583507 0.18040416 0.7800975
0001f0 75 97 85 3f e2 46 82 3e 98 26 27 3f 81 09 01 3f
       1.0436846 0.25444704 0.65293264 0.50405127
000200 8b 55 f2 3f b3 68 73 3f a1 42 c0 bf af 98 86 bf
       1.8932356 0.95081633 -1.5020334 -1.0515345
000210 df 35 0e be 7c 1e ed 3f d3 e1 35 3f 16 40 12 3f
       -0.13887738 1.8524928 0.71047705 0.5712904
000220 3c 54 95 3f 70 94 9c ba 56 09 ef bf 52 44 7d 3f
       1.1666331 -0.0011946093 -1.8674724 0.98932374
000230 0f 15 e5 be a1 8e 7e 3f df f5 3d bf e2 ae 24 3f
       -0.4474263 0.99436384 -0.74203295 0.6432935
000240 b8 c7 80 bf 19 9c 79 3f fa 42 c9 3f 18 14 ce 3f
       -1.0060949 0.9750381 1.5723565 1.6099882
000250 8a 51 be 3e 59 af 05 be ce 70 2c bf db c1 13 3d
       0.37171584 -0.13055171 -0.67359626 0.036073547
000260 f7 a1 bd 3e 22 a2 7f 3f 9c da fa be 8e af ce 3f
       0.37037632 0.9985677 -0.4899491 1.6147325
000270 51 62 1f c0 be e9 de be e1 e5 99 bf f3 a5 4d 3f
       -2.4903758 -0.43537706 -1.2023278 0.80331343
000280 9b 35 f6 bf b4 c9 83 3e 5c 3e f9 3d 25 e4 ba be
       -1.9235109 0.25739825 0.12170097 -0.36502185
000290 e0 5e 9e 3e d8 56 35 bf 60 9e 2b 3e 6b 0e 9a bf
       0.3093176 -0.7083564 0.16759634 -1.203565
0002a0 53 e6 e8 bf 73 1e aa 3f fc 95 a0 3f 9a 4d f7 3d
       -1.8195289 1.3290542 1.2545772 0.12075348
0002b0 09 96 b7 bf c8 0b 39 3f 1c c6 70 3f d2 72 fc 3f
       -1.4342662 0.722836 0.9405229 1.972254
0002c0 d2 38 09 3d 7f b3 f5 3d 3a e5 3b bf 51 c7 49 be
       0.033501454 0.11997127 -0.73396647 -0.1970494
0002d0 df ed 61 bf da 29 d5 bf f2 9b 90 bf 1d ce 10 bf
       -0.8825359 -1.6653397 -1.1297591 -0.56564504
0002e0 b1 47 0a bf d8 4d cf bf 61 b0 02 c0 4a 68 7b 3e
       -0.5401564 -1.6195631 -2.0420153 0.24551502
0002f0 bb e7 64 3f 5f 4e 37 bf 4b 14 45 3f 48 65 28 3f
       0.8941609 -0.7160396 0.7698409 0.6577954
000300 77 65 e1 3f 2f ab 73 bf f8 eb 78 3f fc 5b b2 be
       1.760909 -0.9518308 0.9723506 -0.34835804
000310 b7 be 9d bf 5a a3 96 3e 85 38 05 3f df 95 b1 3f
       -1.2323827 0.29421502 0.52039367 1.3873862
000320 01 ac 06 3f a2 2b 07 40 57 50 05 bf f0 97 6e bf
       0.5260621 2.1120381 -0.52075714 -0.9320059
000330 ef 9a 3d 3e e5 ca 88 3f 84 3c a7 3f 6e 6f eb 3e
       0.18516134 1.0686918 1.3065343 0.45983452
000340 e0 08 56 bf ea f6 80 bf 2d 39 0b bf ef 1e 1d bf
       -0.8360729 -1.0075352 -0.5438412 -0.61375326
000350 60 d8 29 3d 7a 95 df 3e 10 80 23 be bb 43 17 c0
       0.041466117 0.4366873 -0.1596682 -2.363509
000360 57 e3 d1 be b4 53 8c 3f 8b 6d ed bf 18 78 bf 3f
       -0.4099376 1.0963044 -1.8549055 1.4958525
000370 d7 53 78 3e f8 dc af be ab 57 82 3f 3f 88 d7 3f
       0.24250732 -0.34348273 1.0183004 1.6838454
000380 1b 6b 99 3e e6 dd 00 40 03 36 fc 3e 1c 97 ac bf
       0.29964527 2.0135436 0.49259958 -1.3483615
000390 b9 25 6a bf 5a 0e dd bd b6 a2 9c 3e 8e e7 18 40
       -0.9146381 -0.10793753 0.3059289 2.389133
0003a0 8f 92 92 3e db 72 4b bf 5c d3 0d c0 61 5b 9f bf
       0.2862744 -0.7947213 -2.2160254 -1.2449762
0003b0 46 89 95 be c7 5e 11 be 5a 02 b4 bd 66 4b 3e 3f
       -0.29206294 -0.14196311 -0.08789511 0.743338
0003c0 7a db 6d bf e4 68 8d 3e b8 f3 09 bf 98 d7 ec 3e
       -0.9291302 0.27619088 -0.5388751 0.46258235
0003d0 21 34 5f bf 2f 27 de bc a1 dc b4 be ab 5f bb 3f
       -0.8718892 -0.027118294 -0.35324576 1.463857
0003e0 12 b2 a0 3f 58 07 37 bf 77 9a 5a 3f 63 53 03 3f
       1.2554343 -0.7149558 0.85391945 0.51299113
0003f0 d0 2b 0a 3f f0 c4 10 3f 91 7b 01 3f e6 ca 63 3e
       0.539731 0.565505 0.5057917 0.22245368

word_embeddings_layer.conv1.0.weight f4 [21, 8, 3]
000000 5b 48 d7 3c 05 c8 37 bd e3 a8 a1 3c 91 d3 7e bd
       0.026279619 -0.044868488 0.019733852 -0.062213484
000010 1a f2 29 3d 3b a1 27 3e e1 90 8e bd 2a b7 18 3e
       0.04149065 0.16370098 -0.06961227 0.14913622
000020 a8 c0 2e 3e e4 96 02 be 09 a6 02 be d4 b1 4f be
       0.1706568 -0.12752873 -0.1275865 -0.2028268
000030 13 77 dd bd c8 5d 04 be 59 ec c9 bc bc ae 2e bd
       -0.10813727 -0.129264 -0.024648832 -0.04264711
000040 39 1d e2 bd b7 8c 8e bd e7 99 ee bd 26 fd 46 3e
       -0.1104073 -0.06960433 -0.11650448 0.19432506
000050 c0 e2 c4 bd 53 bb cb bd 63 7a 0d 3e 3c b7 ef 3b
       -0.09613562 -0.09947839 0.13816218 0.0073155444
000060 98 0f 01 3e df 23 f6 3d c2 37 2e 3e 54 ca 40 be
       0.12603605 0.120185606 0.17013457 -0.18827182
000070 ff e4 fb 3d 56 eb 29 3e 5e 4b 00 be 3e e9 14 3e
       0.12299537 0.1659368 -0.1252875 0.145421
000080 99 eb 22 3e 7e e0 ac 3d 7f f3 c0 3d 92 45 52 bd
       0.15910186 0.08441256 0.09421443 -0.05133588
000090 c0 08 5c be be e0 21 3d 6c 7a da 3c 08 2f 9c bd
       -0.21487713 0.03952097 0.026669703 -0.07626158
0000a0 c6 45 31 3e 38 9e 2f be 79 9b 08 3e a4 5a 12 3d
       0.17311773 -0.171502 0.13340558 0.035730973
0000b0 fc fe 51 3d 08 81 92 bd 3a 40 29 3e 45 63 b4 3d
       0.051268563 -0.07153517 0.16528407 0.08807997
0000c0 e2 9c 1d 3d 18 46 0e 3d 64 a6 22 3e dd ba ba bd
       0.038479693 0.034734815 0.15883785 -0.091176726
0000d0 ea ab 8c bd 83 1c a3 3d 1a 59 83 3b 10 94 07 3e
       -0.068687275 0.079644226 0.0040084245 0.13240075
0000e0 7e e8 9d bd 21 ab d9 3c 58 55 91 3d b8 46 27 bd
       -0.0771036 0.026570858 0.07096356 -0.040838927
0000f0 9d 57 80 3d 19 67 4f 3d ee 14 62 be 39 6e ad 3c
       0.06266711 0.05063543 -0.22078297 0.021170722
000100 95 3a 01 be d4 41 91 3c c4 10 a1 bd 3e 85 6e be
       -0.12620004 0.017731585 -0.07864526 -0.23293015
000110 a9 e2 ad bd fc 32 3b 3d 7b 2b 99 bd 58 58 88 3e
       -0.084904976 0.04570292 -0.07478996 0.266299
000120 1c 07 da bc 8a 24 27 3e a7 cb 59 3d 69 1d 13 be
       -0.026614718 0.16322532 0.053172734 -0.14366688
000130 15 ed b3 3d be 10 44 3e 70 27 52 be d0 fa 0d be
       0.08785454 0.19147012 -0.20522857 -0.13865209
000140 b7 82 59 3e 92 4b 21 3e fd 2b ee bd de 27 c4 3d
       0.2124127 0.15751484 -0.11629484 0.095779166
000150 75 95 39 bd 29 47 8f be e2 1f 37 3d 8e b1 fa 3d
       -0.04530855 -0.27983978 0.04470814 0.12240897
000160 5b 65 c4 bd 7a 85 33 3d d3 d6 52 be 30 b0 97 3c
       -0.095896445 0.043828465 -0.20589761 0.01851663
000170 4c 6e 0c 3e 25 ae 3b 3e 6b 00 3e 3e 7d 81 ad 3d
       0.1371395 0.1832815 0.18554847 0.084719636
000180 7f 86 26 be 60 63 09 bd 62 a0 77 3c 01 dd 86 bd
       -0.16262244 -0.033542037 0.015113922 -0.06585122
000190 5e 09 14 be 09 b0 25 3e 99 50 91 3e 05 21 48 be
       -0.14456698 0.16180433 0.28381804 -0.19543846
0001a0 8f 4f ca 3d 74 92 09 3e 9b fb 24 3e ef 72 e9 3d
       0.09878456 0.13434774 0.16111605 0.11398875
0001b0 81 29 28 3e c6 80 94 bd c8 16 15 3e 4b 5b d3 3d
       0.16422082 -0.07251124 0.14559472 0.10320147
0001c0 bb 70 55 be 7f 62 69 be 3c 24 8d 3b b4 b9 9d 3c
       -0.20843785 -0.2279148 0.004307298 0.01925359
0001d0 4b d5 37 be 53 f7 14 3e fb 25 17 3c 80 04 b3 3d
       -0.17952459 0.14547472 0.009225364 0.08741093
0001e0 d6 8d 06 be d4 26 67 3e 1d db 25 3e 4d 8a 16 be
       -0.13140044 0.22573406 0.16196866 -0.14701195
0001f0 03 62 fd bb 9f 2f db bb 3c 6b 1c 3d 5b aa 3a 3e
       -0.007732631 -0.0066890265 0.038188204 0.18229048
000200 e6 9a 37 3d 0d 3c c8 3b c0 27 51 3e 12 07 c5 bc
       0.044825457 0.0061106742 0.2042532 -0.024051223
000210 5f 42 c4 bd fb 12 01 bd 9e 39 e1 bd 4c 6f 7f 3c
       -0.09582972 -0.03151224 -0.10997318 0.0155905
000220 d6 f7 c0 bd 92 6a 17 3b 9b cc f8 3c 8e 30 4d 3d
       -0.09422271 0.0023104292 0.030371001 0.050095133
000230 b7 9b 29 be 21 28 a0 bd 1e 12 39 3e 09 04 7d 3e
       -0.16563307 -0.07820154 0.18073317 0.2470857
000240 bf 6f 51 be ba b3 be 3d 54 67 ff bd e4 60 46 3d
       -0.20452784 0.09311624 -0.1247088 0.048432246
000250 30 55 49 3e 1a 24 3c 3e dd 47 50 be 6f 42 25 3e
       0.19661403 0.18373147 -0.20339914 0.16138624
000260 bf 8f 2f 3e 55 33 91 3c 9b 38 64 3e fa 54 af bd
       0.17144679 0.017724672 0.22287218 -0.0856113
000270 1a ea 12 be 35 22 07 be 21 d5 44 3d 8e 2d 16 3e
       -0.14347115 -0.13196643 0.048054818 0.14665815
000280 25 86 30 3d fb ae 2e be e2 a0 0b be 36 02 20 3c
       0.04309668 -0.17058937 -0.1363559 0.009766152
000290 8d e5 3b be d2 e9 80 3b 03 d3 2d 3d b5 b8 d5 bd
       -0.18349285 0.0039341236 0.042437565 -0.10435621
0002a0 21 34 a9 3d 61 63 6e 3d 5a 85 a3 3d db 6e ae bd
       0.08261896 0.058200244 0.07984419 -0.08517238
0002b0 1a f8 13 be 36 7e b0 3d 2d 06 7b bb af b0 bb bd
       -0.14450112 0.08617823 -0.0038303242 -0.09164559
0002c0 73 af 0e be c4 6d 88 3d a3 6e 67 be a1 57 2a 3c
       -0.13934116 0.06661561 -0.22600798 0.010396869
0002d0 f7 32 07 3e ad 06 d1 bd 5d c0 cb bd bd 2b 00 be
       0.13203035 -0.102063514 -0.099488 -0.12516685
0002e0 b5 d6 34 3e e5 57 3d 3e 35 72 04 3d 2a 0a 90 3e
       0.17660029 0.1849056 0.03233548 0.28132755
0002f0 f8 0b fa 3d a0 28 4e be c2 b6 65 3d 2c e8 57 3d
       0.12209314 -0.20132685 0.056082495 0.05271165
000300 4a 49 4c 3e eb 1a 03 bb 44 b7 c2 3d 31 ef a8 3d
       0.19949833 -0.0020005058 0.095076114 0.08248747
000310 d2 96 f0 3d ab ad 78 be d5 4c 20 3e a5 f5 8a be
       0.11747517 -0.24284999 0.15654309 -0.27140537
000320 1e 6a ff 3d 30 83 3e 3d ea 44 1e be c6 62 71 3d
       0.12471412 0.04651183 -0.15455976 0.05893209
000330 3b 92 87 bd 4f 63 7f be 9a 41 00 be 0f 22 2e 3d
       -0.06619688 -0.24940227 -0.12525025 0.04251295
000340 67 b0 50 3e 62 22 56 bd a5 25 5c 3e df 6d f8 3b
       0.20379792 -0.052278884 0.21498735 0.007581457
000350 16 86 ca 3c b9 ce 0b 3e 43 7a cd bd 70 bd 1d be
       0.02472214 0.13653077 -0.10033085 -0.15404296
000360 39 21 e8 bd 2b 1d 4e be f4 cd b1 bd bb 7b 80 bd
       -0.11334462 -0.20128314 -0.086818606 -0.062736
000370 44 18 1a be ff 23 b3 bd b3 bd 32 3d 4c 97 c4 bc
       -0.15048319 -0.087471 0.043637943 -0.023997925
000380 e3 91 bd bd 72 24 66 3d 3f 8b 36 bd 9a 62 7e 3d
       -0.09256341 0.0561871 -0.04456639 0.062105753
000390 05 05 c0 3d a1 e9 4c bd b3 00 59 3d 82 43 f0 bc
       0.093759574 -0.050027493 0.052979182 -0.029329065
0003a0 d0 1a 1c be b2 90 ab bd 7b b7 28 3d 5e c6 26 3e
       -0.15244603 -0.08377208 0.041190606 0.16286609
0003b0 c2 d4 0a 3e 06 2e 9f 3d 37 c1 b9 bd 23 b2 48 be
       0.13557723 0.0777245 -0.09070056 -0.19599204
0003c0 e8 cc 32 3e fb b9 08 be 8e dc df 3b 43 91 6a bd
       0.17460978 -0.13352196 0.006831712 -0.05726744
0003d0 e8 86 6a bd e2 71 0e bd 36 1e 49 3e a1 0d b2 3d
       -0.057257563 -0.034776576 0.19640431 0.08694006
0003e0 96 82 c1 3d a2 fb 5c 3e c9 4b 51 be 6b 7f 36 3c
       0.094487354 0.21580365 -0.20439066 0.011138777
0003f0 24 0b fe 3d 31 c4 f5 3d 97 68 68 be f7 b7 6e 3d
       0.12404469 0.12000311 -0.22696148 0.05828091

word_embeddings_layer.conv1.0.bias f4 [21]
000000 60 d4 18 be 25 f4 94 3d d6 28 01 be c6 f3 11 bd
       -0.14924765 0.072731294 -0.12613234 -0.03563287
000010 7b 20 09 3e 6e de 3c 3e 17 72 c7 bd d9 ab 34 be
       0.13391297 0.18444225 -0.09738558 -0.1764368
000020 f0 10 a4 3b aa 6b a0 3d 42 4d cb 3b 2f 22 2f bd
       0.005006902 0.07833035 0.006204278 -0.04275721
000030 f0 a6 de bd 32 a2 62 3d 51 6b 65 3e d3 41 ab bd
       -0.108716846 0.055330463 0.22404219 -0.08362164
000040 cc d5 ed 3d 49 c8 cd 3d 45 6d 36 3e 3c d5 06 3b
       0.11613044 0.10047967 0.1781512 0.0020573875
000050 59 39 48 bd
       -0.048882816

word_embeddings_layer.convs2.0.0.weight f4 [10, 21, 3]
000000 cb 71 cc 3d 2e 77 b2 3d 3f 00 05 3e a5 f3 ca bc
       0.09982642 0.08714138 0.12988375 -0.024774382
000010 28 52 71 3d 63 90 e0 3d ec 9c af bd 3b 1e 3d 3d
       0.05891624 0.109650396 -0.08574852 0.04617141
000020 3d 92 19 3d d2 30 ce 3d b8 54 9a 3c c9 7e 69 3d
       0.03749298 0.100679055 0.018839225 0.057005677
000030 97 a0 c8 3d a7 61 20 bd c2 bc ca bd 44 95 68 3c
       0.09796255 -0.03915563 -0.09899284 0.014195744
000040 61 6e d7 3d 3e 52 35 3e f0 44 bd bd e4 bd 05 3d
       0.105191 0.17707154 -0.092416644 0.032651797
000050 46 30 84 bd 7c d8 04 3d 44 f0 11 3e 17 e3 bf 3d
       -0.0645452 0.032433018 0.1425181 0.09369486
000060 9a f4 dc bc 21 f9 b4 3d 2b f0 b3 3c ba 3d 0d 3e
       -0.026972104 0.0883658 0.021965107 0.13793078
000070 e2 10 34 bd f8 0a cb bd 51 b5 9c 3d 3c 63 88 3c
       -0.043961413 -0.099142015 0.07651771 0.016648881
000080 c0 a3 5c 3d d9 5d 2f bd 3f e2 e2 3d eb 84 25 3e
       0.0538671 -0.04281411 0.11078309 0.16163985
000090 64 4c b5 3d 58 74 47 3d f4 db 07 3e dc 82 d0 bb
       0.08852461 0.04869494 0.13267499 -0.006363256
0000a0 c8 3b 9f 3b af 7c fc 3d 39 39 c0 3d 9b 22 6b bd
       0.0048594214 0.12328469 0.09385914 -0.05740605
0000b0 af 87 e0 3d 17 00 27 3e a9 59 cc 3d 57 26 79 3e
       0.109633796 0.16308628 0.09978039 0.24331032
0000c0 d0 83 d3 bc e4 cc 21 3e 36 99 38 3e a3 e4 f8 bc
       -0.025819689 0.15800816 0.18027195 -0.03038246
0000d0 e0 75 f0 bd 0f a9 5a ba ab d0 8a bc 0e c5 13 be
       -0.11741233 -0.0008341232 -0.016945204 -0.14430639
0000e0 94 d0 25 bd de 94 4b 3d 32 71 cc 3d 4d df 9d 3d
       -0.04048212 0.049702518 0.09982528 0.07708607
0000f0 9d 56 1d 3e 10 fa 21 3e 4b 16 b5 ba 94 a1 cd bd
       0.15365072 0.15818048 -0.0013815848 -0.10040584
000100 6a bb d9 3b da 57 ec 3d 31 24 c6 3a 74 1d 4b bc
       0.006644656 0.11540194 0.0015116987 -0.012397159
000110 50 f8 b6 bd 1a 05 ac 3c 9f 89 c7 bd eb f7 de 3d
       -0.089340806 0.020998526 -0.09743046 0.1088713
000120 db 71 87 3c b9 8c 1c bd 26 bd 55 3d dd 0a c2 3d
       0.016533783 -0.03822014 0.05218234 0.09474728
000130 ba af ec bc c6 0d d7 3c 29 0f e7 3d 66 8b 17 bd
       -0.028892387 0.026251685 0.112821884 -0.036998175
000140 e0 5f f1 bd 33 e0 80 3c 04 32 00 be 24 6a 11 be
       -0.11785865 0.015731907 -0.1251908 -0.14200646
000150 c5 06 b9 3d 09 1c 80 3d bf 89 39 bd f1 6c 6a bd
       0.09034494 0.06255347 -0.04529738 -0.0572328
000160 28 d5 d7 bd 4c 66 c4 3d 9b 52 2f bc a3 8b e3 bd
       -0.10538703 0.09589824 -0.010700847 -0.11110618
000170 87 4e 87 bd 31 4e ae 3d 54 58 b6 bc e6 be c5 bc
       -0.06606775 0.085110076 -0.022258915 -0.024138879
000180 4b f4 7b 3d 82 1d 7d bd 3e b0 75 3c d8 9f b4 3d
       0.061512273 -0.06179572 0.014995633 0.0881955
000190 c7 bc 97 bd 77 f5 2a bb a1 ee 16 be 47 1e 9b bd
       -0.07409053 -0.002608625 -0.14739467 -0.07574134
0001a0 39 ca 1f 3e fd 4c 9c bc 15 d5 c2 3d e2 9b 14 bd
       0.15604486 -0.01907968 0.095132984 -0.036281474
0001b0 a6 db f4 bd 42 d9 e9 bd 24 87 db 3d fe 71 43 bc
       -0.11955957 -0.11418392 0.107191354 -0.011929033
0001c0 20 b0 e2 3d 09 f9 b7 3d fc 60 1c 3a 0f 40 07 3e
       0.110687494 0.089830466 0.00059653795 0.1320803
0001d0 cf e4 cf bd 35 79 9e 3d 33 84 d5 bd c1 09 47 bd
       -0.10151064 0.07737962 -0.104256056 -0.048593286
0001e0 59 9f b2 3d 04 0e 09 3d 79 e7 2b bc 96 a5 65 bd
       0.087217994 0.033460632 -0.010492199 -0.05606612
0001f0 b3 a9 0a be cc cf b8 3d 62 85 37 3c 17 e4 85 3c
       -0.13541298 0.09024009 0.011201235 0.016344113
000200 95 88 49 3d c6 38 bc 3d 5c 6e 70 bd 2b ed ce bc
       0.04920252 0.09190516 -0.058698997 -0.025259575
000210 d2 fd 01 3e 6b 06 ad 3d 6e 19 b2 bc e4 69 11 be
       0.12694481 0.0844849 -0.021740641 -0.1420055
000220 8e b3 64 3d a0 67 b5 3d 9d 70 d6 3b 11 be c4 3d
       0.0558353 0.088576555 0.0065441863 0.09606565
000230 55 e2 d9 bd 52 2c 2c 3d c8 86 98 bd 83 81 d1 3d
       -0.106388725 0.042034455 -0.074475825 0.102297805
000240 51 cc c0 3d 47 f2 54 3d 6e dd 10 3e 3f d1 07 bc
       0.0941397 0.051988866 0.14146969 -0.008289634
000250 4f 56 5f bd b9 51 28 be 0e 02 c1 3d bf f6 2d 3d
       -0.05452567 -0.16437425 0.0942422 0.042471644
000260 b0 ad c6 bd a0 82 e3 3c 77 26 eb 3d a0 f9 a1 bd
       -0.09701097 0.027772248 0.11481946 -0.0790894
000270 2f ed f8 3d 1c a2 3c 3d 1c 38 07 3d 7c 78 05 3e
       0.12154614 0.046053037 0.033012494 0.13034242
000280 21 68 d5 3d 0c 56 b3 3d de 49 f7 3d f4 0b 70 3d
       0.10420252 0.087566465 0.12074636 0.05860515
000290 60 ac f7 3c ae d4 c1 bd a6 34 ff 3c 1f 39 05 bd
       0.030233562 -0.094643936 0.031153034 -0.032525178
0002a0 6d 1e 5d 3d c7 56 ec 3c 9c 2d 08 3d ee 1d ac bd
       0.053984094 0.028849972 0.03324662 -0.08404146
0002b0 44 63 d7 bd 42 06 aa 3d a9 07 00 3e f9 7b 1b 3d
       -0.1051698 0.08301975 0.12502922 0.037960026
0002c0 2a c3 1b be eb ec 14 bd f6 00 2a bd f5 9a b3 3d
       -0.15211168 -0.036358755 -0.041504823 0.0876979
0002d0 d4 60 6a bd f1 c3 b1 3d cb f4 cb 3d 42 58 fb bd
       -0.05722125 0.08679951 0.099588 -0.12272693
0002e0 73 a8 67 3c ea 65 ca ba 2a e2 c0 bd 64 eb 64 3d
       0.0141392825 -0.001544175 -0.09418137 0.05588855
0002f0 ea e4 99 bc 10 25 0b 3e 91 9c 45 bd ee b0 b6 3d
       -0.018785913 0.13588357 -0.048245016 0.089204654
000300 e8 6e a3 bd f2 c9 3e bd d7 31 33 3d e7 d0 05 3e
       -0.07980138 -0.04657931 0.043748703 0.13067971
000310 56 f6 d4 3d 56 e1 b0 bd 09 05 cd 3b c4 24 3d bd
       0.10398547 -0.086367294 0.0062567038 -0.04617764
000320 89 75 55 3c 16 7e 90 bd e2 73 5b 3c 64 3d 98 3d
       0.013028511 -0.07055299 0.013394328 0.07433584
000330 2d cd af bd 97 2e a7 bd 67 f7 2e 3d 71 fe a7 3d
       -0.08584056 -0.08163183 0.04271641 0.08202828
000340 5f 0f bf bb 78 38 11 3e 7d 16 81 bd 5b 5d 26 bd
       -0.00583069 0.14181697 -0.063031174 -0.040616374
000350 e3 9d 4e bd 83 89 86 3c 78 18 b4 bb 64 48 d0 3d
       -0.05044354 0.016422993 -0.005496081 0.101700574
000360 0c 12 f0 3c ec c3 8e 3d 72 cd 88 bd 30 d5 03 3e
       0.02930548 0.06970963 -0.066798106 0.12874293
000370 21 e9 08 3e 7f ab a4 bd 68 44 97 3c 0b 3e 97 bd
       0.13370182 -0.08040523 0.018465236 -0.07384881
000380 6e f7 97 3d 01 a6 a2 bd ee 43 e1 bc fb 10 22 3e
       0.0742024 -0.07941819 -0.027498212 0.1582679
000390 a4 48 a5 bd c7 64 eb 3d ff f6 a9 3c 59 a4 05 3e
       -0.08070496 0.11493831 0.02074766 0.13050975
0003a0 86 a5 4b bd 5c c7 e1 3d b2 36 1c 3d a9 6f 2d 3c
       -0.049718402 0.11024353 0.0381381 0.010585704
0003b0 72 96 20 3e eb c2 d6 bd e2 bf ba bd 40 4c f8 3d
       0.1568239 -0.104863964 -0.0911863 0.121239185
0003c0 3e 01 94 bc 98 08 0d be 3c 31 14 bc fa f3 77 bc
       -0.018066999 -0.1377281 -0.0090449415 -0.015133852
0003d0 af 17 13 3c 1c e7 52 bd 80 4b 92 3d f5 6f b2 bd
       0.008977815 -0.051489934 0.07143307 -0.0871276
0003e0 ba 89 2d 3d 54 00 aa 3d 0f b3 a8 3d 6e 26 06 3d
       0.042367674 0.08300844 0.08237278 0.032751493
0003f0 91 3b 33 bd b1 90 ff bd 53 cd 98 bd 7f 24 03 be
       -0.04375798 -0.124787696 -0.074610375 -0.12806891

word_embeddings_layer.convs2.0.0.bias f4 [10]
000000 7c d7 5e 3c 43 ef db 3d bd 6d cc 3c c8 d0 6c bd
       0.01360118 0.10738995 0.024954671 -0.057816297
000010 94 54 8a bd be 37 f6 3d b9 9e 02 3c dc a1 11 bc
       -0.06754413 0.12022351 0.007972413 -0.008888688
000020 c4 90 a7 3c b5 25 36 bd
       0.020454772 -0.044469554

word_embeddings_layer.convs2.1.0.weight f4 [10, 21, 4]
000000 89 a0 05 be 48 b0 1e be 5e 90 3f bd 97 ab 81 bd
       -0.1304952 -0.15496933 -0.04676854 -0.06331556
000010 f8 50 68 3c 9a 0d e9 bd 74 d2 b9 bd 15 25 a0 3b
       0.014179461 -0.113795474 -0.09073344 0.004887233
000020 1d 2f e4 bc fe 03 86 bd 83 f4 83 bc a4 d5 a9 bd
       -0.027854497 -0.0654373 -0.016107803 -0.08292702
000030 4e 18 29 be bb b3 96 bd fc b8 cf bd 7e 61 1b 3d
       -0.16513178 -0.073584996 -0.10142705 0.037934773
000040 b3 87 66 3d 32 25 60 bd b4 3f de 3c 77 e3 ee bd
       0.056281757 -0.054722972 0.027129985 -0.11664479
000050 79 ca cc 3c b7 b2 57 3d e6 48 8c bd 80 e5 1f be
       0.02499889 0.05266067 -0.06849842 -0.15614891
000060 e5 75 61 bd e1 41 e3 bd 32 86 88 bd 44 5b 1f be
       -0.055044074 -0.1109655 -0.06666221 -0.15562159
000070 7b d0 73 bd 2e a4 02 be 3f 47 92 bd 84 12 af bd
       -0.059524994 -0.12757942 -0.07142495 -0.085484535
000080 37 a4 f8 bd 3a 40 48 be 22 83 ee bd 98 29 09 bd
       -0.121406965 -0.1955575 -0.11646105 -0.033486933
000090 16 51 ce 3c 29 5e fc 3c 1b cb 17 be 0f 34 ec bc
       0.02518515 0.030806618 -0.14823572 -0.028833417
0000a0 3f 1e 02 be 51 63 15 be e9 41 93 bd 1f 0a 1d be
       -0.1270685 -0.14588667 -0.07190306 -0.15335892
0000b0 bc e2 2f be c7 28 3c be 93 dc 1b be 99 34 c1 3c
       -0.17176336 -0.1837493 -0.15220861 0.02358465
0000c0 2c 8d b1 bb f7 6f 01 be 46 a4 18 be 3f 83 40 be
       -0.0054184403 -0.12640367 -0.14906415 -0.18800066
0000d0 8c d3 15 be ca 27 06 be c3 5a bc 3b 95 2c d6 bc
       -0.1463148 -0.13101116 0.0057481243 -0.026144305
0000e0 4d df 15 be 0f bd ee 3b 18 c7 1a be db dc 49 be
       -0.14635964 0.007285721 -0.1511501 -0.19713156
0000f0 5e 97 36 bd 30 57 13 be 8a b3 20 bd a1 e3 af 3c
       -0.04457795 -0.14388728 -0.03923372 0.021470847
000100 18 71 0f be b6 f0 1c be 5b ca 86 bc 9b 92 20 be
       -0.14007986 -0.15326199 -0.016453912 -0.15680926
000110 e7 56 cb bb 4b 49 f1 bd 76 59 4a bc 05 c6 43 be
       -0.006205428 -0.11781558 -0.012350431 -0.19118507
000120 0d 24 1c be 04 6a 75 bd 72 e0 82 bd 93 4a 2b bd
       -0.15248127 -0.059915558 -0.06390466 -0.041819166
000130 ea 56 18 bd 59 53 f4 bd a3 c5 ab bd f9 46 ba bd
       -0.037192263 -0.1192996 -0.083873056 -0.09095568
000140 a3 e6 b0 bd ed ad 8f bd 15 97 34 be 18 c5 18 be
       -0.086377405 -0.070155956 -0.17635758 -0.14918935
000150 c8 c4 a4 3d e3 35 56 bd 96 30 cf 3d ab 48 7c 3c
       0.080453455 -0.052297484 0.10116689 0.015398185
000160 03 5c e3 3c 77 d2 c7 3d 15 9e 57 bd 0a d3 92 bc
       0.027753836 0.0975694 -0.052640993 -0.017922897
000170 2d 6a 02 3d e5 da 84 3d 01 6e c6 bd 14 2b 0e 3d
       0.03183954 0.06487063 -0.0968895 0.03470905
000180 15 58 83 bd f7 bb d3 3c f4 68 83 3d b0 e2 c8 3c
       -0.06413285 0.025846465 0.064165026 0.024522156
000190 1f 5f 26 3d 84 dd 17 3c d2 32 89 3d 9c 13 d8 3d
       0.04061806 0.009269122 0.06699146 0.10550615
0001a0 55 b0 b3 3c 74 56 83 bd 77 2b 3a bd b8 63 c9 3d
       0.021934668 -0.06412974 -0.045451608 0.09833473
0001b0 a6 ed 9a 3d 37 17 88 3d 5e 1a a8 bd 78 42 db 3d
       0.07564859 0.06645053 -0.08208154 0.10706037
0001c0 1e b3 71 3c 22 63 85 3d 8a d6 84 3d ff b5 14 3d
       0.0147521775 0.06513049 0.064862326 0.036306378
0001d0 33 ef 37 bd c2 6e ce 3d 49 15 9a bd b3 0c f9 3d
       -0.044905853 0.10079719 -0.07523591 0.12160625
0001e0 f5 f4 d7 bd b0 b0 5d bd f6 ac bb bd 83 66 90 bd
       -0.10544769 -0.05412358 -0.09163849 -0.070508026
0001f0 0c ab be 3d dd 89 86 bd 70 7f c4 bd 33 e5 a8 3d
       0.09309968 -0.06569264 -0.09594619 0.08246841
000200 16 dd 7c 3d b9 74 b4 3c 6f bf 6e bd fc a3 b5 3b
       0.06173428 0.022028314 -0.058288034 0.00554323
000210 f7 99 c9 bc 38 6b 8f 3d f0 82 15 bd 3f 09 0c bd
       -0.024609549 0.07002872 -0.036501825 -0.034188505
000220 9a eb ae bd 29 44 f3 bc ca ee a3 3d 54 ec e1 3d
       -0.08541031 -0.029695587 0.0800453 0.11031404
000230 de 38 42 ba 9b a4 27 bd f7 13 ea 3d 36 87 f2 3c
       -0.00074089866 -0.040928464 0.11429589 0.02960549
000240 6a 3a ae bd f4 e5 b4 bd 84 91 08 bd 9c d4 23 3d
       -0.08507235 -0.088329226 -0.0333419 0.039997682
000250 77 f2 d8 3c c0 b7 ad 3d 6e 22 93 3c 13 b6 8a 3d
       0.026482804 0.08482313 0.017960753 0.06773009
000260 ff 4f c7 bc 59 10 ed bc 56 75 16 39 48 ce 1c be
       -0.024330137 -0.02893846 0.00014348826 -0.15313065
000270 18 8b 92 bd 92 d4 a9 bd 62 e3 52 3c c6 24 28 3c
       -0.07155436 -0.08292498 0.012871595 0.010262674
000280 b8 87 eb bb 74 ab 42 bd 0e e3 df 3d 4f 23 a7 bc
       -0.00718781 -0.04752679 0.10931979 -0.020402579
000290 0e 0d 4b 3d a4 b0 88 3d 43 c5 d9 bd 0e 0f 44 bd
       0.049572997 0.066743165 -0.10633328 -0.04786592
0002a0 3b 8f fe bb 8b 58 1f 3d 36 69 ad bd 6c 70 94 3c
       -0.0077685392 0.0389028 -0.08467333 0.018120013
0002b0 e5 d6 10 be 14 47 ee bd ab e8 7d 3c 6a 88 8e bd
       -0.14144476 -0.11634651 0.015497367 -0.06959613
0002c0 cc 95 a6 3d 99 a7 75 bd 27 e5 d9 bd f8 30 90 3d
       0.0813404 -0.059974287 -0.106394105 0.0704059
0002d0 84 ce f8 3c 5c 70 23 bd 5f cb ff bd b4 e1 81 bd
       0.030371912 -0.039902076 -0.12489962 -0.063418776
0002e0 d5 22 e7 bd ac 5a 39 3d d0 73 49 bc 8b 6e 01 3d
       -0.112859406 0.045252487 -0.012295678 0.031599563
0002f0 3b 7c 06 3d 4d 26 f9 3b af f7 e5 bd f9 b7 a8 3d
       0.03283332 0.0076034428 -0.112288825 0.08238215
000300 85 a7 23 3d 35 42 d0 bd 4b 85 65 3d 91 a2 53 bc
       0.03995468 -0.10168878 0.05603532 -0.012917177
000310 64 24 b9 bd 7c c0 e6 bd 9c b1 0d bd cd 89 0d be
       -0.09040144 -0.11267182 -0.03459321 -0.13822098
000320 97 8f 11 3c 02 3b 93 3d b3 c7 0f bd d5 80 10 3d
       0.008884332 0.07188989 -0.035102557 0.035279114
000330 cb 6c 8e bd 0d aa 6f bc 22 c2 73 bd 5d 31 8d 3c
       -0.06954344 -0.014627946 -0.05951131 0.017235452
000340 12 3e 7e 3b 73 32 83 3c ef 28 b2 bd 0e d1 da bd
       0.003879432 0.016015267 -0.08699214 -0.10684405
000350 e0 f5 0e 3d cc 2d ec 3c 00 30 fa bc a6 66 d6 bd
       0.034902453 0.028830431 -0.030540466 -0.104687974
000360 82 e9 5e bc 19 81 29 bd 38 2b 41 3d cf 0a a3 bd
       -0.013605477 -0.041382883 0.047160357 -0.07961046
000370 07 de 56 bc 41 1c 38 bd 64 b8 e8 3c f3 6c 91 bc
       -0.013114459 -0.04494882 0.028408237 -0.017752146
000380 89 3c 01 3d a9 ed c3 bc 88 87 38 be 94 91 b2 bd
       0.03155187 -0.023917036 -0.18020451 -0.08719173
000390 4d 20 b3 bd 53 22 d7 bd 66 e7 3f bd 0f c6 f8 3b
       -0.08746395 -0.10504594 -0.046851538 0.00759197
0003a0 58 ca 16 bd 30 e4 9f 3d 50 80 d1 bd 59 4c 2d bd
       -0.036814064 0.07807195 -0.10229552 -0.04230914
0003b0 30 a6 48 bd 40 a0 3e bd 94 e3 8d bd d1 ac 97 3d
       -0.048986614 -0.046539545 -0.06928173 0.07406009
0003c0 d5 b1 d7 bd 1a 18 cd bd 82 ee 6f bd 09 7f 58 3c
       -0.10531966 -0.10014363 -0.05857707 0.013213881
0003d0 60 d1 82 bd c8 b7 50 bd 79 d3 74 bd 3f 80 35 3c
       -0.06387591 -0.050956517 -0.05977199 0.0110779395
0003e0 58 81 12 3d b4 53 8e 3d 74 bf 2c bc e4 09 b0 bd
       0.035767883 0.06949559 -0.010543693 -0.085956365
0003f0 ed e2 e7 bd 55 80 2d bd 41 cf 51 3c 21 09 a4 bd
       -0.113225795 -0.042358715 0.012805761 -0.08009554

word_embeddings_layer.convs2.1.0.bias f4 [10]
000000 ae 61 cc bd 1e 38 b0 bd 85 48 f3 3c 6e f8 ac bd
       -0.099795684 -0.086044535 0.029697666 -0.08445822
000010 ae 4f eb 3c 69 e0 91 bd 24 3a 74 3d d3 0c 0e 3e
       0.028724518 -0.07122881 0.05962576 0.1387208
000020 22 ad 64 bd 97 f4 f1 3d
       -0.055829175 0.1181423

word_embeddings_layer.convs2.2.0.weight f4 [10, 21, 5]
000000 ab 90 9f bc 5c 78 d0 bd 34 3e b7 3c 84 99 15 3d
       -0.019478163 -0.10179207 0.022368528 0.036523357
000010 8f 4b 8e 3d 74 c6 f2 bd 64 cd 7f 3d 6a 9b 8f 3d
       0.069480054 -0.11854258 0.062451735 0.07012065
000020 ac 2c ab 3d 29 33 34 3d 6d 0b 36 bd 9c f0 d3 3d
       0.0835813 0.043994103 -0.04444449 0.10348627
000030 96 e8 b3 3d 71 9c 10 bd 2c 23 82 ba 40 f7 72 3d
       0.087845966 -0.035305444 -0.0009928695 0.059317827
000040 68 41 a4 3d 44 0a 8c 3d bb 8a 9f 3d 3c cf 36 bd
       0.08020288 0.068378955 0.077901326 -0.044631228
000050 22 a2 cb bc 2a 44 0d bd fa 2a f6 3c 4f 47 28 3d
       -0.024857584 -0.034488834 0.03004979 0.04108363
000060 b1 29 cc bb be 29 02 bc 0a d9 a7 bd 6c c6 a9 bd
       -0.006230556 -0.007944522 -0.08195694 -0.08289799
000070 ca 55 f2 3d 1d 5e 49 bc df 15 22 3d 98 0b 01 bd
       0.11832769 -0.012290505 0.03957164 -0.031505197
000080 60 a7 d2 3a 8e 37 bb bb 00 16 ad 3d 02 4e 73 bd
       0.001607161 -0.0057134097 0.08451462 -0.059400566
000090 40 e7 c1 3d c6 d2 85 3d 32 bc ab 3d 85 94 c6 bd
       0.094679356 0.065343425 0.08385505 -0.096962966
0000a0 19 a5 25 bd f3 85 bf bd 25 ca 20 bd c8 63 b0 bc
       -0.040440653 -0.09351721 -0.03925528 -0.021531954
0000b0 62 63 e5 3c fa a0 a8 3d 36 99 46 3c a3 81 b9 bd
       0.028001491 0.08233829 0.012121489 -0.09057929
0000c0 cf 93 44 be 3f 2f f3 3d 70 d7 d0 3b 81 7d a4 3c
       -0.1919701 0.11874246 0.0063733384 0.020079376
0000d0 31 a8 99 bd 29 c0 99 bc 42 36 9f 3b 1a 7e 9f bd
       -0.07502783 -0.018768387 0.004858763 -0.07787724
0000e0 52 2f 70 3d a3 c5 13 3d e1 9f 93 bd 66 0c e2 b9
       0.05863888 0.036077153 -0.07208229 -0.00043115317
0000f0 1f 7b 83 bd 96 bc 78 bc a6 be 78 bd 86 88 99 3d
       -0.06419968 -0.015181681 -0.06072869 0.07496743
000100 89 68 ec bd dc db 6e bd 9b 2b 95 bc 35 a9 d4 3c
       -0.11543376 -0.058315143 -0.01820927 0.02595959
000110 18 a7 51 3d bc f1 31 bb e4 da a2 3d f0 31 c4 bd
       0.051184744 -0.0027152142 0.07951906 -0.09579837
000120 c0 66 a3 3c d7 ef 9f bd 09 e4 6f bd 97 80 da bd
       0.019946456 -0.07809418 -0.05856708 -0.10669058
000130 24 0b a9 bd 9a a2 ab bd b9 3b b2 3d ff cc 2d bd
       -0.08254078 -0.08380623 0.087027974 -0.042431828
000140 7c 8b 66 3d 4f b1 16 bd 63 c2 ad bb fb f2 06 3c
       0.056285366 -0.03679019 -0.0053027137 0.008236642
000150 97 9d c4 3d 6e b1 a5 bc 3c 84 51 3c 66 11 b7 3c
       0.096003704 -0.020226207 0.012787875 0.022347163
000160 19 55 83 3d 68 d3 85 3d c9 7c 45 3c a0 c3 80 bd
       0.064127155 0.06534463 0.012053677 -0.062873125
000170 40 1c 32 bd 31 a8 10 3b f1 8e 0a 3d 7d db f8 bc
       -0.043483973 0.0022072906 0.033827726 -0.030378098
000180 4d 76 5c 3c 80 32 bb bd 7d c9 c7 3c a6 c2 d5 bc
       0.0134559395 -0.091404915 0.02438807 -0.026093792
000190 93 dd 8a bd 29 18 c1 bd b1 49 ab bd 08 e3 5e 3d
       -0.06780543 -0.09428436 -0.08363665 0.054415733
0001a0 72 6e e0 bc f9 5f a2 bd 42 bf b2 bd fa 0f 0c be
       -0.027396414 -0.079284616 -0.08727886 -0.1367797
0001b0 61 ea 0b bd 92 9b b6 bd fd 71 d3 bc 37 84 f0 3c
       -0.034159068 -0.089163914 -0.02581119 0.02935992
0001c0 86 64 d7 bd 3f f9 4f 3c 58 0f 54 bd d9 fc d5 bd
       -0.1051722 0.012693702 -0.051772445 -0.104486175
0001d0 b7 36 76 bd 96 e2 1b bd 13 8e 93 3c cd fe 8b bc
       -0.060110774 -0.038057886 0.018012082 -0.017089272
0001e0 e7 ff 86 bd e3 59 14 3d 25 a6 4b 3c 03 e4 20 be
       -0.06591778 0.036218535 0.012429749 -0.1571198
0001f0 f3 4d 8c bc f5 cc 25 bd f2 b8 39 bd 16 f9 d4 bc
       -0.017127013 -0.040478665 -0.045342393 -0.02599768
000200 c7 55 51 bd 6c b3 08 3e ee 97 0d be ad a4 62 3d
       -0.051107194 0.13349694 -0.13827488 0.05533283
000210 a3 4a d3 bd ec 0e cb bc 61 41 1c bd 91 03 48 bd
       -0.1031697 -0.024787389 -0.038148288 -0.048831526
000220 3d ce 87 3b cf 92 90 3d 28 b5 79 bd c1 3b 84 bd
       0.0041444586 0.070592515 -0.06096378 -0.0645671
000230 d7 0d 1f 3d 20 70 4f 3d 49 b3 95 3d 62 95 f6 3c
       0.038831558 0.05064404 0.073095866 0.030100528
000240 d1 0a a3 3b 22 48 b4 bd 56 b4 a5 3c 17 7a 5a bd
       0.0049756547 -0.08802821 0.020227592 -0.05333909
000250 41 72 05 be 5b 0c 56 bd 13 d5 fc bc 23 4d 0c 3e
       -0.13031866 -0.052257877 -0.03086332 0.137013
000260 bf 0b 4a 3d cf db ab 3d a9 d8 84 3d dd 5d 45 bd
       0.04932761 0.083915345 0.06486637 -0.048185218
000270 e5 f8 70 3d 71 7c 97 bd 09 a5 5f bc f9 67 ba 3d
       0.058831114 -0.07396782 -0.013650187 0.091018625
000280 b1 ae 9f bd 7e b8 7a bc 1c 8c 79 bd d5 e3 56 3d
       -0.077969916 -0.015302775 -0.060924634 0.05246337
000290 95 20 54 3d 7f 08 bb bd 54 b7 79 3b 51 32 cb bc
       0.051788885 -0.0913248 0.0038103657 -0.024804266
0002a0 22 28 d3 bd 7f 7d 06 3c dc f5 0c 3d 45 25 2e 3d
       -0.10310389 0.008208632 0.034414157 0.04251601
0002b0 4d 6c 73 bc 01 e4 68 bd 52 2b d0 bc 0b 2e 92 3c
       -0.014857364 -0.056858066 -0.025411282 0.01784422
0002c0 6a 3b a0 ba 08 1c ca bd fe 1e 68 3d bf f4 55 3d
       -0.0012224738 -0.09868628 0.05667018 0.05223536
0002d0 fd 70 51 bd d6 0c 17 3d 9f 6d 71 bd d9 b0 3c 3d
       -0.051133145 0.036877476 -0.058942433 0.046067093
0002e0 04 20 c0 3d 3a e8 c6 bd fd 1f af bc 17 5b d7 bc
       0.093811065 -0.097122625 -0.021377558 -0.026288552
0002f0 87 fd 06 3d f4 8b 89 bd a2 e8 71 bd 32 ce 1c bb
       0.032956626 -0.06716147 -0.059059747 -0.0023926613
000300 d9 62 1e bd 91 40 a1 3d 8e 6f d1 3b 11 df 5d bd
       -0.038668487 0.07873643 0.006391472 -0.05416781
000310 ac e4 dc bc a9 1f a6 bd 59 45 9a bd 9d 7c 0b bd
       -0.026964508 -0.081115074 -0.07532758 -0.034054387
000320 09 fd 30 bc c5 14 28 be bc 16 c5 bd 92 02 91 3c
       -0.010802516 -0.16414173 -0.09623477 0.017701421
000330 aa 6f e9 bd 54 76 9e 3d b8 bd 9f 3d 11 bd 41 3d
       -0.11398251 0.07737413 0.07799858 0.04729945
000340 8a b0 7b 3c 12 7a 49 3d 6a 68 f2 bd 07 30 f1 bd
       0.015361914 0.04918868 -0.11836322 -0.117767386
000350 81 1a 82 3d 78 a9 e8 bd 35 f6 ed bd b0 4d 73 bd
       0.063527115 -0.113604486 -0.11619226 -0.05940026
000360 76 50 f1 bb 1d 4e 84 bb db b1 83 bd 28 12 d6 bc
       -0.007364328 -0.004037632 -0.064304076 -0.026131704
000370 ef a7 df bc d5 49 b4 3d 3f 09 a8 3d 9c da 43 3d
       -0.027301757 0.08803145 0.082048886 0.047815904
000380 c6 37 e6 3c 91 fc 79 3d 3c 48 c3 bd 05 90 42 3d
       0.028102767 0.06103188 -0.09535262 0.04750063
000390 43 ec 8b bd e2 13 ad 3d eb b0 ab bd 1e 9c 20 3d
       -0.06832173 0.08451058 -0.08383354 0.039211385
0003a0 55 2f 64 bd 95 59 7a 3d 09 e0 f0 3c 9a 28 90 3d
       -0.0557092 0.06112059 0.029403703 0.07038994
0003b0 89 ef 92 bd 68 77 77 3d 15 d5 5f bd f5 e2 3c bd
       -0.07174594 0.06041661 -0.05464657 -0.04611488
0003c0 c4 c0 d8 3c 86 4a 26 bc 86 f7 b0 bd 48 46 9d bd
       0.026459105 -0.010149604 -0.08640961 -0.07679421
0003d0 b0 09 e5 bc 43 08 48 3d b4 bf da 3d 03 97 c3 3d
       -0.02795872 0.048836004 0.10681096 0.095502876
0003e0 6f 2c c4 bb 52 fa 4f bd 1c cf a7 bd d9 ea a3 3d
       -0.005986742 -0.050775833 -0.081938 0.08003778
0003f0 03 0d 40 bd 52 9d e6 bc 80 af 68 bd 58 a3 00 bd
       -0.04688741 -0.028151188 -0.056807995 -0.031405777

word_embeddings_layer.convs2.2.0.bias f4 [10]
000000 b1 0e 2f bd 20 9d ba 3d 3e b5 c9 3c bb 6d a1 bc
       -0.04273862 0.091120005 0.024622556 -0.019705644
000010 b3 0e 55 3d da 86 9d bc 36 1e 8f bc 71 0d 22 3d
       0.05201597 -0.019229341 -0.01747046 0.0395636
000020 1e a7 63 3c 54 b3 cc bb
       0.013894824 -0.0062469635

word_embeddings_layer.linear.0.weight f4 [30, 30]
000000 35 e3 47 3e 63 7f 0c 3d 10 18 98 bd f7 ee a4 bd
       0.19520266 0.034301173 -0.074264646 -0.080533914
000010 c8 e0 03 3e 53 ca 41 bd 31 cb 0c 3e b0 83 f4 bd
       0.12878716 -0.047312092 0.13749386 -0.1193918
000020 99 d0 b4 3c 55 db 0a be 9c 4a be 3d ee 85 35 3e
       0.022072123 -0.13560231 0.09291574 0.17726871
000030 92 28 ee 3d 9c fb ad bc 65 93 12 be 87 58 4a bd
       0.11628832 -0.02123814 -0.14314039 -0.049400833
000040 dd ec a3 bd c2 da 4f 3e a7 fb 8f bd f8 95 c9 3d
       -0.080041625 0.20298293 -0.07030421 0.098430574
000050 b9 61 31 3e 54 d6 cb 3d d0 b5 05 be b0 7f 6a 3d
       0.17322434 0.09952989 -0.13057637 0.05725068
000060 49 22 e8 bc 53 12 35 3e 1d 31 02 3b 31 18 23 3d
       -0.028336661 0.17682771 0.00198657 0.039817993
000070 13 d4 40 3e 7c 28 90 3d 9b 83 af 3d 66 b3 7f bd
       0.188309 0.07038972 0.085700236 -0.062426947
000080 9d 5e f7 3d 14 19 d1 3c e6 72 83 bd 16 fb 09 3d
       0.12078593 0.025524653 -0.064183995 0.03368672
000090 78 c1 17 be 7a 4d f4 bb ef d2 a6 3d b0 2c 62 be
       -0.14819896 -0.007455525 0.08145701 -0.2208736
0000a0 03 49 8f bd 5f 49 d9 3d ed df dc 3c 99 0a 17 3c
       -0.06996348 0.106096976 0.026962245 0.009218835
0000b0 29 2c bf 3c 21 d8 8b bd c0 96 23 3e 2b 54 a2 bc
       0.023336487 -0.06828333 0.15975475 -0.019815525
0000c0 10 d4 83 bd be 07 bf 3d 5b 58 14 be 4f 65 c2 bd
       -0.06436932 0.093276486 -0.1448683 -0.09491979
0000d0 1d 0e fa 3b b7 ee c3 bd df a3 a3 3d 2f 27 1d be
       0.007631077 -0.095670156 0.0799024 -0.15346979
0000e0 dd b9 50 bd 1d 9a cc bd 98 c0 5c 3e fa 1b 82 3d
       -0.050958503 -0.09990332 0.21557844 0.06352992
0000f0 53 76 0b be 40 ea 90 3d 40 bf 7d bb f6 24 2b 3e
       -0.13619356 0.0707593 -0.003871873 0.16713318
000100 44 59 ce 3d fa 5f da bd 90 a6 26 3e 98 c0 05 bd
       0.1007562 -0.10662837 0.16274476 -0.032654375
000110 5c 49 2a bd bc 9e 5f 3d 26 be 39 3e e0 a3 61 3d
       -0.041573867 0.05459474 0.18138942 0.055087924
000120 12 63 34 be 60 b9 6e bd 46 17 2e 3e 4d c9 83 bd
       -0.17615917 -0.058282256 0.17001066 -0.064348795
000130 19 e3 b3 bd 28 05 15 be 83 67 ce bd 3e 6f cc bd
       -0.0878355 -0.14552748 -0.10078337 -0.09982155
000140 bc 99 32 3d 28 63 95 3d 16 6d 32 3e f8 62 f5 3d
       0.043603644 0.07294303 0.17424425 0.119817674
000150 40 cc 30 3b 30 a6 c9 3d 28 b9 d5 3d 13 41 21 be
       0.0026977211 0.09846151 0.104357064 -0.1574748
000160 94 ac bc 3d ec c7 ff bd 76 5b 3f 3e 28 1d 19 bd
       0.09212604 -0.12489304 0.18687233 -0.03738132
000170 94 e5 b6 3d e8 48 45 3d 5c 92 53 3d 2f f5 94 3d
       0.08930507 0.048165232 0.05165325 0.072733276
000180 e6 68 a8 bd 55 4c e9 3d df 9f 21 3e cd 69 18 bd
       -0.08223133 0.11391512 0.15783642 -0.037210274
000190 5a 0f 17 be d6 2c 9e bd 81 3b 69 bd 91 07 29 bc
       -0.1475195 -0.077233955 -0.056941513 -0.010316745
0001a0 39 cc 72 3d af 92 08 bd c3 51 52 3c 20 58 23 3e
       0.059276793 -0.033343013 0.012836876 0.15951586
0001b0 67 e6 68 3d 29 fc 85 bd 2e 69 06 bb 05 c4 8d bd
       0.056860354 -0.06542236 -0.002050947 -0.069221534
0001c0 9c 6e 25 bc d4 27 3a be e9 e8 80 3d e0 c7 1a be
       -0.010097172 -0.18179256 0.06294424 -0.15115309
0001d0 00 d2 fa 3d 84 3f 2c 3e 97 a0 0d be 7e 39 53 bd
       0.122470856 0.16821104 -0.13830791 -0.0515685
0001e0 7b 3f 21 be e8 02 0b 3d 8f 60 bd 3c eb 3a dc bd
       -0.15746872 0.03393832 0.023117332 -0.10753425
0001f0 de 29 dc 3d 96 c9 81 3d 84 ee 65 be 83 ba 91 bd
       0.10750173 0.063372776 -0.22454268 -0.071156524
000200 eb fc ba bd 16 8b c6 bd 4b 18 f5 3d eb f9 02 bd
       -0.091302715 -0.09694497 0.11967524 -0.03197662
000210 99 b9 18 be dc df fb 3d 11 ce 29 be 86 48 59 bd
       -0.1491455 0.12298557 -0.16582514 -0.05304768
000220 b2 e3 56 3d af f3 1c 3e 7b de 2b 3e f4 57 62 bd
       0.05246324 0.15327333 0.16784088 -0.05525966
000230 99 3a 40 3d 66 e1 6b be da 85 a0 bd 9e 2c 8a bd
       0.046930883 -0.23035201 -0.0783803 -0.06746791
000240 ba 04 62 3d 87 4e ff bd b1 ac d7 3c f6 2b 63 3d
       0.05518029 -0.1246615 0.026327463 0.055461846
000250 36 91 28 3e ca e3 44 bd ab da 30 3e 7b 03 31 be
       0.16461644 -0.0480688 0.17270915 -0.17286484
000260 d5 c5 3d bd b3 10 9c 3d 7e 48 9a 3c a7 b1 b0 3d
       -0.046331245 0.076203726 0.018833395 0.086276345
000270 5a 34 fb bd d7 e8 97 3d 24 99 24 be f3 08 09 be
       -0.12265845 0.074174576 -0.16074044 -0.1338232
000280 d7 f9 ac bc 0a 83 3d be c0 9e 41 be 24 88 38 be
       -0.021115227 -0.18507019 -0.18908215 -0.18020684
000290 c1 41 0c 3e 32 71 c2 3c 07 9f 78 bd dd 1f 17 bc
       0.13696958 0.023735616 -0.060698535 -0.009223905
0002a0 f7 5e 23 be 00 82 31 be f8 80 fe bd 7f d1 5c be
       -0.15954195 -0.17334747 -0.124269426 -0.21564291
0002b0 88 fa f8 3d 22 01 f1 bd bd 08 5e bd bd c0 54 be
       0.1215716 -0.11767794 -0.054207552 -0.20776649
0002c0 f4 30 1d 3d 15 c2 a7 bd ee 08 0a be e9 26 e9 3d
       0.038376763 -0.08191315 -0.13479969 0.11384375
0002d0 93 93 0e 3e 3d f6 16 be 59 25 b2 3d 42 b1 5a bd
       0.13923483 -0.1474237 0.0869853 -0.053391702
0002e0 07 4d 6b 3c 12 03 87 3d b7 1a 62 bd 3f 7d 0f 3e
       0.0143616265 0.065923825 -0.05520126 0.14012621
0002f0 0b 85 b2 3d 5f 87 f9 bd 3a a9 f6 bd 71 47 46 be
       0.08716782 -0.12184023 -0.12043996 -0.1936319
000300 59 99 ce 3c 61 3e 2b be 09 18 24 be 28 15 00 be
       0.025219606 -0.16723014 -0.16024794 -0.1250807
000310 1a 5b 3d be 71 75 22 be ab c8 19 3e 37 80 b8 3d
       -0.18491784 -0.15865113 0.15017955 0.0900883
000320 6e d4 15 3e 89 33 de bd 63 23 d2 bd ae 66 b1 bd
       0.14631817 -0.10849673 -0.10260656 -0.08662163
000330 44 cf 5d 3b 6c 75 1a be 26 84 dc 3b e7 71 f9 bd
       0.0033845464 -0.15083855 0.0067296205 -0.12179928
000340 0c 27 24 3c 9f 07 1d 3e 0e 20 9a 3c 2b 4b 01 3e
       0.010019075 0.15334938 0.018814113 0.1262633
000350 2b 63 11 be 47 c5 12 bd ea f8 d2 bd 0d e3 01 bd
       -0.14197986 -0.03583267 -0.10301383 -0.031710673
000360 9c ad 95 bd 2b 06 c8 bd 49 aa 3e be 1c e9 86 bd
       -0.07308504 -0.097668014 -0.18619646 -0.06587431
000370 ec f1 13 3d dc 58 24 bd a2 08 25 be 59 70 16 3e
       0.036119387 -0.040123805 -0.16116574 0.14691295
000380 16 87 06 3e be d2 c9 bd d1 ef 70 3c 78 84 dd 3d
       0.13137469 -0.09854649 0.014705614 0.10816282
000390 c5 74 39 be 4b ad 30 be ee 3d bf 3d 7b f7 e4 ba
       -0.1811095 -0.17253606 0.09337984 -0.0017468774
0003a0 19 fe 57 3d 16 0a 85 bd 12 34 c1 3c 80 ea ff 3d
       0.05273256 -0.06496064 0.0235844 0.12495899
0003b0 0c f9 65 bd 9f bb 49 bd 60 51 27 be 27 c3 1c bd
       -0.056145713 -0.049251195 -0.16339636 -0.03827205
0003c0 e5 4c e4 3d f4 b4 35 be 46 f3 bb bc 61 51 0c 3e
       0.11147479 -0.1774481 -0.02294315 0.13702919
0003d0 f5 86 4c bd 2f 95 90 bd fc f8 8f bd 09 42 b9 bd
       -0.049933393 -0.070597045 -0.07029912 -0.09045798
0003e0 16 20 e6 3c d7 70 34 be 2f 64 55 3d 66 39 83 bd
       0.028091472 -0.1762117 0.052097496 -0.06407432
0003f0 c8 ba 1d bd c8 cc f4 bc 22 bf c6 3d 3b ae 01 be
       -0.038508207 -0.029882804 0.097044244 -0.1266412

word_embeddings_layer.linear.0.bias f4 [30]
000000 36 3e bf 3b 89 09 f2 bb 39 23 1a be 77 16 41 3d
       0.0058362735 -0.0073863906 -0.15052499 0.047140565
000010 ff 08 c6 bd c7 5d e5 3d 70 97 14 3e b4 de 37 be
       -0.096696846 0.11199527 0.14510894 -0.17956048
000020 34 34 e2 bd d9 13 48 3e 0d 98 9f bd 17 b3 27 3e
       -0.11045113 0.19538821 -0.07792673 0.16376911
000030 87 b3 14 3e 38 69 55 bd 54 ea 26 be ba 3b 94 3d
       0.14521609 -0.052102298 -0.16300327 0.072379544
000040 6c 87 96 3d 34 f7 2a 3e df e8 4e 3d 55 14 fd 3d
       0.073500484 0.16695863 0.050515052 0.12357394
000050 58 1a 20 be b7 12 cf 3c 12 b1 74 3d 61 2b cc 3d
       -0.1563505 0.025277479 0.05973918 0.09969211
000060 44 67 ed bd 6a d4 20 bd 68 e7 97 bd 30 cc cb bd
       -0.11591962 -0.039265074 -0.07417184 -0.09951055
000070 15 27 95 3d b8 ae 15 3d
       0.07282845 0.036543578
