subtaskC/cnn-char-bilstm/checkpoints/epoch-1.pt (torch, 32142 bytes, 29 tensors)

word_embeddings_layer.char_embeds_layer.weight f4 [148, 8]
00000000: 0a61 f53f 17c6 c13f 7e92 6d3f 53ca 08c0
00000010: e71d 383f b03f a2bf 744d c8bd 507b c9bf
00000020: fbd5 46bf d068 d83f 7d28 ccbe 37d1 b2bf
00000030: c33e 44bf 81f2 1bbf 0064 4bbf c847 3f3f
00000040: 25ac cd3f afb8 2bbe 6202 03bf c991 f53e
00000050: 8bb3 4dbf 6dc5 883f a526 533f 6d4d d83f
00000060: 12d2 a43f 33bb a93f 94e5 263f 47b5 ae3f
00000070: 0beb 82be 8964 f1bb 0b9b 7fbe 21be 593f
00000080: a8bf b4bf 5b07 5cbf ba91 7ebe f115 e23f
00000090: 1227 9b3e 72e9 f4be ff63 a93e 1229 4abf
000000a0: b2d4 cdbf 83d7 833f c850 65bf f185 13bf
000000b0: fa3a a6bf a7ad 0540 22fa 9dbf c99d fbbe
000000c0: b5cc 72bf af01 2ebf 0f4e 803d 6ea6 0e3f
000000d0: 2062 04bf d661 933f 3a0f 53bf 7910 39bf
000000e0: d8ba b8bf 3d2a a33d 41ae bfbd f7d6 3a3f
000000f0: 080c f6bd 58e2 ec3f fb45 98bf 5d8d b13f
00000100: d67c b93f 5db9 683f 7548 1040 8a6b 0d3f
00000110: 94f1 ba3e 993b 70be 6df9 8abf 6a04 a53f
00000120: ec0d 37be 49ff 073f 302e 3e3d 0ca8 f53e
00000130: 2cad 113f c514 24bf d77f 0ec0 9080 3abf
00000140: f627 8ebc 650e b4be e37f b0bf 0f19 09bf
00000150: 17a0 fe3e 0108 103f 82fc 983f 1ca5 4c3c
00000160: d2fb 383f 7c06 f8be 99e2 89bf 67df 1c3f
00000170: 8619 e0bf b432 59bf 64c6 ab3f 604d e73e
00000180: 723d 23c0 1913 063f 6708 4c3f 1911 1a3d
00000190: f845 273f 0f33 0f3f 47fc 843f cb83 eabe
000001a0: dd3c 80be e31b 463f c9c0 e13e 980f 243e
000001b0: 76e9 633e 780d a43f a943 353d f646 95be
000001c0: 2664 c0bf 7568 b1bd bb46 29bf aa7b 023f
000001d0: e097 333f eb83 803d d71b c9be b6bd 073f
000001e0: 265a 15bd e526 933e 40b9 ff3d b898 483f
000001f0: a301 883f 411c ae3e d0f3 3f3f 5017 d73e
00000200: dc36 f43f 4712 833f ad53 bdbf cb3c 89bf
00000210: 006a 11be 9876 d53f fb2c 353f 3b1a 163f
00000220: aa74 8d3f f950 9b3b b52b ebbf 35c8 753f
00000230: ec77 ccbe d1ab 853f 53c8 32bf b4f3 1d3f
00000240: a0e6 7ebf 7326 7f3f 6c19 d03f 9eda c33f
00000250: e670 973e 5007 5abe 95ef 3cbf 5110 df3d
00000260: 826d bd3e 8539 813f d4fb f3be a2bc cd3f
00000270: 6232 20c0 4e48 debe 408d 98bf 9042 4f3f
00000280: 23d4 f7bf 333e 833e 97c8 033d 71dc a0be
00000290: 4b16 943e 1b26 3ebf 315b 433e 8ddc 92bf
000002a0: d588 d3bf f8a1 ac3f 10b4 a33f 429f 923d
000002b0: 8099 c3bf c3f2 403f 26f1 493f c3ea 0040
000002c0: 396f 8a3c 048a ec3d 3619 4cbf 1618 54be
000002d0: c283 74bf f1f7 d1bf bfb8 95bf 498e 02bf
000002e0: c83c 0cbf 8d37 c4bf 8018 fdbf d89f 203e
000002f0: 1373 743f f718 16bf 43cc 353f 61f3 283f
00000300: 89f1 e03f a645 75bf a6b7 753f adb6 acbe
00000310: 2ae4 99bf 8f3b b43e 8fd8 003f 69a8 ad3f
00000320: 01ac 063f a22b 0740 5750 05bf f097 6ebf
00000330: ef9a 3d3e e5ca 883f 843c a73f 6e6f eb3e
00000340: f8d2 56bf 55eb 81bf 3732 fdbe 6045 12bf
00000350: 1fd7 1b3e 7122 c73e 18a5 1bbe be5d 14c0
00000360: db7d d2be 48e7 8a3f 9602 e8bf d8cd c23f
00000370: 621a 8b3e 8f7c f4be 20ad 873f 3ce2 d83f
00000380: 98fa d63d 44d9 de3f f989 753e aa4e 87bf
00000390: af26 25bf 6df3 f93c f3af c53e 3102 0640
000003a0: 6fa2 373d 6ffc 59bf 9409 01c0 3d6c 94bf
000003b0: 2545 3fbd 8f3b b63c 006d b93d 4a58 ee3e
000003c0: 7adb 6dbf e468 8d3e b8f3 09bf 98d7 ec3e
000003d0: 2134 5fbf 2f27 debc a1dc b4be ab5f bb3f
000003e0: 12b2 a03f 5807 37bf 779a 5a3f 6353 033f
000003f0: d02b 0a3f f0c4 103f 917b 013f e6ca 633e
1.9170239 1.5138577 0.92801654 -2.137349 0.7192063 -1.2675686 -0.09780398 -1.5740757
-0.7767026 1.6906986 -0.3987464 -1.3970097 -0.76658267 -0.60916907 -0.7944946 0.74718904
1.6068159 -0.1676967 -0.5117551 0.47962788 -0.80352086 1.068525 0.8248084 1.6898628
1.2876608 1.3260254 0.6519406 1.3649071 -0.2556995 -0.007366721 -0.24961488 0.8505574
-1.4120989 -0.85948724 -0.24860278 1.7662946 0.30303246 -0.47834355 0.33084103 -0.7896892
-1.6080534 1.0300144 -0.8957639 -0.57626253 -1.2986748 2.088724 -1.234196 -0.49143818
-0.9484361 -0.6797132 0.062648885 0.557227 -0.51712227 1.1514232 -0.8244511 -0.7229076
-1.443202 0.07967041 -0.09359408 0.7298426 -0.120140135 1.8506575 -1.1896356 1.3871266
1.4491222 0.9090784 2.2544224 0.55242217 0.36512434 -0.23460235 -1.0857369 1.2891972
-0.17876405 0.5312391 0.046430767 0.47979772 0.56904864 -0.6409419 -2.2265527 -0.7285242
-0.01735304 -0.35167232 -1.3789028 -0.5355386 0.49731514 0.56262213 1.1952059 0.012490537
0.7225925 -0.48442447 -1.0772277 0.61278385 -1.7507789 -0.8484299 1.3419919 0.4517622
-2.5506253 0.5237289 0.7970032 0.03761396 0.6534114 0.55937284 1.0389489 -0.45803675
-0.25046435 0.773863 0.44092396 0.16021574 0.22257027 1.281661 0.04425398 -0.291557
-1.5030563 -0.08662502 -0.6612355 0.50969946 0.7015362 0.06275161 -0.39279053 0.5302385
-0.036462925 0.28740612 0.124865055 0.7835803 1.06255 0.3400593 0.74981403 0.42009974
1.9079242 1.0239953 -1.4791161 -1.0721678 -0.14200592 1.6676817 0.7077176 0.58633775
1.1051228 0.0047398773 -1.8372713 0.96008617 -0.39935243 1.0443059 -0.6983692 0.61699986
-0.99570656 0.99668044 1.6257758 1.5301092 0.29578322 -0.21291852 -0.73803073 0.10891784
0.3699761 1.0095679 -0.47653067 1.6073191 -2.5030751 -0.4341454 -1.1918106 0.8096094
-1.9361614 0.25633392 0.03217372 -0.31418183 0.28923258 -0.74276894 0.19077756 -1.1473557
-1.6526133 1.3486929 1.2789326 0.07159282 -1.528122 0.75370425 0.7888359 2.0143287
0.016898738 0.11549762 -0.7972597 -0.20712313 -0.95513546 -1.6403791 -1.1697005 -0.5099836
-0.54780245 -1.5329453 -1.9773102 0.15685976 0.9548809 -0.58631843 0.71014804 0.65996367
1.7573711 -0.958094 0.9598335 -0.3373312 -1.2022755 0.3520169 0.5033044 1.356702
0.5260621 2.1120381 -0.52075714 -0.9320059 0.18516134 1.0686918 1.3065343 0.45983452
-0.8391566 -1.0149943 -0.49452373 -0.5713711 0.15218781 0.38893464 -0.15199697 -2.3182216
-0.41111645 1.0851831 -1.8125789 1.5219069 0.27168566 -0.4775128 1.0599709 1.6944041
0.10497016 1.7410054 0.23978414 -1.0570881 -0.6451215 0.030511582 0.386108 2.0938838
0.044832643 -0.8515081 -2.0162096 -1.1595532 -0.0466968 0.022245197 0.09053993 0.46551734
-0.9291302 0.27619088 -0.5388751 0.46258235 -0.8718892 -0.027118294 -0.35324576 1.463857
1.2554343 -0.7149558 0.85391945 0.51299113 0.539731 0.565505 0.5057917 0.22245368

word_embeddings_layer.conv1.0.weight f4 [21, 8, 3]
00000000: 94ee 583d fb73 30bd cea1 063d 1724 96bc
00000010: ef52 903d 16d9 2f3e fb17 23bd 8e59 4c3e
00000020: 953d 493e 2fa2 39be cb6c 3dbe d430 50be
00000030: d228 acbd d93b 71bd 36c8 9d3c 79ec a2bd
00000040: 1bdc 07be ac7b d2bd 4928 ebbd 57d1 2e3e
00000050: e64d e5bd f289 2ebe 6a47 833d e267 3abd
00000060: 7b37 1f3e 42b7 013e 6138 393e 1e39 1ebe
00000070: 70ab 083e f8a7 2f3e dbc6 e2bd fa02 433e
00000080: 46c3 133e d725 0a3d 71b2 d23d fc08 95bd
00000090: 21de 58be 1bd8 443d 8709 673d 1446 f2bd
000000a0: a004 d43d 387b 34be d261 303e 106c 1d3e
000000b0: 7f23 283d 7e94 b6bd 36ac de3d 4116 1d3d
000000c0: 3a01 503d 77e3 953d 4a23 323e 7470 95bd
000000d0: d30f eabc e4ff 9b3d 73fa e93c 95fb 353e
000000e0: 0587 c1bd 7cd5 583c 9a99 213d a5cd 4fbd
000000f0: 918c f93d 8e13 b33c 578a 48be a562 01bb
00000100: 06ae cfbd 5801 773c c5b7 8dbd 97e7 6cbe
00000110: 6827 8ebd 5ce6 31b9 f282 62bd 4b65 473e
00000120: 448e 2abd 5d8a 333e 9275 973d d9da 10be
00000130: 00df ab3d e9b7 483e 1e88 19be 4313 0bbe
00000140: 74c6 593e ab45 413e 1804 12be c80e c93d
00000150: 36be 54bd ca34 75be 2258 d03c a22a cf3d
00000160: ed1e dabd fdb4 583d 3eb5 43be 1f3f dc3d
00000170: 532c 253e 05fa 123e f462 a83d 804f 773d
00000180: b7c9 28be b516 b1bd b435 ddbc 2087 a1bd
00000190: 0855 03be b448 3c3e e91b 3f3e 2d83 4bbe
000001a0: 68e4 c73d 91ec f63d 61a5 313e 7d9c fd3d
000001b0: db18 4a3e 489b aabd 479d 0d3e d0cd 313e
000001c0: df9c 43be f184 4dbe 1c98 903c 3368 8f3d
000001d0: 0fc7 0cbe 8658 643d 1bc5 d4bb 24b8 873d
000001e0: d4d6 f2bd 9606 f23d 32ec 113e a713 2abe
000001f0: 1259 67ba 89a9 0bbc a580 f13c 9b2a 543e
00000200: 60ac 373d 5061 fbbc a7ef 4f3e ee4d a8bd
00000210: 45d7 a4bd 85c4 86bc b8d4 17be 7a5e bc3c
00000220: 40c5 f3bd 12ce 113c b2ca 7e3d c4a9 e13b
00000230: b5af 19be a91d 25be 813e 023e 327b 3e3e
00000240: 4030 5bbe 2051 d13d b039 f6bd fc28 513d
00000250: 249c 653e 0647 403e e177 41be e0bc 1d3e
00000260: 857c 0f3e f77b 953c 1ee6 6e3e ed27 dfbd
00000270: 588d bbbd 5d7d 15be 3af5 883d 2fc4 d83d
00000280: 2b26 2b3d d23a 13be 198b 10be cd07 df3c
00000290: 90df 4dbe ef24 793c 53dd 153d 8263 eabd
000002a0: 15c4 613d 2a48 553c f359 f53d d437 5fbd
000002b0: 42b6 20be 9bd7 e83d 1467 513c 5755 56bd
000002c0: ce9a 0dbe 03f0 673d 9f04 38be 7d12 4e3d
000002d0: 4192 e83d 5e77 16be c5ec f4bd 4cfe 0cbe
000002e0: 0c02 2f3e 8fdc 343e 6214 4d3d 18c4 693e
000002f0: 51ec dabc 3ae0 54be 7974 823d 2f9b 933d
00000300: 0f40 333e be59 05bd c940 fc3d c864 c13d
00000310: 44a0 f33d d737 6bbe e2e6 053e 17d6 59be
00000320: b0dd 1c3e 5cba 863c b3b9 14be d1dd bc3d
00000330: b0a6 afbd b587 60be cf55 d9bd 4f29 723d
00000340: 0a8e 493e 7a2c f1bc a4a3 013e b806 8dba
00000350: 35e6 ad3b cdf4 9d3d 815a c3bd c328 0dbe
00000360: 3561 d1bd f667 51be 2b25 bfbd d583 13bb
00000370: c65a debd b540 c3bd e937 b6bc 2d9e 25bd
00000380: b7ec ddbd a87e 303d 87a9 12bd de69 a33d
00000390: d6ba 4a3d 1546 00be 67cf 3fbd a0da 6abb
000003a0: 2262 f2bd df53 96bc ea93 adbc abd6 5c3d
000003b0: a763 d73d 1e20 013e c47c 77bd 27d0 0ebe
000003c0: add1 143e 1463 fbbd 19c8 b33c ebf4 58bc
000003d0: f793 c0bc ec98 d3bc c370 733e 228d 313e
000003e0: 6ed1 d53d 67ac 4b3e d786 73be c6c4 473c
000003f0: 51e7 043e b495 133e a141 23be c525 783d
0.0529619 -0.043079358 0.032869153 -0.018327756 0.07047068 0.17172655 -0.03981779 0.19956037
0.19652398 -0.18128274 -0.18498532 -0.20331126 -0.08406223 -0.058894966 0.019260507 -0.0795526
-0.13267557 -0.10277495 -0.11482293 0.17072044 -0.111964986 -0.1704481 0.064101055 -0.045509227
0.15548508 0.12667564 0.18087913 -0.15451476 0.13346648 0.17153919 -0.11073085 0.19044104
0.1442996 0.033727493 0.10287941 -0.07277104 -0.21178485 0.048057657 0.05640557 -0.118297726
0.10352445 -0.17625129 0.17224815 0.15373254 0.041049477 -0.089150414 0.108726904 0.0383513
0.05078242 0.07318776 0.17396274 -0.07296839 -0.028571999 0.07617167 0.028561806 0.17771752
-0.09449581 0.013234492 0.039453126 -0.050733227 0.12185014 0.02185991 -0.19584022 -0.0019742635
-0.10140614 0.015076004 -0.06919817 -0.2313522 -0.0694111 -0.00016965851 -0.05530066 0.19472234
-0.04163958 0.1753325 0.07395472 -0.14145984 0.08392143 0.19601406 -0.14993331 -0.13581567
0.2126711 0.18874232 -0.14259374 0.098172724 -0.05193921 -0.23945919 0.02543265 0.101155534
-0.1065043 0.05290698 -0.19112107 0.10754227 0.1613019 0.14353187 0.08221999 0.06037855
-0.16483198 -0.08646909 -0.027003147 -0.07887101 -0.12825406 0.18387109 0.1866299 -0.19874258
0.09760362 0.1205684 0.17348243 0.123833634 0.19736044 -0.08330399 0.13829528 0.17363667
-0.1910281 -0.20070244 0.017650656 0.07002296 -0.1374781 0.055748485 -0.0064932234 0.06626919
-0.118573815 0.118176624 0.14250258 -0.1660906 -0.0008825223 -0.008524307 0.029480288 0.20719378
0.044842124 -0.03068605 0.20306264 -0.08217989 -0.08048872 -0.01645113 -0.1482724 0.022994269
-0.11902857 0.008899229 0.062205024 0.0068866927 -0.15008433 -0.16124596 0.12719156 0.18601683
-0.21405125 0.102205515 -0.12022722 0.051064476 0.22422844 0.18777093 -0.18893386 0.15404081
0.14012344 0.018247588 0.2332997 -0.10896287 -0.091578186 -0.14598604 0.06687398 0.10584294
0.041784447 -0.14377907 -0.14115562 0.0272254 -0.20104814 0.01520656 0.036588024 -0.11444761
0.05511864 0.013017694 0.11980047 -0.0544966 -0.15694526 0.113692485 0.012780923 -0.05232748
-0.13828585 0.056625377 -0.17970513 0.0503106 0.11356021 -0.14693972 -0.11959223 -0.13768882
0.17090625 0.17662261 0.050068267 0.2282871 -0.026724013 -0.2078866 0.06369872 0.07207333
0.17504905 -0.032556288 0.12317044 0.094430506 0.118958026 -0.2297052 0.13076356 -0.21273075
0.15318942 0.016446285 -0.14523964 0.092219956 -0.08576715 -0.21926768 -0.1061207 0.059121426
0.1968309 -0.029440153 0.1266008 -0.0010759449 0.005306984 0.07712708 -0.095387466 -0.1378508
-0.10223619 -0.20449814 -0.09333261 -0.0022508998 -0.108571574 -0.09533826 -0.022243457 -0.04043405
-0.108361654 0.04308954 -0.035806205 0.07979177 0.049494587 -0.12526734 -0.046828654 -0.0035835877
-0.118351236 -0.01835054 -0.021188695 0.05391566 0.10517054 0.12609908 -0.06042172 -0.13946591
0.1453311 -0.12274757 0.021946 -0.013241987 -0.023508055 -0.025829755 0.23773484 0.17338994
0.10440336 0.19889985 -0.23781906 0.012192911 0.12978865 0.14412576 -0.15943004 0.060582895

word_embeddings_layer.conv1.0.bias f4 [21]
00000000: 5026 0fbe 5dbe 953d 853f fcbd 7010 1abd
00000010: 3972 383e 8269 3a3e 9011 b0bd a26b 18be
00000020: b892 a23b 919f bd3d c30d 883c ebdb d8bc
00000030: f0b1 c9bd c347 983d 0c3d 633e 3d16 b1bd
00000040: b64d e83d a033 d63d b90f 403e cc0e a33b
00000050: ca36 693d
-0.13979459 0.073116995 -0.12316803 -0.037613332 0.18012322 0.1820431 -0.085971 -0.14884809
0.004961338 0.092589505 0.016608125 -0.026472053 -0.09848392 0.074355625 0.22191256 -0.0864682
0.11342947 0.104590654 0.18755998 0.004976129 0.056937017

word_embeddings_layer.convs2.0.0.weight f4 [10, 21, 3]
00000000: fe9e f23d ba19 d83d 98ee 193e c204 20bc
00000010: 292e 9a3d 8ce9 e73d 14ce 6bbd f77f 563d
00000020: bf77 a5ba 8134 cd3d 2c2e 1bbd 349a d53c
00000030: c4b9 c03d 8c88 c4bd ac4b bcbd c0a6 43bd
00000040: 8def c73d 8417 cf3d c7de 75bd 729d 4b3d
00000050: 8363 3abd cbf5 29bd 9f9b ff3d 09b6 993d
00000060: 3b2a 2ebc eca7 2a3d 99fe 413d 2c93 443d
00000070: 5678 f2bc edc1 a5bd 607e ca3d fa43 183d
00000080: 99c1 9f3d 836d f3bc 6679 a23d 024b dd3d
00000090: 9ebd d33d e08d 7a3d 9874 1a3e 33b7 8b3c
000000a0: 1bbf 153d 68bf 0b3e 9650 053e 5368 42bd
000000b0: c9ab ef3d de3a 853d 48d9 ac3b 75b1 033e
000000c0: 3658 40bd 51dc c83d 3794 123e 49df 99bd
000000d0: 6a74 61bd d84f d3bd bd2e 863b 17ca babd
000000e0: 6b64 71bc 308d 833d 8f10 ec3d 00bc c53d
000000f0: cde8 b43d 1326 8d3d 73ab 89bd d0b5 b4bd
00000100: b2db 7b3c a29b 053e 63d7 903c 0c55 ac39
00000110: 9fd4 99bd f225 48bd 56e4 adbd 89ae e83d
00000120: f268 85bc 7152 d5bd c87d bd3c 0ae1 8e3c
00000130: 4dd1 3ebc e4f5 603d 8f25 9c3d f357 d9bd
00000140: fa3b afbd 01c2 eabb 3e36 eebd f2f0 f7bd
00000150: 2192 ee3d 8ea4 c5ba 3cb4 5dbd f47f 05bd
00000160: 8f73 b3bd f89a df3d 43b6 8abc 0d61 76bd
00000170: 475c afbd 1389 a33d 4fe8 4abc 78bd 1dbc
00000180: d315 d7bc 85c0 57bd 557a e93c 66a7 da3d
00000190: 3928 81bd 1a3b 753c a086 b9bd 7f31 58bd
000001a0: 61b1 f53d 4d22 79bc 782f d43d a0a9 25bd
000001b0: cfa2 83bd 895d 94bd f806 ef3d 6521 b8bd
000001c0: ba3e 993d 5819 1d3d b5c9 0d3d c1ee a73d
000001d0: ca02 01bd a07b b43d 0981 b8bd 595a 0cbd
000001e0: a188 cf3d de7f 403d ca33 fbbb bde7 b7bc
000001f0: 3754 85bd 4d2e b13d 9b88 0d3d 1449 133d
00000200: e01a 8e3d 8009 043e 1692 c5bc 9ec8 0bbc
00000210: 2b92 f53d c3d0 d93d ba9c ecbc 083a a2bd
00000220: 55d7 713d 0d61 ca3d f25f 813d 3644 f63d
00000230: f956 9cbd 58e8 c83d fbfd 56bd 1154 c53d
00000240: ccca 093e 49aa a03d b12e 083e 8323 6bbd
00000250: aef4 aebd bf30 d1bd f745 d63d f552 953d
00000260: 4814 6dbd 402c ae3d f2bc 103e 09e6 dfbd
00000270: 92e1 033e 142e 7b3d 0c82 653d 9ed3 1c3e
00000280: b500 193e f99f ad3d 53da 0c3e 1c57 c33d
00000290: a846 863d 4bfe 9ebd 9fac 4f3d 8a4c 83bd
000002a0: 2812 9a3d 15e5 6d3d aed7 243d 69c6 61bd
000002b0: 9935 57bd 258d ec3d c640 b53d ab98 bf3d
000002c0: a3ba ccbc 811b e13b 8592 85bc bad9 dc3d
000002d0: c67f 71bc 144f f73d 6114 013e fffe aebd
000002e0: ff66 2b3d 3610 a63c 0c9a 2bbd 1f39 9f3d
000002f0: 27fc bc3b de54 193e fddf 1bbd b577 cc3d
00000300: ebc5 83bd 8dee d9bc 88d0 4d3d 8c6b 123e
00000310: 17e2 de3d a688 81bd b600 443d 4324 07bd
00000320: 799c 283d f117 8ebd 71e2 2f3b a6b6 f13d
00000330: 45fe 9bbd cd30 b5bd 8f6d 6b3d b3f3 813d
00000340: fa17 763c bdd9 1b3e c6af 47bd 649a 2ebd
00000350: 1c66 85bd e8f6 5f3c 5dab d83b c310 eb3d
00000360: 2b4f a43c c654 903d 6ad9 c9bc 3e82 153e
00000370: e6f7 1a3e 0caf 93bd 60e7 1d3c dac8 92bd
00000380: c8f5 bf3d 177b 8cbd de14 95bc a0b8 2b3e
00000390: eea3 b5bd f034 ff3d 8661 323d dcd1 103e
000003a0: 2d92 b2bc f753 003e b61c 493d 8233 2d3d
000003b0: 5b4b fa3d 1a8b b1bd 4e59 87bd 8f46 1c3e
000003c0: 1d20 33bd 2366 86bd 5bde b53c 385b d439
000003d0: 62bc c53c d683 2dbd 9d0a b13d 1dd1 8abd
000003e0: 0794 593d 3ae2 d93d b8c7 623d d928 4a3d
000003f0: ae3b fbbc c373 bfbd fa1f 92bd 58e6 e3bd
0.118467316 0.10551782 0.15032423 -0.009766759 0.075283356 0.113238424 -0.05756958 0.05236813
-0.0012624188 0.1001978 -0.03788583 0.026074506 0.09410432 -0.09596357 -0.09194121 -0.047766447
0.097624876 0.10111907 -0.06002691 0.0497107 -0.045505058 -0.041494172 0.12480854 0.075054236
-0.010630186 0.04166405 0.047361944 0.047991917 -0.029598396 -0.08093629 0.09887385 0.037174203
0.07800598 -0.029715305 0.07933311 0.10805322 0.10338901 0.06117046 0.1508354 0.01705513
0.036559206 0.13647234 0.13019022 -0.047462773 0.11702687 0.06505369 0.0052749254 0.12860663
-0.046959125 0.09807647 0.14314352 -0.075132914 -0.05504266 -0.10317963 0.004094927 -0.09120577
-0.014733414 0.06423414 0.11526596 0.09654999 0.08833466 0.06892028 -0.067221545 -0.088237405
0.015372204 0.1304765 0.01768083 0.0003286976 -0.075112574 -0.048864312 -0.08490817 0.11361415
-0.016285393 -0.10416115 0.023131266 0.017441291 -0.011646581 0.054922 0.07624351 -0.10612478
-0.085563615 -0.0071642403 -0.116314396 -0.121065035 0.116489656 -0.0015078948 -0.054126963 -0.03259273
-0.087622754 0.1091823 -0.016932612 -0.06015115 -0.085625224 0.07985129 -0.012384488 -0.009627692
-0.026255524 -0.052673835 0.028500715 0.1067646 -0.063065 0.014967704 -0.09058881 -0.05278158
0.11996723 -0.015205932 0.103606164 -0.04044497 -0.06427538 -0.07244403 0.11671251 -0.089907445
0.07482667 0.038354248 0.03461619 0.081998356 -0.0314968 0.08812642 -0.090089865 -0.03426585
0.10133482 0.046996944 -0.007666086 -0.022449369 -0.06510203 0.08651409 0.034554105 0.035958365
0.0693872 0.12894249 -0.02411751 -0.008531718 0.1199077 0.10635521 -0.028883327 -0.07921225
0.059043247 0.09881792 0.06317128 0.12024729 -0.07633776 0.09809941 -0.05248831 0.09635175
0.13456267 0.07844979 0.13299061 -0.057406913 -0.08542763 -0.10214376 0.104625635 0.072912134
-0.05788067 0.08504534 0.14134577 -0.109325476 0.12879017 0.06132324 0.056032225 0.153151
0.14941676 0.08477778 0.13755159 0.09538099 0.06556445 -0.07763346 0.050701734 -0.06411083
0.07522994 0.058079798 0.04024475 -0.05512086 -0.05254135 0.11550359 0.08850245 0.09355291
-0.02499134 0.006869734 -0.016305218 0.107837155 -0.014739936 0.1207563 0.1260543 -0.085447304
0.04184627 0.020271402 -0.041894957 0.07774567 0.0057673636 0.1497378 -0.03805541 0.0998377
-0.06434234 -0.026603008 0.0502477 0.14298838 0.10882967 -0.06324892 0.04785224 -0.032993566
0.04116485 -0.0693816 0.002683785 0.118024155 -0.076168574 -0.08847199 0.05747753 0.0634531
0.015020365 0.1521978 -0.048751615 -0.042627707 -0.065136164 0.013669707 0.006612225 0.114778064
0.020057281 0.07047419 -0.024639804 0.14600465 0.15133628 -0.07211122 0.009637684 -0.07167216
0.09373051 -0.06859415 -0.018198427 0.16769648 -0.08869158 0.12461269 0.043550037 0.14142555
-0.021798218 0.1253203 0.049099647 0.04228545 0.12221404 -0.0866911 -0.066088304 0.15261291
-0.043731797 -0.0656245 0.022200754 0.00040503754 0.02413768 -0.042362057 0.086446024 -0.067781664
0.053119686 0.106388524 0.055366248 0.04935536 -0.030668106 -0.09348252 -0.07135005 -0.11127919

word_embeddings_layer.convs2.0.0.bias f4 [10]
00000000: fa5d 053d cf29 f53d a987 483d fcbc 24bd
00000010: 2ae5 89bd b695 f13d 1dba 303c 4ec7 a5bb
00000020: af2b b43c 8d3a dfbc
0.032560326 0.11970865 0.0489575 -0.040219292 -0.06733163 0.11796133 0.01078656 -0.0050591594
0.021993486 -0.027249599

word_embeddings_layer.convs2.1.0.weight f4 [10, 21, 4]
00000000: 1c25 c4bd b966 e4bd 489f 21bd ff86 e6bc
00000010: e2c2 e03c db0c 9dbd d631 4fbd 9087 4f3c
00000020: 1fab 9dbb e547 29bd c644 a8bc ffbe 4dbd
00000030: ad79 1dbe cffb 46bd 5b6c b5bd 3b92 133d
00000040: a63b 383d 95da 27bd 746e 0c3d d031 fabd
00000050: 3856 593d 51db 373d 2cf8 78bd a3fa 14be
00000060: 7783 b7bd a8ee c2bd f9a4 75bd 8b2d 28be
00000070: 0840 0dbd 9e14 d0bd b799 bcbd 06cb ddbd
00000080: 8dcc 9dbd bdc5 24be dc8b d6bd 6d19 12bd
00000090: 1f94 463c 0c39 123d f2e8 15be 4261 dbbc
000000a0: 7ac7 fcbd e1be 18be 0d0d a9bd a18d 0ebe
000000b0: 5308 1bbe c175 2ebe 12c4 0cbe fc0c ba3c
000000c0: 4c4c 92b9 82d3 d8bd 48be 04be f4e7 13be
000000d0: fbb7 00be 3e18 e0bd 230e 003c 94a6 07bd
000000e0: 055d eabd 0148 c23b c857 0dbe bd2d 2ebe
000000f0: 5dde 0cbd 2276 f9bd 6602 fdbc e122 da3c
00000100: 42f4 e3bd dfce 12be 56a7 79bc 0fc7 25be
00000110: 5b67 013d 8a3b dcbd 5284 89bc d4bc 20be
00000120: d693 03be db75 50bd 4a99 bfbc 2045 883c
00000130: 9521 db3c 2337 94bd da61 9ebd 1b34 48bd
00000140: 6e5a b3bd bc13 79bd 4546 32be b7e0 28be
00000150: 606a b13d ccce 5ebd d8b4 c73d b4f7 bc3c
00000160: d337 143d 2aaf e53d 3fef 4cbd b16e 07bc
00000170: d8f5 0a3d d01f 443d a636 c3bd 3638 373d
00000180: 5396 53bd 75e0 9b3c faee 903d 4f8b 093b
00000190: 6f19 c43c f6fe c13b 4e2d aa3d 89ee a13d
000001a0: fbfb ba3c f737 66bd 6fdf 6ebd 8192 b13d
000001b0: 19c8 a63d ceab 8a3d f1b5 c0bd 7fa4 c73d
000001c0: 1e9b 913c f57c a93d 4ffd c23d 59b2 953c
000001d0: 42cf b1bc 4bc3 dd3d cff2 3dbd f0b7 aa3d
000001e0: dc4b c6bd b45a 22bd 98d2 b7bd d6fd 50bd
000001f0: 1722 6f3d e01d 90bd 5037 aabd 647e ab3d
00000200: 2aa4 833d af42 cc3b 1386 65bd 6dd4 f3bb
00000210: 85b4 b6bc fded 9f3d de30 c7bc fca0 b0bc
00000220: 2f21 97bd 3a5d 47bd 0feb 8e3d 54f3 b33d
00000230: 9e73 8b3c 552b 1abd 8906 e43d 7cda ca3c
00000240: 801a 71bd 309a 3cbd 4d81 15bc 6a6f 303d
00000250: 4544 103d 4684 a23d 454f 16bc cdf0 9d3d
00000260: 4a86 2fbd 626e 25bd 9c0d 14bd f5ef 02be
00000270: 786c 7cbd f259 b6bd 6891 c73b 0ab6 4d3c
00000280: ceda 40bc 9602 54bd 4870 e23d e7e6 d5bc
00000290: 74f6 743d dcce a13d be16 b4bd c35c 27bc
000002a0: 4ef4 4c3c 3e3c 603d bcf0 83bd 39c5 e53c
000002b0: d084 0fbe 6908 eabd 0b37 2a3d 02de 72bd
000002c0: 1853 883d 4459 15bd aba3 bebd e419 7e3d
000002d0: 190e 203d 4e2c 22bd 9d2b eebd 8cef 40bd
000002e0: f5b8 c2bd c31c 123d a1bf e6bc 07df 873c
000002f0: 79b6 373d a94b 6b3c d6d9 c4bd 3c05 9c3d
00000300: b373 c73c c847 f1bd cf39 2a3d a17f 59bc
00000310: adfe 33bd 74eb c7bd f4da 20bd fdd8 f5bd
00000320: 1de3 bb3c 9d66 533d f845 87bd 68d9 843d
00000330: 1e5b 9cbd 0a93 c0bc 8dcc abbd 7754 47bc
00000340: 1c03 a8bc e2f4 19bb 077d 8abd f7db eabd
00000350: 7ccd e73c ae88 c03c 5959 e2bc 9f21 bfbd
00000360: e0db debc 0f81 55bd 32cf 3a3d 3af4 2dbd
00000370: 85fd cdbc 73bd 29bd eae9 083d 8dfa 7bbc
00000380: 8d04 973c 23ee aabc b2f4 25be f3b6 acbd
00000390: ce4b d5bd cdde cbbd f437 4abc b2bf 39bb
000003a0: 9568 27bd cac9 893d bbe4 a5bd 949e 72bd
000003b0: 480c 66bd 4909 e1bc fe88 6bbd e2ec 923d
000003c0: 700e c9bd 7bb6 e9bd 722e 46bd cb43 da3c
000003d0: 6235 f2bc 33f7 fa39 3c90 0dbd cb65 133d
000003e0: 19fb 133d a788 613d b80e dbbc 7880 ccbd
000003f0: 6b13 9cbd 7c34 723c b6dc 583d 747a 88bd
-0.095773906 -0.11152405 -0.039458543 -0.028140543 0.027436677 -0.076684676 -0.050584637 0.012666598
-0.004811659 -0.04132833 -0.020540606 -0.050230976 -0.15378447 -0.048579987 -0.08858558 0.036028128
0.04497876 -0.04097994 0.034285024 -0.12216532 0.05306074 0.04488689 -0.06078355 -0.14548735
-0.08960622 -0.09518176 -0.059971783 -0.16423623 -0.034484893 -0.101601824 -0.09209006 -0.10829739
-0.077050306 -0.16091056 -0.10475895 -0.03566878 0.012120276 0.035698935 -0.14639643 -0.026779775
-0.12342735 -0.14916565 -0.08254442 -0.13921215 -0.15139894 -0.17037107 -0.1374667 0.02271127
-0.00027904136 -0.10587217 -0.12963212 -0.14443952 -0.12570183 -0.10942124 0.00781587 -0.033117846
-0.11443523 0.0059289937 -0.13803017 -0.17009635 -0.03439175 -0.12180735 -0.030884933 0.02662796
-0.11130573 -0.14336728 -0.01523765 -0.16189216 0.031592708 -0.10753544 -0.016786728 -0.15697032
-0.12849364 -0.050893646 -0.023388524 0.016634524 0.026749412 -0.07237079 -0.077335075 -0.048877817
-0.087574825 -0.060809836 -0.17409618 -0.16491972 0.086628675 -0.054396436 0.0975129 0.023067333
0.03618605 0.112150505 -0.05003285 -0.008266137 0.03392586 0.0478819 -0.09531908 0.04473134
-0.051657032 0.019027928 0.07076831 0.0020987575 0.023937909 0.0059202863 0.083094224 0.07906825
0.022825232 -0.056205716 -0.05831855 0.086705215 0.08143634 0.067710504 -0.094097026 0.09748172
0.017774161 0.08275787 0.09520971 0.01827352 -0.021705274 0.10828265 -0.04637414 0.083358645
-0.09682438 -0.039637282 -0.089757144 -0.051023327 0.05838212 -0.07036948 -0.08311331 0.083737165
0.06427796 0.0062335352 -0.056036066 -0.0074410946 -0.022302875 0.078090645 -0.024315294 -0.021561138
-0.07379376 -0.048672892 0.069784276 0.087866455 0.017022904 -0.03763898 0.11134059 0.024762385
-0.058863163 -0.046045482 -0.009125066 0.043075003 0.035221357 0.079353854 -0.009174173 0.07711945
-0.042852677 -0.040388472 -0.03614579 -0.12786849 -0.06162688 -0.089038745 0.006090332 0.0125556085
-0.011770917 -0.05176028 0.11056572 -0.02611108 0.05980535 0.079007834 -0.087934 -0.010214987
0.012509419 0.05474495 -0.06442401 0.028048145 -0.14015508 -0.11427385 0.0415564 -0.059293754
0.06656474 -0.036462083 -0.09308561 0.06203641 0.039075945 -0.039593033 -0.11629412 -0.04710345
-0.09507934 0.03567196 -0.028167548 0.01658584 0.044851754 0.0143613005 -0.096118614 0.07618186
0.024347162 -0.11781269 0.041559037 -0.013275058 -0.04394405 -0.09761706 -0.03927131 -0.12004278
0.022935444 0.05161153 -0.06605142 0.064867795 -0.07634567 -0.023507614 -0.08388624 -0.012166134
-0.020509295 -0.0023491909 -0.06762128 -0.11467736 0.028296225 0.023502674 -0.027630495 -0.093325846
-0.027204454 -0.052125033 0.045607753 -0.04246924 -0.025145302 -0.04144044 0.033426203 -0.01537956
0.018434787 -0.020865506 -0.16206625 -0.08433332 -0.10414849 -0.09954605 -0.012342442 -0.002834302
-0.04087122 0.06727941 -0.081002675 -0.059233263 -0.056164056 -0.027470248 -0.057503693 0.07174088
-0.09817207 -0.114117585 -0.048384137 0.026643654 -0.02956647 0.00047867894 -0.03456138 0.03598575
0.036128137 0.055061962 -0.026740417 -0.09985441 -0.07620891 0.014783021 0.05294486 -0.06663981

word_embeddings_layer.convs2.1.0.bias f4 [10]
00000000: 30ec c3bd 30c8 acbd 8085 cf3c 2105 aabd
00000010: c8cb 1a3d f67d 9cbd 78b0 713d 1285 0e3e
00000020: cf87 80bd e9b1 f23d
-0.095665336 -0.0843662 0.025332212 -0.083017595 0.037791997 -0.07641213 0.059006184 0.1391795
-0.062759034 0.1185034

word_embeddings_layer.convs2.2.0.weight f4 [10, 21, 5]
00000000: ed8b 74bb 40cd a0bd 82fc 0b3d 194c 4e3d
00000010: 40e3 a63d e1c8 c6bd ef77 b13d b478 953d
00000020: 7775 c33d 7b4c 573d 14ad 50bd b02e 903d
00000030: 0203 af3d 4243 20bd 7c50 8abc 9ced 963d
00000040: a2e4 9a3d da71 743d c483 923d 7aaa 2bbd
00000050: ed71 a4bc dae3 1ebd 0779 593d de09 123d
00000060: 11ed 36bd 1d94 17bc 15e6 9dbd f919 a9bd
00000070: 0aae d83d 4802 05bd 7604 273d 5bee cebc
00000080: 4739 c8bc 641b 93bb 40d8 aa3d 7b2e 4dbc
00000090: ce7e b33d 37fb 953d 7abf a93d 11e1 a1bd
000000a0: da42 2abd e390 9bbd 7905 6cbc 4a09 50bc
000000b0: 0c6a e23c 8289 af3d d483 2b3d 8b7c 92bd
000000c0: cd92 68bd da17 993d da74 61ba 3446 853c
000000d0: 2f0a 91bd 5063 babc fcaf 093c ca3d 8cbd
000000e0: 4be0 753d cc5b 3a3d 5071 67bd 7676 aebc
000000f0: dc26 05bd 2569 e03b d346 2ebd 1843 af3d
00000100: 12d6 cdbd a60f 57bd 6eaf 52bd 1a7e 0d3d
00000110: 76bb cc3c c158 24bc 94b3 a43d 38e7 bbbd
00000120: 6dbf bd3c dac4 9dbd 5c9d 76bd f52f bdbd
00000130: 49b2 90bd dd13 a1bd fce3 823d 74e1 08bd
00000140: 13b5 483d 7485 5ebd 9171 55bc e9b1 763c
00000150: ef1b a73d c437 08bd 476e 413d 966f baba
00000160: 0d12 733d 3afe 793d 6411 0a3d 0313 10bd
00000170: 53c8 0fbd 377c f33c e6f8 383d 7a44 6dbc
00000180: c265 203d dea8 88bd 6f9c 3e3d e284 a3bc
00000190: ad70 99bd 99e6 5ebd f393 8fbd 4773 1d3d
000001a0: fbbe 43bd 6064 4fbd b56a 15bd 15b6 a8bd
000001b0: 61fb 59bc a7be 10bd 5bb3 4d3c fce2 563d
000001c0: 2b71 a4bd 7e9f 413d c5a7 83bc 3fc9 87bd
000001d0: b993 24bd 2617 7a3c b268 ca3c 46b7 a6bb
000001e0: 4a9e 3ebd b87c 573d 3548 dc3c 0acb bebd
000001f0: 8aa5 73ba addc cbbc 9ac3 08bd 3c1f bbbc
00000200: 5395 6bbd 3da5 f73d 7dea b4bd 3e60 b33d
00000210: cdaf 8bbd 8403 a1bb 1713 e4bc f030 0dbd
00000220: 8bf3 ef3c 14f3 8f3d 4503 35bd 0452 40bd
00000230: 1ba0 823d 49a6 3e3c 4598 203d 1a8e 8b3d
00000240: e1e0 2bbb e399 7abd 6f2d 153d 5093 2cbd
00000250: 161e b0bd aad7 59bd df0e 01bd 88b0 063e
00000260: b758 523d ef75 8c3d fc30 303d f931 7bbd
00000270: 0c0b a03d e885 cabc b541 87bc dbe3 c73d
00000280: a93a 42bd 0732 8b3c 65fc 75bd 6e46 883d
00000290: bd81 403d 0b6a b0bd 35ca 173d c337 15bc
000002a0: 06a9 9abd 7743 903d f3a1 4e3d c2a9 2c3d
000002b0: b442 88bc 3231 28bd 0cdc 0bbd cfe3 163d
000002c0: 9727 853c 67be 6ebd 5526 b23d c544 793d
000002d0: eba0 a9bc f8a8 913d 72cd b6bc 7f83 603d
000002e0: 316f e23d 0728 9abd 51d7 fabc 3364 1e3c
000002f0: 31fd 0f3d a50a 75bd f065 59bd 9903 ec3b
00000300: afb6 8ebc ca80 5d3d 438f 8e3c 0851 95bb
00000310: 2240 a9bc 4c7a 63bc b6bd c4bc 3e20 653c
00000320: 9616 203d 2ca7 adbd 06ee 9ebd 7c95 c83c
00000330: d369 c5bd d2c6 ab3d d5ad 9d3d 0a4f 363d
00000340: 7f22 09bc 0012 223d 4b60 96bd 4418 aabd
00000350: 4fda c93d 7fc1 9fbd 15a5 97bd 5682 f7bc
00000360: 2425 513c d2e2 ff3c eacc 1cbd e12e 5fba
00000370: b0cf 97bc bd93 b43d ed5c b93d cd1c 403d
00000380: 9028 263c 359c a03d 6ec4 9bbd 71d9 433d
00000390: 5a4f 55bd f637 a43d b18d a0bd 62d4 1b3d
000003a0: 6e54 8cbd 999f 7c3d 29e2 b83c 826f ba3d
000003b0: c2d7 89bd 640c 8f3d b554 6abd fb81 3cbd
000003c0: a2ce 313d 9b65 66bc 3086 94bd 638b a1bd
000003d0: 3016 bebc 757d 083d f094 bd3d 17e2 ad3d
000003e0: c09b 0b3c ef95 59bd b300 a1bd 1e17 c53d
000003f0: e029 33bd 4d72 f8bb d2cc 88bd 74f3 60bd
-0.0037314848 -0.07851648 0.034176357 0.05036554 0.08148813 -0.09706283 0.08665454 0.07298413
0.09543889 0.05256317 -0.05094631 0.07040155 0.085454956 -0.039126642 -0.016884081 0.07369539
0.075631395 0.05967889 0.071540385 -0.041910626 -0.020073855 -0.038791515 0.053093936 0.03565394
-0.044659678 -0.009251622 -0.077099 -0.08256907 0.1058007 -0.03247288 0.04077574 -0.025260141
-0.024441374 -0.004489349 0.08342028 -0.012523289 0.087644204 0.07323306 0.082884744 -0.07904256
-0.04156766 -0.07595994 -0.014405602 -0.012697527 0.027638458 0.085711494 0.041873768 -0.07152661
-0.056780625 0.074752524 -0.0008600481 0.016268827 -0.070820205 -0.022752434 0.008403774 -0.06847723
0.060028356 0.0454977 -0.056504548 -0.021296721 -0.032507762 0.0068484717 -0.042548012 0.08557719
-0.10050596 -0.052505158 -0.051436834 0.034544088 0.024991732 -0.010030926 0.08042064 -0.09174961
0.023162568 -0.07703562 -0.060208663 -0.09237663 -0.07065255 -0.07865117 0.06391141 -0.033418134
0.04900081 -0.05432649 -0.013027565 0.0150570655 0.08159625 -0.033256307 0.04722431 -0.0014223929
0.059343386 0.061033465 0.03370799 -0.03517438 -0.035103153 0.029722316 0.045159243 -0.014481658
0.039159544 -0.06672834 0.046535905 -0.019960824 -0.07492194 -0.054419134 -0.07010641 0.038440015
-0.047789555 -0.050632834 -0.036478717 -0.082378544 -0.013304562 -0.03533807 0.012554969 0.052462563
-0.080293976 0.047271244 -0.01607121 -0.066301815 -0.04017994 0.015264308 0.024708126 -0.005087766
-0.046537675 0.052609175 0.0268899 -0.093160704 -0.00092943816 -0.0248855 -0.033389665 -0.022842042
-0.057515454 0.120920636 -0.088337876 0.08758591 -0.06820641 -0.004913749 -0.027841134 -0.0344705
0.029290935 0.07028785 -0.04419257 -0.046953216 0.06378194 0.011636325 0.039207716 0.06814213
-0.0026226568 -0.061181914 0.036420282 -0.042132676 -0.085994884 -0.05318419 -0.031508323 0.13153279
0.051354136 0.068584315 0.043015465 -0.061326955 0.07814607 -0.024722055 -0.016510824 0.09760257
-0.047419224 0.016991628 -0.060055155 0.066540584 0.046998728 -0.08613976 0.037058074 -0.009107533
-0.0755177 0.07044118 0.050447416 0.04215408 -0.016633369 -0.04106254 -0.0341454 0.03683835
0.01625423 -0.05828705 0.086987175 0.0608566 -0.020706614 0.07112306 -0.02231476 0.054812904
0.11056364 -0.07527166 -0.030620249 0.009667444 0.03515357 -0.059824605 -0.05307573 0.0072025773
-0.017421095 0.0540779 0.017402297 -0.004556779 -0.020660464 -0.013884138 -0.024016242 0.013984738
0.03908404 -0.08479151 -0.07760243 0.024485342 -0.09639325 0.08387531 0.076991715 0.04450897
-0.008370041 0.039567947 -0.07342585 -0.083054096 0.09856092 -0.07800578 -0.07404534 -0.030213516
0.012765203 0.031236086 -0.03828136 -0.00085137604 -0.01853165 0.08817241 0.09050927 0.046902467
0.010141507 0.07842294 -0.07605825 0.04781479 -0.05207763 0.08018486 -0.078395255 0.03804434
-0.06852041 0.06167564 0.022568779 0.091033 -0.06730606 0.06984785 -0.05720969 -0.046022397
0.04340995 -0.014062311 -0.07252157 -0.07887914 -0.02320394 0.03332277 0.09256923 0.08490389
0.00852102 -0.053121503 -0.078614615 0.0962355 -0.043741107 -0.007581985 -0.066796914 -0.054919675

word_embeddings_layer.convs2.2.0.bias f4 [10]
00000000: 0418 00bd 4ade c93d 3177 163d 5045 6cbc
00000010: ce19 3e3d aafb 55bc 7ff6 5cbc 1cd4 2f3d
00000020: 7b3b 523c 0f2e 2dbb
-0.031272903 0.098568514 0.036734764 -0.014420822 0.046411328 -0.01306049 -0.013486504 0.042926893
0.012831564 -0.0026425158

word_embeddings_layer.linear.0.weight f4 [30, 30]
00000000: d85e 4c3e 5943 1c3d 3608 8bbd 809b 92bd
00000010: 3ec0 d93d c0d7 3cbd 96e9 0e3e 9b49 1abe
00000020: 8ad9 033d 3ac2 05be 4a7b a83d bcda 343e
00000030: 529a bd3d f284 2dbd 052f 13be 81c2 8cbd
00000040: 41c9 9dbd 0adc 503e e112 8cbd 36ca ca3d
00000050: 6d85 333e a785 b93d 5c6f 05be 5ff8 273c
00000060: 632a e4bc 4d0f 0b3e 10fe 2e3c 9906 ab3c
00000070: a002 373e a125 943d a2ca d03d 7eb6 3bbd
00000080: 2927 0c3e b2d3 263d 3505 8cbd 1296 543d
00000090: 6a2b 02be fe9c ad3c f954 c13d f8a9 4bbe
000000a0: e17b a9bd ef5e 033e 1390 a93c 537e 813b
000000b0: bc5f 2b3d 420f 9cbd 1998 393e e611 fb39
000000c0: 3085 45bd eedb e43d 1f49 09be a55b 82bd
000000d0: f62c 8f3c c4f2 a8bd 14f9 ce3d 384f 0ebe
000000e0: fe7e 10bd c8d8 7fbd bfd4 4e3e 8f43 a73d
000000f0: 5376 0bbe 40ea 903d 40bf 7dbb f624 2b3e
00000100: 4459 ce3d fa5f dabd 90a6 263e 98c0 05bd
00000110: 5c49 2abd bc9e 5f3d 26be 393e e0a3 613d
00000120: 1263 34be 60b9 6ebd 4617 2e3e 4dc9 83bd
00000130: 19e3 b3bd 2805 15be 8367 cebd 3e6f ccbd
00000140: bc99 323d 2863 953d 166d 323e f862 f53d
00000150: 40cc 303b 30a6 c93d 28b9 d53d 1341 21be
00000160: 94ac bc3d ecc7 ffbd b82f 3c3e f0d6 27bd
00000170: 5f86 a73d 51bb 1b3d 85b0 6b3d 7345 923d
00000180: 1ac1 babd 71d7 e93d cc88 183e 40fd 87bd
00000190: c7b0 0ebe 8a60 a8bd 70aa 63bd c9df d7ba
000001a0: f52d 693d 9c1e bfbc fda3 e83a d1e1 203e
000001b0: 41e3 543d 09a2 87bd 88a7 acbb 8e4a aabd
000001c0: 40cd 9abc 0ed0 2dbe 2a35 6e3d 377e 1abe
000001d0: b91c e93d 779e 2a3e 3b5e 04be 6c64 63bd
000001e0: 1215 18be 5d44 2e3d 64da fb3c 76b6 cfbd
000001f0: 302d f93d 26cb 8f3d 69a3 2cbe 8f75 56bc
00000200: c9aa adbd 3b2c a2bc 4232 ea3d a416 c6bc
00000210: 8647 03be 50fa 013e 2345 2cbe 12ee 53bd
00000220: db4a 843d a5f3 213e b4f5 303e f508 48bd
00000230: 51d6 6d3d 2118 25be 100b 0dbd f2ea 55bd
00000240: 2fff 6c3d 6739 e3bd 124f 0e3d 60da be3d
00000250: 6f88 243e c8fa 16bd d046 2c3e 15b6 2fbe
00000260: e368 4ebd a85e 913d 98ed 243d 2f21 b23d
00000270: b939 f3bd 5241 de3d 3316 2dbe b6c0 f8bd
00000280: c639 7ebc ac4e 35be d50b 38be b39e 2cbe
00000290: b902 183e f1ee 123d 397f 54bd 3565 d9bb
000002a0: 0479 22be 60c8 2fbe 374b 01be 03a5 3cbe
000002b0: 5fbd fb3d 45a2 9fbd 9160 45bd 3890 2bbe
000002c0: 50fb 023d c650 34bd 5543 02be 37d2 f03d
000002d0: 8e11 083e 9441 1ebe d718 aa3d a38e 5fbd
000002e0: e1b8 8d3c 906c 673d 9913 5bbd 3e96 073e
000002f0: 7f30 b03d cd31 d0bd cd91 eebd 6c4d 50be
00000300: b73b 1b3d 257a 26be 124c 2dbe 3447 fbbd
00000310: a5e7 42be df9d 2cbe c74c 123e e5f4 a33d
00000320: 0344 103e 1559 d6bd cf70 cdbd d307 aebd
00000330: 23e6 d4bb 50e2 16be 18b2 8a3b a729 05be
00000340: 0615 423c 4348 143e c97d d03c 80ab 053e
00000350: 3e30 0abe 8f57 f7bc 9bb4 debd 47ec cebc
00000360: 2234 95bd 95fb cfbd b313 39be df9e 8dbd
00000370: c225 f03c 0e62 14bd 4d3c 2bbe 20c6 0f3e
00000380: 9743 093e c10e d7bd 3d29 8d3c e139 ee3d
00000390: d591 34be e902 2abe 9b74 c73d 4bfd e3bb
000003a0: b223 623d 2ac3 92bd 81b3 f23c 1b0e f73d
000003b0: 58cb 4bbd ba15 67bd 703a 2dbe a2e8 04bd
000003c0: ccf6 d83d 553c 3abe 5deb c5bc 8768 063e
000003d0: 32e2 2fbd d922 9ebd 39ac 83bd a227 abbd
000003e0: d44f ac3c 6077 2abe d664 743d 17de 63bd
000003f0: 5477 08bd 987c b0bc 2742 bc3d 5ce3 f3bd
0.19958055 0.038150165 -0.067886755 -0.071585655 0.106323704 -0.046104193 0.13956293 -0.15067141
0.032189883 -0.13062373 0.082266405 0.17661566 0.0925795 -0.042363115 -0.14373405 -0.06873036
-0.07704402 0.20396438 -0.06839538 0.0990185 0.17531367 0.09058695 -0.13030761 0.010252087
-0.027852243 0.13580056 0.01068069 0.02087717 0.17872095 0.0723374 0.10194899 -0.045828335
0.13686813 0.040729232 -0.06836931 0.05190093 -0.12711874 0.021193024 0.094400354 -0.19889057
-0.08275581 0.12829183 0.020698583 0.0039518266 0.041839346 -0.07620098 0.18124427 0.00047887786
-0.04822272 0.11174761 -0.134068 -0.06365136 0.017477494 -0.08249429 0.10106102 -0.13897407
-0.03527736 -0.062462598 0.20198344 0.08167183 -0.13619356 0.0707593 -0.003871873 0.16713318
0.1007562 -0.10662837 0.16274476 -0.032654375 -0.041573867 0.05459474 0.18138942 0.055087924
-0.17615917 -0.058282256 0.17001066 -0.064348795 -0.0878355 -0.14552748 -0.10078337 -0.09982155
0.043603644 0.07294303 0.17424425 0.119817674 0.0026977211 0.09846151 0.104357064 -0.1574748
0.09212604 -0.12489304 0.18377578 -0.040976465 0.08179926 0.038020436 0.05754139 0.07142153
-0.091188625 0.11418045 0.14895934 -0.066401005 -0.13934623 -0.08221538 -0.055582464 -0.0016469891
0.056928594 -0.023330025 0.0017749068 0.15711142 0.05197454 -0.06622703 -0.0052689947 -0.083150014
-0.018896699 -0.16973898 0.05815617 -0.1508721 0.113824315 0.16662012 -0.12926571 -0.05551569
-0.14851788 0.042545665 0.030743785 -0.101422235 0.12166822 0.07021169 -0.16859211 -0.013089552
-0.0847984 -0.019796481 0.11435367 -0.024180718 -0.12820253 0.12693143 -0.16823249 -0.051740713
0.0645959 0.158156 0.17281228 -0.048836667 0.058065716 -0.16122486 -0.03443438 -0.052226014
0.05786055 -0.11094933 0.034743376 0.093189955 0.1606767 -0.036860257 0.16823888 -0.17159303
-0.050392997 0.07098132 0.04026565 0.086977355 -0.11876244 0.108523026 -0.16903 -0.12146132
-0.015516704 -0.17705792 -0.17973264 -0.16857414 0.14844789 0.035872404 -0.05187914 -0.0066343793
-0.15866476 -0.17166281 -0.12626348 -0.18422322 0.12291979 -0.07794622 -0.048187796 -0.16754234
0.03197795 -0.044022344 -0.12720998 0.11758845 0.13287947 -0.15454704 0.08305519 -0.05457939
0.017300071 0.056500018 -0.053485487 0.13240907 0.08603 -0.10165749 -0.11648903 -0.20342034
0.037898745 -0.16257532 -0.1692355 -0.1226944 -0.19033678 -0.16857098 0.142871 0.08005694
0.14088444 -0.1046621 -0.10031282 -0.08497586 -0.006497161 -0.14734769 0.004232656 -0.1300417
0.011845833 0.1448069 0.025450604 0.13053703 -0.13494965 -0.030193118 -0.108742915 -0.02525915
-0.07285334 -0.10155407 -0.18073921 -0.06915068 0.02931488 -0.036226325 -0.16722222 0.14040422
0.1340469 -0.10500861 0.017231578 0.11632133 -0.17633756 -0.16602673 0.097390376 -0.006957685
0.055209823 -0.07166131 0.02962661 0.12063237 -0.04975447 -0.056417204 -0.16916823 -0.03244842
0.10593948 -0.18187077 -0.024160082 0.13125812 -0.042940326 -0.077214904 -0.06429333 -0.08357169
0.021034159 -0.166471 0.059666477 -0.055631723 -0.033316925 -0.021543786 0.09192305 -0.119086

word_embeddings_layer.linear.0.bias f4 [30]
00000000: 325a 503c ad3c fa3b 3923 1abe a6b2 2a3d
00000010: 205a b5bd e50e dc3d 2c92 0f3e 7125 32be
00000020: 03dd ecbd 2811 423e 0d98 9fbd fb5c 233e
00000030: a7e7 143e 2be8 82bd f7ce 29be 3493 963d
00000040: 7787 963d c42f 263e 0116 1d3d 2372 f73d
00000050: a24c 1dbe d092 fc3c f869 3d3d 52e5 db3d
00000060: 1e67 edbd 468a 1ebd 71ee 92bd 9488 c9bd
00000070: 39d4 9d3d e888 0e3d
0.012716817 0.0076366276 -0.15052499 0.04167428 -0.088550806 0.107450284 0.14020604 -0.17397095
-0.11565592 0.18951857 -0.07792673 0.15953438 0.14541493 -0.06391939 -0.16582857 0.073522955
0.073500566 0.16229159 0.038351063 0.12082317 -0.15361264 0.030831724 0.046243638 0.10737099
-0.11591934 -0.038706087 -0.07174385 -0.09840503 0.07706494 0.034798533

bilstm.weight_ih_l0 f4 [8, 30]
00000000: 4103 953e 641b 43bc 26d2 a4bb e23d c7bc
00000010: dc3b c93e 3152 f5be 421d 223e 398c cd3e
00000020: c2c2 d43e 2898 a5be 02ed 153f 1f3c ecbe
00000030: 6631 c23e d189 173f ef3f 2d3d 8b89 843e
00000040: a9ab 20bf be71 88be b302 87be 7312 26bf
00000050: 85e3 0dbe b79c 003f 1900 6cbd 39ac 383f
00000060: 0ab6 1bbf d7c0 a93e e3bd 1e3f fd56 353f
00000070: 4b69 6fbe e2a2 20bf ed5e 98be 869c f63e
00000080: ce75 cb3c cf65 213f 8460 01bf ab19 f6be
00000090: 0471 a73e eacc 513e 44f8 00bf c511 1e3f
000000a0: ad8c 86be 059c 20bf 43a3 2b3e c60a ddbe
000000b0: affd b8be f018 cbbe 49a8 363e 7055 963e
000000c0: 0c52 df3e 9128 e3be 57f9 50be 45d6 243f
000000d0: 9173 d3be 14b4 9abe cce8 16be a800 24bf
000000e0: 9acc 10bf 350d 1b3f 3cd3 e93d 6f65 bb3d
000000f0: 96b4 a83e 28f1 f43e cf51 063f 05ef 0d3f
00000100: 898c 793e 6c07 153f d3a9 023f 45ea 94bd
00000110: d31a e63d f230 a4be 0613 0cbf 8849 383f
00000120: c241 fbbe 9d9c d2be 962e 22bf 8cc4 0ebf
00000130: 07a0 583e 0964 c73e c462 0abf c5dc d63d
00000140: 18e8 f2be f2d6 283e 26c4 f03e 34a3 6cbe
00000150: 5bd1 90be 893c f23e 175c d0be 4b7e bcbd
00000160: 3eaf 12bf b265 0b3f 6890 3f3e 4d79 a6be
00000170: e34e ee3e c896 1e3f bd4f a43e 4ad7 09bf
00000180: 3cfd 40be 2ec3 073f a02d ef3e f638 8bbe
00000190: 7e8c f23e 82b4 00bf cce5 223e 4110 163f
000001a0: 78bf ce3d fc56 10bf d0bb 453e bae7 b53e
000001b0: 2c5e e73e 7069 02bf dcba 2abe 37a5 52bd
000001c0: e74a 30be c2f0 4dbe 029e 89be d784 663e
000001d0: 0a34 953e b622 27be 06cb 083f cb50 37bd
000001e0: 7a9d 2e3e cc0c 393e 4ee4 75be 4612 61bc
000001f0: 2e97 e4bd a689 8b3e f586 c5be 77f0 afbe
00000200: 71b3 2cbf d143 9ebe 8392 323e 0b9e 113f
00000210: c461 38bf a591 91be c78c dd3e 3ba2 d7be
00000220: e5a8 f03e 6424 fe3c 485a 2bbf bc08 fe3d
00000230: a091 debe 0f71 123e f6bc 23bf 30ab 213f
00000240: 867d 9bbe 4cf2 da3e 8c71 e0be 2181 18bf
00000250: 091e 7a3e f3c1 d83e ad1e f03c 0b9f 0dbf
00000260: 0d1b 22be 372a dcbe 7862 2c3e 703a 1d3e
00000270: 5279 053f f66b 3d3f 71c1 8dbe fba9 183f
00000280: f739 f63e 0826 163e 3c11 2bbf ce0a ebbe
00000290: d68d a93e ca70 073f 0884 ca3e 1ed8 d43d
000002a0: 67cf c8be 0b13 13bf 2702 bcbe 1a28 c63c
000002b0: d324 143e a671 153f 772b fdbe 6b4b c53e
000002c0: b56a 253f fdb7 1dbf 2f97 b8be 8491 21be
000002d0: ab97 353e 89f8 2e3f f0d9 403e 99e7 0b3f
000002e0: 2df5 063f 02ff 1a3f f7f1 1bbf dd25 dabe
000002f0: 767d 173c 5e6d 303d 04cd fd3c 88f5 223f
00000300: 193d 2b3f 6076 33be ba14 98be fc1e 503d
00000310: bf48 eb3d 2932 f73e 85a4 963e 08db 8b3e
00000320: b32f 8b3e 9140 0e3f 17bf f03e 11a7 02bd
00000330: 5d36 f0be 3dc8 fb3e 4d9d 84bb 7e32 f3be
00000340: ab53 cdbd 589d 103f 33af b4be 6f2c cabd
00000350: 1af0 573e 8027 f33e 4f72 abbd 6122 09bf
00000360: d7ac a4be d27f 83be c421 373d da54 02bf
00000370: d3d6 1c3f 144b 213e e4c1 08bf 191a b73e
00000380: 4703 4d3c 4004 2e3f 5cf7 09bd 29b7 18bd
00000390: 0336 36bf e581 1dbf 3c47 dbbc dd00 163f
000003a0: a6ec f1be be81 d73d 20a6 00bf 5513 11bf
000003b0: 2a1b 95be 5297 fdbe eb3b 1bbf 3c8f 7cbe
0.29104045 -0.011908386 -0.0050299345 -0.0243215 0.39303482 -0.4791427 0.15831473 0.40146044
0.41554838 -0.32342649 0.5856477 -0.4613962 0.37928313 0.59194666 0.0422973 0.25886187
-0.6276193 -0.26649278 -0.26369247 -0.648719 -0.13856323 0.5023913 -0.05761728 0.7213779
-0.60824645 0.33154938 0.62008494 0.7083586 -0.2338001 -0.6274854 -0.29759923 0.48166293
0.024836447 0.6304597 -0.50537896 -0.48066458 0.32703412 0.20488325 -0.50378823 0.61745864
-0.26279202 -0.62738067 0.16761498 -0.43172282 -0.36131045 -0.39667463 0.17837633 0.2936206
0.43617284 -0.44366887 -0.20407616 0.6438945 -0.41299108 -0.30215514 -0.14737242 -0.640635
-0.565622 0.6056703 0.11417243 0.09150206 0.32950276 0.47840238 0.5246858 0.5544284
0.24370016 0.5821445 0.5104038 -0.07271246 0.11235585 -0.32068592 -0.5471653 0.719872
-0.49073607 -0.4113511 -0.63352334 -0.55768657 0.21154796 0.38943508 -0.54056954 0.10491327
-0.47442698 0.16488245 0.4702465 -0.23109132 -0.28284726 0.4731181 -0.4069526 -0.09203776
-0.5729865 0.5445205 0.1870743 -0.3251442 0.4654456 0.61948824 0.32092085 -0.5384413
-0.18846601 0.53032196 0.46714497 -0.27191895 0.47372812 -0.50275433 0.15907973 0.5861855
0.100951135 -0.5638273 0.19309926 0.35528356 0.45189035 -0.50942135 -0.16672844 -0.051427092
-0.17216073 -0.20111373 -0.26878363 0.22511612 0.29141265 -0.16321835 0.5343479 -0.044754785
0.1705226 0.18071288 -0.24012873 -0.013737267 -0.11161648 0.27253455 -0.38579527 -0.34363148
-0.67461306 -0.30911115 0.17438702 0.5688178 -0.7202418 -0.2843143 0.43271467 -0.4211596
0.47003856 0.031023212 -0.66934633 0.1240401 -0.43470478 0.14300941 -0.63960207 0.63151836
-0.30369204 0.42762983 -0.4383663 -0.59572035 0.2442552 0.42335472 0.029311502 -0.55320805
-0.15830632 -0.43000957 0.16834438 0.15354323 0.52138245 0.7399286 -0.27686647 0.5963437
0.480911 0.14662945 -0.6682317 -0.4590668 0.33116025 0.5290648 0.39553857 0.103927836
-0.39220735 -0.5745093 -0.36720392 0.024189044 0.14467172 0.5837654 -0.49447224 0.38534102
0.64615947 -0.6160887 -0.36052844 -0.15778166 0.17733638 0.68347985 0.18833137 0.54650265
0.5271786 0.6054536 -0.60916084 -0.42607012 0.009246221 0.04307305 0.030981548 0.636559
0.668901 -0.17525625 -0.29703313 0.0508108 0.114884846 0.48280457 0.29422393 0.27315545
0.2718483 0.5556727 0.4702079 -0.03189761 -0.46916476 0.49176207 -0.004047072 -0.4749946
-0.10025724 0.5649009 -0.35289916 -0.09871756 0.21087685 0.47491074 -0.08371412 -0.53568083
-0.32163116 -0.25683457 0.044709936 -0.50910723 0.61265296 0.15751296 -0.53420854 0.35762098
0.012512988 0.67975235 -0.033683166 -0.03728405 -0.71176165 -0.6152633 -0.026767366 0.5859507
-0.4725086 0.10522793 -0.50253487 -0.56670123 -0.29122287 -0.4952951 -0.606383 -0.24664015

bilstm.weight_hh_l0 f4 [8, 2]
00000000: 8a44 3abe 1a89 a53e 4ea7 bd3e bf6d 2b3c
00000010: 486c 59be 9065 3bbe 4437 0abf 0cfc 023f
00000020: c22f 2c3f 1abd 21bf ed6d 36bf 2144 2ebf
00000030: f51c 20be 4ea7 babc 913f ddbe b5ee d13e
-0.18190208 0.32331163 0.37041706 0.010463177 -0.21232712 -0.18300462 -0.5399058 0.51165843
0.6726037 -0.6317917 -0.71261483 -0.68072706 -0.15636046 -0.022784855 -0.4321256 0.41002432

bilstm.bias_ih_l0 f4 [8]
00000000: d045 793d 49be c6be cc86 22bf 81d8 043f
00000010: ba76 313f 26a2 be3d 6cea 9bbe 715b d93e
0.060857594 -0.3881705 -0.63486934 0.5189286 0.6932179 0.09308271 -0.30452287 0.42452577

bilstm.bias_hh_l0 f4 [8]
00000000: 8dae dc3e c6e1 06be 5858 363f f9e0 0dbf
00000010: a190 b6bd ab6d 203f 2989 cebe c7fa 78be
0.43101922 -0.13172063 0.7122855 -0.55421406 -0.089143045 0.6266734 -0.4033902 -0.24314414
