subtaskC/cnn-char-bilstm/checkpoints/epoch-0.pt (torch, 32142 bytes, 29 tensors)

word_embeddings_layer.char_embeds_layer.weight f4 [148, 8]
0	0x3ff6a527	1.926915
1	0x3fbe5f54	1.4872842
2	0x3f669567	0.9007172
3	0xc006c0dd	-2.1055214
4	0x3f2dacd5	0.67841846
5	0xbf9e0592	-1.234545
6	0xbd306787	-0.04306748
7	0xbfcd65ba	-1.604667
8	0xbf408bff	-0.7521362
9	0x3fd3095a	1.6487229
10	0xbec8f2f6	-0.39247864
11	0xbfb3a963	-1.4036068
12	0xbf3a566d	-0.72788125
13	0xbf0f36cc	-0.5594299
14	0xbf44d2a1	-0.76883894
15	0x3f432f9f	0.7624454
16	0x3fd23771	1.6423169
17	0xbe236d7b	-0.15959732
18	0xbefeaae2	-0.49739748
19	0x3ee111d7	0.43958923
20	0xbf4214e2	-0.75813115
21	0x3f8a0650	1.0783176
22	0x3f4d0143	0.8008005
23	0x3fd71e93	1.6806206
24	0x3fa3ba59	1.2791244
25	0x3fa5f12f	1.2964228
26	0x3f1c4788	0.6104665
27	0x3faad8b0	1.3347378
28	0xbe6d2eed	-0.23162432
29	0x3d2b0c00	0.04175949
30	0xbe80ce79	-0.25157526
31	0x3f5c1fb0	0.8598585
32	0xbfb13d01	-1.3846742
33	0xbf5f0955	-0.87123615
34	0xbe64ba0a	-0.22336593
35	0x3fdbd27d	1.7173611
36	0x3ea34434	0.31887972
37	0xbed95a8d	-0.42451897
38	0x3e9c8760	0.30572033
39	0xbf464bb2	-0.7745925
40	0xbfc75e87	-1.5575722
41	0x3f7ee202	0.9956361
42	0xbf6139a5	-0.87978584
43	0xbf19e481	-0.60114294
44	0xbfa31765	-1.2741514
45	0x4007dbb6	2.122785
46	0xbf9e091f	-1.2346534
47	0xbef9cfd9	-0.48791388
48	0xbf69f04e	-0.913823
49	0xbf287baf	-0.65813726
50	0x3d9fcafb	0.07802387
51	0x3f069b67	0.52580875
52	0xbef9da0d	-0.48799172
53	0x3f987ec9	1.1913692
54	0xbf5062ce	-0.81400764
55	0xbf3c6a07	-0.73599285
56	0xbfb39da0	-1.4032478
57	0x3d1378bf	0.036003824
58	0xbd82005f	-0.06347727
59	0x3f2cf519	0.6756149
60	0xbdc84efb	-0.09780689
61	0x3fec1ba8	1.844594
62	0xbf979eec	-1.1845374
63	0x3fb11825	1.3835493
64	0x3fb8fa24	1.4451337
65	0x3f5b3ddb	0.8564126
66	0x400df4f4	2.2180758
67	0x3f05ee2d	0.5231655
68	0x3eb17bac	0.34664667
69	0xbe4a1141	-0.19733144
70	0xbf86fccd	-1.0545899
71	0x3fa39558	1.2779951
72	0xbe3052ca	-0.17219082
73	0x3f061700	0.52378845
74	0x3d67ec47	0.056621816
75	0x3eda437d	0.42629614
76	0x3f133388	0.57500505
77	0xbf244809	-0.64172417
78	0xc00d35a0	-2.206398
79	0xbf4034ab	-0.75080365
80	0x3c32104d	0.010868144
81	0xbead6fac	-0.3387426
82	0xbfab9b66	-1.3406799
83	0xbf15dad8	-0.58537054
84	0x3f0943a1	0.5361882
85	0x3f064dab	0.5246226
86	0x3f9212e5	1.1412016
87	0x3d53884b	0.05164365
88	0x3f3e73a3	0.743952
89	0xbef69237	-0.48158428
90	0xbf8654e5	-1.0494658
91	0x3f1a991d	0.6038988
92	0xbfdc742a	-1.722295
93	0xbf53e8a9	-0.82776886
94	0x3faad78b	1.3347028
95	0x3ef79275	0.48353925
96	0xc0209c60	-2.5095444
97	0x3ef9db46	0.48800105
98	0x3f48daaf	0.78458685
99	0x3ceaad8d	0.028647209
100	0x3f24088a	0.6407553
101	0x3f154fb4	0.5832474
102	0x3f88910e	1.0669267
103	0xbee67a83	-0.45015344
104	0xbe3db6c1	-0.18526746
105	0x3f40b4ce	0.75275886
106	0x3ecf3c6a	0.4047578
107	0x3e36bfca	0.17846599
108	0x3e87a238	0.2649095
109	0x3fa2f72e	1.2731683
110	0xbaabd149	-0.0013108636
111	0xbe9b71f0	-0.30360365
112	0xbfba7fee	-1.4570291
113	0xbdd19523	-0.10233524
114	0xbf196218	-0.59915304
115	0x3ef440bd	0.4770564
116	0x3f39e6c0	0.7261772
117	0x3dbaadd4	0.09115186
118	0xbec7338e	-0.3890652
119	0x3f072589	0.5279165
120	0xbc4fd6c1	-0.012685479
121	0x3e769dcc	0.24083632
122	0x3e07b75a	0.13253537
123	0x3f43a546	0.7642406
124	0x3f8c2947	1.0950097
125	0x3eae0630	0.33989096
126	0x3f384fc9	0.7199674
127	0x3ed2a405	0.41140762
128	0x3ff73045	1.9311606
129	0x3f8184c1	1.0118638
130	0xbfb7dc2b	-1.4364065
131	0xbf909f3f	-1.1298598
132	0xbe0b4ca3	-0.13603453
133	0x3fd1551b	1.6354097
134	0x3f279d12	0.65474045
135	0x3f13750a	0.5760046
136	0x3f921cef	1.141508
137	0x3c9814bd	0.018564576
138	0xbfe7249f	-1.8058051
139	0x3f6ce94b	0.92543477
140	0xbec02d23	-0.37534437
141	0x3f843c34	1.0330873
142	0xbf2fc85f	-0.6866512
143	0x3f230637	0.6368136
144	0xbf790128	-0.9726739
145	0x3f755d7d	0.95845777
146	0x3fcf41f6	1.6192005
147	0x3fb9ad95	1.4506098
148	0x3e89f954	0.26948035
149	0xbe576ccc	-0.21037596
150	0xbf3b98f6	-0.73280275
151	0x3dd59a27	0.10429793
152	0x3eb28f95	0.3487517
153	0x3f77b43e	0.967594
154	0xbeee6eb7	-0.46568844
155	0x3fcd69ff	1.6047972
156	0xc01eba4b	-2.4801204
157	0xbed5c84b	-0.41754374
158	0xbf9904a1	-1.1954538
159	0x3f4ff54f	0.81233686
160	0xbff34554	-1.9005532
161	0x3e6a0ff7	0.22857653
162	0x3ccba5f3	0.024859404
163	0xbeb12063	-0.34595022
164	0x3e92dba8	0.2868321
165	0xbf3b187d	-0.7308424
166	0x3e33041b	0.17482035
167	0xbf8c05dc	-1.0939288
168	0xbfcd1397	-1.6021603
169	0x3fad2bba	1.3528969
170	0x3fa4f84e	1.2888277
171	0x3d5633de	0.05229556
172	0xbfc5ff33	-1.5468506
173	0x3f41b77d	0.75670606
174	0x3f468872	0.7755195
175	0x4001b2c3	2.0265357
176	0x3d12b57d	0.035817612
177	0x3df6f739	0.12058873
178	0xbf4e3ffc	-0.8056638
179	0xbe548f05	-0.20757683
180	0xbf6e9421	-0.93194777
181	0xbfcba4c9	-1.5909663
182	0xbf9167a8	-1.1359758
183	0xbf05c8f4	-0.52259755
184	0xbf04ce54	-0.5187733
185	0xbfc029d3	-1.5012764
186	0xbff69c9d	-1.9266545
187	0x3e02eb6f	0.12785123
188	0x3f82eed3	1.0229133
189	0xbf0e4891	-0.5557948
190	0x3f344b38	0.70427275
191	0x3f35ba6f	0.709876
192	0x3fe31f29	1.7743884
193	0xbf6beabf	-0.9215507
194	0x3f76631e	0.9624499
195	0xbeac8d4e	-0.33701557
196	0xbf967155	-1.1753336
197	0x3eb75342	0.35805708
198	0x3ef52117	0.47876808
199	0x3fad460b	1.3537
200	0x3f06ac01	0.5260621
201	0x40072ba2	2.1120381
202	0xbf055057	-0.52075714
203	0xbf6e97f0	-0.9320059
204	0x3e3d9aef	0.18516134
205	0x3f88cae5	1.0686918
206	0x3fa73c84	1.3065343
207	0x3eeb6f6e	0.45983452
208	0xbf508b63	-0.8146269
209	0xbf82b7f6	-1.021239
210	0xbefd669d	-0.4949235
211	0xbf179dcb	-0.5922515
212	0x3e1e0502	0.15431598
213	0x3ee1ac32	0.44076687
214	0xbe17d9e8	-0.14829218
215	0xc014615f	-2.318443
216	0xbecbc60b	-0.39799532
217	0x3f8a4d62	1.0804865
218	0xbfe3f35d	-1.7808644
219	0x3fc107a3	1.5080456
220	0x3e9e6d6a	0.3094285
221	0xbf001444	-0.5003092
222	0x3f847afc	1.0350032
223	0x3fd8465f	1.6896476
224	0xbb939f1d	-0.0045050518
225	0x3fd55974	1.6667924
226	0x3e1d9d40	0.15392017
227	0xbf87b661	-1.0602533
228	0xbf1299b0	-0.5726576
229	0x3dab25b9	0.083568044
230	0x3eccc065	0.39990535
231	0x3ffe9e57	1.9892071
232	0xbd936e30	-0.07198751
233	0xbf67f5d0	-0.90609455
234	0xc0031e1a	-2.0487123
235	0xbf8a6005	-1.0810553
236	0x3c905e90	0.017623216
237	0x3da034f1	0.07822598
238	0x3e45cb49	0.19315828
239	0x3ed1c0b6	0.4096734
240	0xbf6ddb7a	-0.9291302
241	0x3e8d68e4	0.27619088
242	0xbf09f3b8	-0.5388751
243	0x3eecd798	0.46258235
244	0xbf5f3421	-0.8718892
245	0xbcde272f	-0.027118294
246	0xbeb4dca1	-0.35324576
247	0x3fbb5fab	1.463857
248	0x3fa0b212	1.2554343
249	0xbf370758	-0.7149558
250	0x3f5a9a77	0.85391945
251	0x3f035363	0.51299113
252	0x3f0a2bd0	0.539731
253	0x3f10c4f0	0.565505
254	0x3f017b91	0.5057917
255	0x3e63cae6	0.22245368

word_embeddings_layer.conv1.0.weight f4 [21, 8, 3]
0	0x3ccd0320	0.025025904
1	0xbda38f8a	-0.07986362
2	0xbb757940	-0.0037456304
3	0xbd3fd94c	-0.04683809
4	0x3d022604	0.031774536
5	0x3e07fe64	0.13280636
6	0xbd8aa444	-0.067696124
7	0x3e2765fe	0.163475
8	0x3e250964	0.16116863
9	0xbe206cc4	-0.15666491
10	0xbe2169c4	-0.15763003
11	0xbe291d88	-0.16515172
12	0xbde5190a	-0.111864164
13	0xbda2bc49	-0.07946069
14	0xbc7bbaa0	-0.015364319
15	0xbd4b54c8	-0.0496414
16	0xbdd3379f	-0.10313343
17	0xbd84cf84	-0.06484893
18	0xbd9739d8	-0.0738408
19	0x3e4d0f48	0.2002536
20	0xbd9af0a4	-0.0756543
21	0xbe15a927	-0.14615308
22	0x3dadc7e4	0.08485392
23	0xbc412d10	-0.011790529
24	0x3e200544	0.15627009
25	0x3e029abe	0.12754342
26	0x3e40091c	0.18753475
27	0xbe191480	-0.14949226
28	0x3e065f92	0.13122395
29	0x3e2f6b9a	0.1713089
30	0xbdce71c6	-0.10080294
31	0x3e40213e	0.18762681
32	0x3e1cb156	0.15302023
33	0x3b127fc0	0.0022353977
34	0x3dc98fe0	0.09841895
35	0xbd922872	-0.071366206
36	0xbe364e7d	-0.17803378
37	0x3d5358f8	0.05159852
38	0x3d7942a0	0.060854554
39	0xbe089be4	-0.13340718
40	0x3dcac098	0.099000156
41	0xbe328d63	-0.17436747
42	0x3e33e3ee	0.17567417
43	0x3e4a6a7e	0.19767186
44	0x3d63a218	0.055574507
45	0xbe0325aa	-0.12807336
46	0x3dcb737c	0.09934136
47	0x3d0e7bbc	0.03478597
48	0x3d635968	0.055505186
49	0x3d89646c	0.06708607
50	0x3e1f2414	0.15541106
51	0xbdb3b0f9	-0.08773989
52	0xbd3c132c	-0.04591672
53	0x3d6401e0	0.05566585
54	0x3cb63400	0.022241592
55	0x3e288d34	0.16460115
56	0xbddb92f2	-0.10721387
57	0xbbf394e0	-0.007433519
58	0x3d1c3a00	0.03814125
59	0xbd5e0e98	-0.054213136
60	0x3e0e7e9c	0.13915485
61	0x3cb6e800	0.022327423
62	0xbe412f79	-0.18865766
63	0xbcb52858	-0.022113964
64	0xbdbd9b97	-0.09258192
65	0x3ca27cf8	0.01983498
66	0xbcc255a8	-0.023722485
67	0xbe4f5652	-0.20247772
68	0xbd185b74	-0.03719659
69	0xbca02928	-0.019550875
70	0xbd768bb4	-0.060191825
71	0x3e400bde	0.18754527
72	0xbd366f48	-0.04453972
73	0x3e0647b2	0.13113287
74	0x3d4f1d70	0.050565183
75	0xbe307180	-0.17230797
76	0x3d447858	0.04796633
77	0x3e2d3994	0.16916496
78	0xbe08b8e0	-0.13351774
79	0xbe071b79	-0.13194074
80	0x3e4c9a22	0.19980672
81	0x3e27f3c2	0.1640158
82	0xbde939ba	-0.113879636
83	0x3dfb8ea8	0.12283069
84	0xbcd5ed18	-0.026114032
85	0xbe4e1501	-0.201252
86	0x3c7b4620	0.015336543
87	0x3d871178	0.06595129
88	0xbd7acb88	-0.06122926
89	0x3d916e70	0.071011424
90	0xbe32bc62	-0.17454675
91	0x3e10db3a	0.14146128
92	0x3e32330c	0.17402285
93	0x3de689e0	0.11256766
94	0x3d0db5dc	0.034597263
95	0x3d89aee0	0.06722808
96	0xbe173cfd	-0.14769359
97	0xbd50ead4	-0.0510052
98	0xbc9fa3b0	-0.019487232
99	0xbde8a30f	-0.11359226
100	0xbe1a6380	-0.15077019
101	0x3e0c97b6	0.13729748
102	0x3e0dda42	0.1385279
103	0xbe3dd515	-0.18538316
104	0x3d8506fc	0.06495473
105	0x3daa0fe8	0.08303815
106	0x3e4690bc	0.1939115
107	0x3df1dcb8	0.11809677
108	0x3e4029a2	0.18765882
109	0xbd88dd32	-0.06682815
110	0x3e1265a0	0.1429658
111	0x3e2a050a	0.16603485
112	0xbe4562ec	-0.19276017
113	0xbe27c8c6	-0.16385183
114	0x3d293acc	0.04131584
115	0x3de444e0	0.11145949
116	0xbdcfb0db	-0.101411544
117	0x3cb82a50	0.022481114
118	0xb99b5e00	-0.0002963394
119	0x3d539f18	0.051665395
120	0xbde0a311	-0.109686024
121	0x3debcb5c	0.11513397
122	0x3e0b009a	0.13574448
123	0xbe11084d	-0.14163323
124	0x3b019800	0.0019774437
125	0x3a147800	0.00056636333
126	0x3d863dc0	0.06554747
127	0x3e42b904	0.1901589
128	0x3d753200	0.059862137
129	0xbd3dfa84	-0.04638149
130	0x3e3bbb06	0.18333063
131	0xbd9f1492	-0.07767595
132	0xbd72c714	-0.059271887
133	0x3c645680	0.013936639
134	0xbe1f2c47	-0.15544234
135	0x3cb5f678	0.022212252
136	0xbe0dd12c	-0.13849324
137	0x3cabef68	0.020988181
138	0x3ca03540	0.019556642
139	0x3ce77710	0.028255016
140	0xbe3044ae	-0.17213699
141	0xbe4686e2	-0.19387391
142	0x3dc059b0	0.093921065
143	0x3e3341e4	0.17505604
144	0xbe397b3a	-0.18113413
145	0x3d9ad788	0.075606406
146	0xbe19ddce	-0.15026018
147	0x3c51a9c0	0.012796819
148	0x3e42775e	0.18990847
149	0x3e1e91a8	0.15485251
150	0xbe18d33c	-0.1492433
151	0x3e014bbc	0.12626547
152	0x3dda5a4c	0.10661754
153	0xb9a42800	-0.0003131032
154	0x3e4a7c7e	0.19774053
155	0xbda609a1	-0.08107305
156	0xbd42926c	-0.04750292
157	0xbdd34957	-0.10316723
158	0x3cf09f40	0.029372811
159	0x3d5d62e0	0.054049373
160	0x3c853d70	0.016264647
161	0xbdeb3555	-0.11484782
162	0xbdbc30bf	-0.09188985
163	0x3d8e3310	0.06943333
164	0xbe3746ea	-0.17898145
165	0xbd023560	-0.031789184
166	0xbb942a80	-0.004521668
167	0xbda96093	-0.08270373
168	0x3d982274	0.074284464
169	0x3c578ea0	0.013156563
170	0x3e12bf6c	0.14330834
171	0xbc948260	-0.018128574
172	0xbe03ec2b	-0.1288306
173	0x3e13af88	0.14422429
174	0x3ce984c8	0.028505698
175	0xbd6f7494	-0.058460787
176	0xbe09c48a	-0.1345388
177	0x3d43f888	0.04784444
178	0xbe475b39	-0.19468392
179	0x3d5c3550	0.05376178
180	0x3dceb364	0.1009281
181	0xbe375aee	-0.1790578
182	0xbe08d778	-0.13363445
183	0xbe1645aa	-0.14675012
184	0x3e2faf70	0.17156768
185	0x3e31b1e4	0.17353016
186	0x3c515c40	0.012778342
187	0x3e443b6e	0.19163296
188	0xbd8bc128	-0.06823951
189	0xbe4aec9f	-0.19816826
190	0x3d92057c	0.07129952
191	0x3d9419c4	0.07231477
192	0x3e4cec2e	0.2001197
193	0xb877d000	-5.9083104e-05
194	0x3e2031cc	0.15643996
195	0x3e001fa6	0.12512073
196	0x3e1748d0	0.1477387
197	0xbe4f6b9d	-0.20255895
198	0x3e2c1f2c	0.16808766
199	0xbe322eb0	-0.17400622
200	0x3e3b643c	0.18299955
201	0xbc0a97c0	-0.008459032
202	0xbe393d69	-0.18089832
203	0x3d6882e0	0.056765437
204	0xbd2a2f14	-0.041548803
205	0xbe3bbe42	-0.18334296
206	0xbd978ec8	-0.0740028
207	0x3cac6938	0.021046266
208	0x3e22cc06	0.15898141
209	0xbd808514	-0.06275383
210	0x3df84e5c	0.12124321
211	0x3cd167c0	0.025562167
212	0x3be17680	0.0068805814
213	0x3d1ffb6c	0.039058134
214	0xbe092ce4	-0.1339603
215	0xbe2dbd5a	-0.16966763
216	0xbd835ae0	-0.064138174
217	0xbe42c76f	-0.1902139
218	0xbdc2f4c3	-0.09519341
219	0x3c19dc50	0.0093909055
220	0xbe09aa22	-0.13443807
221	0xbdad6767	-0.08466988
222	0xbd163c08	-0.036678344
223	0xbcc0a430	-0.02351579
224	0xbde6c484	-0.11267951
225	0x3c20b350	0.009808376
226	0xbceab570	-0.02865097
227	0x3d6f1e68	0.058378607
228	0x3c170e80	0.009219766
229	0xbdd0c279	-0.10193343
230	0xbd8fed36	-0.07027666
231	0xbb1a2f80	-0.0023526847
232	0xbe026d68	-0.12737048
233	0x3c82e830	0.015979856
234	0xbc6c21c0	-0.0144123435
235	0x3da23168	0.0791958
236	0x3d45dfd8	0.048309177
237	0x3e1c6df2	0.15276316
238	0xbbdc7f40	-0.0067290366
239	0xbe1a72c2	-0.15082839
240	0x3dbaded4	0.09124532
241	0xbe0d4408	-0.13795483
242	0xbce5d888	-0.028057352
243	0xbd875d50	-0.06609595
244	0xbd9ea016	-0.07745378
245	0xbd9aab9e	-0.07552265
246	0x3e40135e	0.18757388
247	0x3def503c	0.11685225
248	0x3d67b668	0.05657044
249	0x3e44437e	0.19166371
250	0xbe3d6bde	-0.1849818
251	0x3d06eb10	0.032939017
252	0x3e05cfca	0.13067546
253	0x3e0ada1a	0.13559762
254	0xbe265a12	-0.16245297
255	0x3d94c740	0.072645664

word_embeddings_layer.conv1.0.bias f4 [21]
0	0xbe38eb5a	-0.1805853
1	0x3d8e4828	0.069473565
2	0xbe14eb1d	-0.14542814
3	0xbd94fe60	-0.07275081
4	0x3e121d1c	0.14268917
5	0x3e47c336	0.19508061
6	0xbdfafc9e	-0.12255214
7	0xbde8052e	-0.11329113
8	0x3ccf17f0	0.025279969
9	0x3da45610	0.080242276
10	0xbd082d24	-0.033246174
11	0xbd828d42	-0.06374599
12	0xbe094ba7	-0.13407765
13	0x3db2742c	0.08713564
14	0x3e4ccafa	0.19999304
15	0xbdca5e12	-0.09881224
16	0x3dc52d60	0.09627795
17	0x3dcc2bec	0.09969315
18	0x3e28031e	0.16407439
19	0xbcbe6278	-0.023240313
20	0x3bd2ae40	0.0064294636

word_embeddings_layer.convs2.0.0.weight f4 [10, 21, 3]
0	0x3dbd91dc	0.09256336
1	0x3da319b4	0.07963887
2	0x3dfeda14	0.12443939
3	0xbd13e23e	-0.036104433
4	0x3d4c3170	0.049851835
5	0x3db42bfc	0.08797452
6	0xbdaf2690	-0.08552277
7	0x3ccd08e8	0.02502866
8	0xbce6ef20	-0.028190196
9	0x3da5dd2a	0.08098824
10	0xbd67c55e	-0.05658471
11	0x3c10c780	0.008836627
12	0x3d9a60dc	0.07538006
13	0xbdec6143	-0.11541989
14	0xbdd9dd90	-0.10637963
15	0xbd8427d8	-0.06452912
16	0x3da58038	0.080810964
17	0x3dad0318	0.08447856
18	0xbdb038f5	-0.08604614
19	0x3cc4ceb0	0.024024338
20	0xbd88b8cb	-0.066758715
21	0xbd6f865c	-0.058477744
22	0x3dde8630	0.10865438
23	0x3d794170	0.06085342
24	0xbd0d2152	-0.034455605
25	0x3c97ed10	0.018545657
26	0x3cc7f9c0	0.024411082
27	0x3cf1c248	0.029511586
28	0xbd30a1d0	-0.043123066
29	0xbd97f24a	-0.0741926
30	0x3daad404	0.0834122
31	0x3c8aaf70	0.016929358
32	0x3d57fdd4	0.052732304
33	0xbd437148	-0.047715455
34	0x3d79f528	0.061024815
35	0x3dbbc7e4	0.091689855
36	0x3d9cec56	0.07662265
37	0x3d0c4fa4	0.03425564
38	0x3dfddd7a	0.12395759
39	0xb9907600	-0.00027553737
40	0x3cdbbae0	0.026822507
41	0x3df527f4	0.11970511
42	0x3dfac5c2	0.122447506
43	0xbd59e2b8	-0.05319473
44	0x3de86dbc	0.11349055
45	0x3d3e73d8	0.046497196
46	0xbc670f80	-0.014102817
47	0x3de14adc	0.110006064
48	0xbd85a9f1	-0.065265544
49	0x3da7a68a	0.08186062
50	0x3dffafe8	0.12484723
51	0xbdb1f5a4	-0.0868943
52	0xbd98420b	-0.07434472
53	0xbdffadeb	-0.12484344
54	0xbcb9bd00	-0.02267313
55	0xbdea568d	-0.114422895
56	0xbd2cd5ec	-0.0421962
57	0x3d1cab68	0.038249403
58	0x3db66428	0.08905822
59	0x3d8fba72	0.070179835
60	0x3d8f395c	0.06993362
61	0x3d5616e4	0.052267924
62	0xbda008f0	-0.07814205
63	0xbdccde9a	-0.100033954
64	0x3bab2300	0.005222678
65	0x3df503d2	0.11963619
66	0x3be873a0	0.0070938617
67	0xbc318a68	-0.010836221
68	0xbdaf2160	-0.08551288
69	0xbd7fe048	-0.06246975
70	0xbdc6e6b0	-0.09711969
71	0x3dce976a	0.10087474
72	0xbca828ac	-0.020527206
73	0xbde3f0bf	-0.11129903
74	0x3c5d6f70	0.013515338
75	0x3c15cb60	0.009142727
76	0xbc7f0720	-0.015565664
77	0x3d38b9f4	0.045099214
78	0x3d8ac282	0.06775381
79	0xbdf2a5ed	-0.11848054
80	0xbdc5ab7b	-0.09651848
81	0xbbc653b0	-0.006052457
82	0xbdef393a	-0.11680837
83	0xbdea60de	-0.11444257
84	0x3de3cfd6	0.11123626
85	0xbc1d0050	-0.009582594
86	0xbd7f2100	-0.06228733
87	0xbd310354	-0.043216065
88	0xbdc971e8	-0.09836179
89	0x3dc95a56	0.09831683
90	0xbcdfcc5c	-0.027319126
91	0xbd91121c	-0.07083532
92	0xbdc3b043	-0.09555104
93	0x3d96cff4	0.07363883
94	0xbc8eaafc	-0.017415516
95	0xbc58dbb0	-0.013235971
96	0xbd067fc6	-0.032836698
97	0xbd791ba2	-0.06081737
98	0x3cb79988	0.022412077
99	0x3dc6840e	0.09693156
100	0xbd958ba2	-0.073020235
101	0x3bc5cd40	0.0060364306
102	0xbdc43b01	-0.095815666
103	0xbd71f922	-0.059075482
104	0x3de27c48	0.11058861
105	0x3aad2500	0.0013209879
106	0x3df88f28	0.1213668
107	0xbcb4d3cc	-0.022073649
108	0xbd8ca264	-0.06866911
109	0xbd9a2a8a	-0.07527645
110	0x3de4b0b2	0.111665145
111	0xbdc66ab9	-0.096883245
112	0x3d8768ce	0.06611787
113	0x3d0047bc	0.03131841
114	0x3d184a14	0.03718002
115	0x3d91965a	0.071087554
116	0xbd070286	-0.03296139
117	0x3d9fa7dc	0.077956885
118	0xbdcd92c6	-0.100377604
119	0xbd35911c	-0.04432784
120	0x3dbce252	0.09222855
121	0x3d192708	0.03739074
122	0xbc897258	-0.016778156
123	0xbcf1069c	-0.029422097
124	0xbd9d8d94	-0.076930195
125	0x3d9ce6f0	0.07661235
126	0xbb834880	-0.0040064454
127	0xbb8badd0	-0.0042626634
128	0x3cf41570	0.029795378
129	0x3dbe687e	0.09297274
130	0xbd83a3b0	-0.06427705
131	0xbd31b9b6	-0.04339
132	0x3daed84a	0.085373476
133	0x3d91b986	0.07115464
134	0xbd7ddcd2	-0.06197817
135	0xbdff40aa	-0.124635056
136	0x3cbf7720	0.023372233
137	0x3d87b172	0.06625642
138	0x3cf685f8	0.030093178
139	0x3db7051a	0.0893652
140	0xbdccbc33	-0.09996834
141	0x3d821e26	0.063534066
142	0xbda06874	-0.07832423
143	0x3d9137ae	0.07090698
144	0x3dbfe55e	0.0936992
145	0x3d2370c8	0.03990248
146	0x3dd0c2ac	0.10193381
147	0xbdaa13a6	-0.08304529
148	0xbde6c52b	-0.112680756
149	0xbdf81756	-0.12113826
150	0x3da1fed4	0.07909933
151	0x3d34c6cc	0.0441349
152	0xbdbcf135	-0.09225694
153	0x3d79e974	0.061013654
154	0x3deb6c8e	0.114953145
155	0xbdfe6ed8	-0.124234855
156	0x3dbb2d06	0.09139447
157	0x3c9e4ba0	0.01932317
158	0x3c400350	0.01171954
159	0x3de82b02	0.11336328
160	0x3de9a9ec	0.11409363
161	0x3d596fec	0.053085253
162	0x3dcbdfa2	0.09954764
163	0x3d56b038	0.05241415
164	0x3ca82bd0	0.020528704
165	0xbde2ce44	-0.11074498
166	0x3cc0c708	0.023532405
167	0xbdb791ee	-0.08963381
168	0x3d1edfa4	0.0387875
169	0x3cb618b8	0.022228584
170	0x3b397e80	0.002830416
171	0xbdb06af0	-0.08614147
172	0xbd9c69cc	-0.07637367
173	0x3dbeb70e	0.09312259
174	0x3d7b5330	0.06135863
175	0x3d880a56	0.066425964
176	0xbd19c52c	-0.037541553
177	0xbcb1b910	-0.02169469
178	0xbd044060	-0.032287955
179	0x3db170f4	0.08664122
180	0xbd5ec57c	-0.054387555
181	0x3da28524	0.07935551
182	0x3db1e7e0	0.08686805
183	0xbdebfa28	-0.11522323
184	0x3a49af00	0.00076936185
185	0xbcc490ec	-0.023994885
186	0xbd8ea42c	-0.06964907
187	0x3d5ec968	0.054391295
188	0xbc7ac9f0	-0.015306935
189	0x3de1e6e2	0.110303655
190	0xbda17f82	-0.07885648
191	0x3d6fc59c	0.058538064
192	0xbddc4c7d	-0.107567765
193	0xbd8153bc	-0.06314799
194	0x3c0ccdf0	0.008594021
195	0x3dcbdce0	0.09954238
196	0x3d87e7f4	0.066360384
197	0xbdd3dc0b	-0.10344704
198	0x3c64a410	0.013955131
199	0xbd981a35	-0.074268736
200	0x3bb2e1a0	0.0054590255
201	0xbdd6f3e3	-0.104957364
202	0xbd176508	-0.036961585
203	0x3db0f848	0.08641106
204	0xbdecbf01	-0.115598686
205	0xbdf60175	-0.12011997
206	0x3cbbfd80	0.022948027
207	0x3c8d7bf0	0.017271012
208	0xbcbcc158	-0.023041412
209	0x3de14f38	0.11001438
210	0xbd9b5a6e	-0.075856075
211	0xbd9ca420	-0.07648492
212	0xbdc0ddd8	-0.09417313
213	0xbcc0189c	-0.023449235
214	0xbd03b2a6	-0.032152794
215	0x3d9fa6c2	0.077954784
216	0xbbe7cdf0	-0.00707411
217	0x3d24cd38	0.040234774
218	0xbd56726c	-0.052355215
219	0x3dd14e90	0.10220063
220	0x3dd984d4	0.10621038
221	0xbde713fc	-0.112831086
222	0xbd049fbe	-0.032378905
223	0xbddaeeb6	-0.10690062
224	0x3d5b3b18	0.053523153
225	0xbde16e57	-0.11007374
226	0xbd73fe4c	-0.05956869
227	0x3e00e7b6	0.1258839
228	0xbdf6644f	-0.12030851
229	0x3dbe5f00	0.092954636
230	0x3c2e6180	0.010643363
231	0x3dce5322	0.1007445
232	0xbd82f1be	-0.06393765
233	0x3da97a34	0.082752615
234	0x3c790d60	0.015200943
235	0x3c1ec300	0.009690046
236	0x3db01c08	0.085990965
237	0xbdf54232	-0.119755164
238	0xbdcfd358	-0.101477325
239	0x3df9309e	0.12167476
240	0xbd9af13e	-0.075655445
241	0xbdb9fc4a	-0.090813234
242	0xbbc9db10	-0.0061601475
243	0xbd253026	-0.04032912
244	0xbc8d33ec	-0.017236672
245	0xbdacdf47	-0.08441024
246	0x3d3a331c	0.045458898
247	0xbdde0652	-0.10841049
248	0x3c272f50	0.010204151
249	0x3d96912a	0.073519066
250	0x3cc64d78	0.024206862
251	0x3c892260	0.016740024
252	0x3c96f558	0.018427536
253	0xbd172d26	-0.03690829
254	0xbcc49cbc	-0.024000518
255	0xbd599d20	-0.05312836

word_embeddings_layer.convs2.0.0.bias f4 [10]
0	0x3bf0a4a0	0.0073438436
1	0x3ddf9950	0.10917914
2	0x3c8a4a78	0.016881213
3	0xbda33ee6	-0.07970981
4	0xbd39a118	-0.045319647
5	0x3d7c1a70	0.06154865
6	0x3d2108f4	0.03931518
7	0x3b2079c0	0.002448663
8	0xbc883678	-0.016627535
9	0xbd48c838	-0.04901907

word_embeddings_layer.convs2.1.0.weight f4 [10, 21, 4]
0	0xbd1e9ee0	-0.038725734
1	0xbd6bbd28	-0.05755344
2	0x3c927684	0.017878778
3	0x3cfb05bc	0.030642383
4	0x3dab1c13	0.08354964
5	0xbcc9ed10	-0.024649173
6	0x3bfff330	0.0078109726
7	0x3d906aad	0.07051597
8	0x3d4266da	0.04746137
9	0x3c65b0a0	0.014019161
10	0x3d095372	0.033526845
11	0x3bb99490	0.005663462
12	0xbdbfad8f	-0.093592755
13	0x3b89d4c0	0.00420627
14	0xbcc35ed0	-0.023848921
15	0x3dc9a607	0.0984612
16	0x3dc9b261	0.09848476
17	0x3cb1535c	0.021646194
18	0x3dc7b993	0.09752192
19	0xbd662ad0	-0.056193173
20	0x3dc238a7	0.09483462
21	0x3dc0643d	0.09394119
22	0xbb88a6a0	-0.004170254
23	0xbdb35329	-0.08756096
24	0xbd103760	-0.03520906
25	0xbcef0834	-0.029178716
26	0x3aec39c0	0.0018022582
27	0xbdca988b	-0.098923765
28	0x3ca5a5d4	0.020220675
29	0xbd39ddc2	-0.0453775
30	0xbce4dad8	-0.027936384
31	0xbd66d360	-0.056353927
32	0xbcbcb744	-0.023036607
33	0xbdcf8744	-0.10133222
34	0xbd6cefff	-0.057846066
35	0x3c24afb0	0.010051653
36	0x3d926cbd	0.071496464
37	0x3dcb1079	0.09915251
38	0xbda908ac	-0.08253607
39	0x3d3baac6	0.04581716
40	0xbd7bebe2	-0.061504252
41	0xbdacc412	-0.08435835
42	0xbb9d7050	-0.0048046485
43	0xbd802f2e	-0.06258999
44	0xbdc0732d	-0.09396968
45	0xbdd0d3b4	-0.10196629
46	0xbd9591bf	-0.073031895
47	0x3db79efd	0.089658715
48	0x3d793ed6	0.06085094
49	0xbd30e87a	-0.043190457
50	0xbd95902a	-0.07302888
51	0xbdabe41a	-0.08393116
52	0xbd83f47e	-0.064431176
53	0xbd37e71e	-0.044898145
54	0x3d86346b	0.06552967
55	0x3d124116	0.035706602
56	0xbd2c3a0e	-0.042047553
57	0x3d99d561	0.07511402
58	0xbd8ad158	-0.067782104
59	0xbdb60bd4	-0.08888975
60	0x3cc31394	0.023813047
61	0xbd766d3d	-0.06016277
62	0x3cfe45cc	0.031039141
63	0x3dbd51b5	0.092441
64	0xbd5358a5	-0.05159821
65	0xbd9bedfe	-0.07613753
66	0x3d283792	0.04106862
67	0xbdc9d017	-0.09854143
68	0x3dc75c97	0.09734457
69	0xbd530e5e	-0.051527373
70	0x3d58102a	0.05274979
71	0xbdb1af69	-0.08676035
72	0xbd973fea	-0.073852375
73	0x3c44eab8	0.012018852
74	0x3d1ed586	0.03877785
75	0x3dad4419	0.08460254
76	0x3dbae22f	0.09125172
77	0xbbcd9ec0	-0.006275028
78	0xbc65d500	-0.014027834
79	0x3c93c00c	0.018035911
80	0xbccfa060	-0.025345027
81	0x3b736940	0.0037141591
82	0xbdd39f70	-0.10333145
83	0xbdb76f9c	-0.08956835
84	0x3d99201b	0.07476827
85	0xbd8293d6	-0.06375854
86	0x3daff7b9	0.08592171
87	0x3c442eb0	0.011974022
88	0x3cd9b89c	0.026577286
89	0x3dcb17e7	0.099166684
90	0xbd78912f	-0.060685333
91	0xbc8d18bc	-0.017223708
92	0x3c9e5b94	0.019330777
93	0x3d18aee6	0.03727617
94	0xbdd9783f	-0.10618638
95	0x3d1ed716	0.03877934
96	0xbd83c6fc	-0.06434438
97	0x3c6ace88	0.014331467
98	0x3d972db1	0.07381762
99	0xbc321388	-0.010868914
100	0xbb6234e0	-0.003451638
101	0xbc059070	-0.008152112
102	0x3dba782b	0.091049515
103	0x3d7dfe06	0.062009834
104	0x3c96502c	0.018348776
105	0xbd867a8c	-0.06566343
106	0xbd72b053	-0.059250187
107	0x3db1fe87	0.08691125
108	0x3da0c21b	0.07849523
109	0x3d8161fd	0.06317518
110	0xbdae3b59	-0.085074134
111	0x3dae0675	0.08497325
112	0xbc2ae250	-0.010429934
113	0x3da4a1d3	0.08038678
114	0x3dc214f3	0.09476652
115	0x3c43f1f8	0.011959545
116	0xbd39f7b2	-0.045402236
117	0x3dd23179	0.102633424
118	0xbd68e4d7	-0.056858864
119	0x3d920245	0.07129339
120	0xbdd644d7	-0.10462349
121	0xbd0c8f1c	-0.034316167
122	0xbdc2d205	-0.09512714
123	0xbd48792b	-0.04894368
124	0x3d3dc442	0.046329744
125	0xbda01ca3	-0.07817962
126	0xbdc13eb1	-0.094357856
127	0x3d9fc73f	0.07801675
128	0x3d6e91e2	0.058244593
129	0xba9c62c0	-0.0011931285
130	0xbd9d86f0	-0.07691753
131	0xbcecce3c	-0.028906934
132	0xbd10b36a	-0.035327353
133	0x3d8a00f5	0.06738464
134	0xbd122da8	-0.035688072
135	0xbd00b796	-0.03142508
136	0xbd9e65f2	-0.07734288
137	0xbd527d3e	-0.05138897
138	0x3d71fa9e	0.059076898
139	0x3d8ff80b	0.07029732
140	0x3c81dc58	0.015852138
141	0xbd27ae0e	-0.040937476
142	0x3dd6a067	0.10479813
143	0x3cb06c1c	0.021535926
144	0xbd2c817a	-0.042115666
145	0xbd1ae5d8	-0.037816852
146	0xbc7a2e90	-0.01526989
147	0x3d53e10a	0.051728286
148	0x3d23771e	0.03990852
149	0x3da1ff03	0.07909968
150	0xbba11760	-0.0049161166
151	0x3db8d171	0.09024323
152	0xbd35877e	-0.04431867
153	0xbd4dd370	-0.05025047
154	0xbd250af4	-0.04029365
155	0xbdd1a5bb	-0.10236689
156	0xbd92af54	-0.071623474
157	0xbdca32ec	-0.09872994
158	0xbbd34a70	-0.0064480826
159	0x3a86d2c0	0.0010286197
160	0xbce7fbec	-0.028318368
161	0xbd98b4a0	-0.074563265
162	0x3dcabcff	0.098993294
163	0xbd14144e	-0.036152177
164	0x3d54f9f2	0.05199618
165	0x3d9b9dcd	0.075984575
166	0xbd92e3c7	-0.07172351
167	0xbc5f7f18	-0.013641141
168	0x3d812657	0.06306141
169	0x3dd89bb5	0.10576574
170	0xbc6187e0	-0.013765305
171	0x3da1ebb7	0.07906287
172	0xbdaf61e4	-0.08563593
173	0xbd913006	-0.07089238
174	0x3db7c147	0.089724116
175	0xbc2940d0	-0.010330394
176	0x3ddcc1a1	0.10779119
177	0x3c01fe00	0.0079340935
178	0xbd395676	-0.04524847
179	0x3dd43803	0.10362246
180	0x3dc36869	0.09541399
181	0x3c25e760	0.010125965
182	0xbd8775ae	-0.066142425
183	0xbb9acc80	-0.0047240853
184	0xbd56ed3a	-0.05247233
185	0x3da2d3db	0.079505645
186	0x3ba59ea0	0.00505431
187	0x3cbc2b1c	0.022969775
188	0x3d878489	0.06617076
189	0x3d140902	0.036141403
190	0xbd8b7eda	-0.068113044
191	0x3db9a12d	0.09063945
192	0x3d894749	0.0670305
193	0xbd89f26c	-0.067356914
194	0x3da8f47f	0.08249759
195	0x3cfd9474	0.030954577
196	0xbcaff294	-0.021477975
197	0xbd9fce92	-0.07803072
198	0xbc944e28	-0.018103674
199	0xbddb15c9	-0.106975146
200	0x3d7f1436	0.062275134
201	0x3da1d691	0.079022534
202	0xbd00aa22	-0.03141225
203	0x3dcf276b	0.1011494
204	0xbd257cac	-0.0404021
205	0x3c9910bc	0.018684737
206	0xbd9bb97c	-0.07603738
207	0xbb972840	-0.0046129525
208	0x3d34a78a	0.04410509
209	0x3d407fea	0.04699699
210	0xbb6fc6c0	-0.003658697
211	0xbd615c29	-0.05501953
212	0x3d9c311f	0.076265566
213	0x3d93f127	0.072237305
214	0x3c8f70d4	0.017509855
215	0xbd4d85f5	-0.05017658
216	0x3cbd8344	0.023133881
217	0x3998f700	0.0002917573
218	0x3dcc2635	0.09968225
219	0x3c84752c	0.016169153
220	0x3c09e130	0.008415505
221	0x3bf46790	0.0074586347
222	0x3d6dc2a6	0.05804696
223	0xbab0b3c0	-0.0013481304
224	0x3dbf8887	0.093522124
225	0x3d68d5f2	0.05684466
226	0xbda8d946	-0.082445666
227	0xb5a80000	-1.2516975e-06
228	0xbdbdab95	-0.09261242
229	0xbdab921d	-0.08377478
230	0x3cada9c4	0.021199115
231	0x3cc8dbb4	0.024518825
232	0xbc1c70c8	-0.0095483735
233	0x3dd462bd	0.10370395
234	0xbd7015e0	-0.05861461
235	0xbd3b4b30	-0.045726
236	0xbc8f2438	-0.017473325
237	0x3a2d6b00	0.00066153705
238	0xbc176ae0	-0.00924179
239	0x3dc9324d	0.09824047
240	0xbd3cc03c	-0.046081766
241	0xbd69c480	-0.057072163
242	0x3c19a5d8	0.009377919
243	0x3da7d54b	0.08194979
244	0x3cd4273c	0.025897615
245	0x3d70c3de	0.058780544
246	0x3cad07cc	0.021121882
247	0x3dbe72bf	0.0929923
248	0x3d863661	0.06553341
249	0x3d9fe5c3	0.078074954
250	0xbc70c708	-0.01469589
251	0xbdb8ff5c	-0.09033081
252	0xbd53ff8e	-0.051757388
253	0x3d183f86	0.037169956
254	0x3d9cc3a3	0.07654502
255	0xbd2e9c1c	-0.042629346

word_embeddings_layer.convs2.1.0.bias f4 [10]
0	0xbd17d1da	-0.037065364
1	0xbdc17d70	-0.094477534
2	0x3d8c7c45	0.0685964
3	0xbd8cb806	-0.06871037
4	0x3d823cf1	0.0635928
5	0xbd16bc2a	-0.03680054
6	0x3d8bfcdb	0.06835338
7	0x3dbf8189	0.09350879
8	0xbd88aaa1	-0.0667317
9	0x3db8833b	0.09009405

word_embeddings_layer.convs2.2.0.weight f4 [10, 21, 5]
0	0x3b1be0c0	0.0023785084
1	0xbd98aebd	-0.07455204
2	0x3d232c86	0.039837383
3	0x3d625792	0.055259295
4	0x3db02ec9	0.086026736
5	0xbdbe4142	-0.09289791
6	0x3db4784f	0.088120095
7	0x3d9784c3	0.07398369
8	0x3dc49e6d	0.0960053
9	0x3d59dac6	0.053187154
10	0xbd425036	-0.047439776
11	0x3d979e93	0.074032925
12	0x3db6a8cf	0.089189164
13	0xbd18d81e	-0.03731548
14	0xbc82adf8	-0.015952095
15	0x3d9c6679	0.076367326
16	0x3da0e327	0.07855826
17	0x3d840717	0.06446665
18	0x3d991f5d	0.07476685
19	0xbd4d6b7f	-0.050151344
20	0xbc89eb1c	-0.016835742
21	0xbd1fb1f4	-0.03898807
22	0x3d4fc112	0.050721236
23	0x3cc73c14	0.02432064
24	0xbd9a62c5	-0.0753837
25	0xbc48d7a0	-0.01225844
26	0xbda2fafa	-0.07958026
27	0xbdbc187f	-0.0918436
28	0x3db633af	0.088965766
29	0xbd491269	-0.049089823
30	0x3d32692a	0.043557324
31	0xbcb205a0	-0.021731198
32	0xbca1e3b8	-0.019761905
33	0xb8843000	-6.303191e-05
34	0x3d9be135	0.07611314
35	0xbc5d3000	-0.013500214
36	0x3da56181	0.08075238
37	0x3d69e266	0.057100676
38	0x3d891bd1	0.06694759
39	0xbdb543d9	-0.088508315
40	0xbd3ae948	-0.04563263
41	0xbda2d597	-0.07950895
42	0xbca9cbb0	-0.020727009
43	0xbca595d0	-0.020213038
44	0x3ca273e8	0.019830659
45	0x3db31295	0.087437786
46	0x3d3370b2	0.043808647
47	0xbd8b13be	-0.06790875
48	0xbd7aafec	-0.06120293
49	0x3d96eb2d	0.07369075
50	0x3c1f2998	0.009714507
51	0x3ce1d9bc	0.027569644
52	0xbd51127c	-0.05104302
53	0xbc42fc80	-0.011901021
54	0x3ce39c04	0.027784355
55	0xbd8327f2	-0.06404103
56	0x3d827199	0.06369323
57	0x3d4733d2	0.048633404
58	0xbd691c53	-0.056911778
59	0xbd23ebcd	-0.0400198
60	0xbcbbf404	-0.022943504
61	0x3c78d540	0.0151875615
62	0xbd12a0e3	-0.035797965
63	0x3dbf31c7	0.09335666
64	0xbdc082dd	-0.0939996
65	0xbd61ed2b	-0.05515782
66	0xbd72a071	-0.05923504
67	0x3cd82858	0.026386425
68	0x3c62e5a8	0.0138487
69	0xbce3cf6c	-0.027808867
70	0x3daa9369	0.083288975
71	0xbdac8894	-0.08424488
72	0x3d0ce26a	0.034395613
73	0xbd5bf38b	-0.053699058
74	0xbcb60b14	-0.02222208
75	0xbdc0782d	-0.09397922
76	0xbd95333c	-0.07285163
77	0xbda99322	-0.082800165
78	0x3d2e6426	0.042575978
79	0xbd1619c9	-0.036645684
80	0x3d51192e	0.051049404
81	0xbd58a1ed	-0.0528888
82	0xbcc613c4	-0.024179347
83	0x3c418b38	0.0118129775
84	0x3da778a3	0.081773065
85	0xbcd776f4	-0.026301838
86	0x3d67bb3e	0.056575052
87	0x3cdc8c3c	0.026922338
88	0x3d731db2	0.05935449
89	0x3d7c830e	0.06164842
90	0x3d22375e	0.039603584
91	0xbcf11300	-0.029428005
92	0xbce06180	-0.027390242
93	0x3d1b9d6a	0.03799192
94	0x3d59de7e	0.0531907
95	0xbbaaade0	-0.005208716
96	0x3d485fca	0.048919477
97	0xbd707c02	-0.058712013
98	0x3d614f72	0.055007406
99	0xbc4435e8	-0.011975743
100	0xbd898a80	-0.0671587
101	0xbd4238c7	-0.04741743
102	0xbd98a2d3	-0.07452931
103	0x3ca143b4	0.019685604
104	0xbd6d1039	-0.0578768
105	0xbce4ef74	-0.027946211
106	0xbbc85c20	-0.006114498
107	0xbd73e613	-0.059545588
108	0x3b2439c0	0.0025058836
109	0xbc4aec20	-0.012385398
110	0x3cfd38c4	0.030910857
111	0x3d90622d	0.070499755
112	0xbd714dcb	-0.05891208
113	0x3d5a8cd6	0.053356968
114	0xbb078100	-0.0020676255
115	0xbd647785	-0.055778045
116	0xbd354851	-0.04425842
117	0x3ccb7e04	0.024840362
118	0x3ca67530	0.020319551
119	0xbb4e94c0	-0.0031521767
120	0xbd4700cd	-0.048584748
121	0x3d4994da	0.04921422
122	0x3c6d3b78	0.0144795105
123	0xbdc24b58	-0.09487027
124	0xbc8d4914	-0.01724676
125	0xbcd8e71c	-0.026477389
126	0xbd2a916b	-0.041642588
127	0xbd5dba85	-0.054132957
128	0xbda22475	-0.0791711
129	0x3dc4d8e1	0.09611679
130	0xbdb68f1b	-0.08914014
131	0x3db9ca13	0.09071746
132	0xbd9d1d37	-0.07671588
133	0xbcc1f65c	-0.023677044
134	0xbd23c169	-0.039979372
135	0xbd55f46a	-0.052235045
136	0x3d0e1e22	0.034696706
137	0x3d67ae3e	0.056562655
138	0xbd834a8e	-0.064107046
139	0xbd3a2c69	-0.04545251
140	0x3d4c0846	0.049812578
141	0xbc414540	-0.011796296
142	0x3cc2b500	0.023767948
143	0x3d50ffce	0.051025204
144	0xbd13c09b	-0.036072355
145	0xbd5dd6c9	-0.054159913
146	0x3d13238e	0.03592258
147	0xbd1260f1	-0.03573698
148	0xbd8509ba	-0.06495996
149	0xbd49a120	-0.049225926
150	0xbd39dc21	-0.045375947
151	0x3dc70233	0.09717216
152	0x3c99c118	0.018768832
153	0x3d2c26f6	0.042029344
154	0x3c56c620	0.01310876
155	0xbd86bcdf	-0.06578993
156	0x3d903acd	0.07042465
157	0xbc788ca0	-0.015170246
158	0xbccf0114	-0.025269069
159	0x3da2e17b	0.07953163
160	0xbd4ba043	-0.049713384
161	0x3ca25624	0.019816466
162	0xbdaa0574	-0.08301821
163	0x3d4cd482	0.05000735
164	0x3d1ec6d6	0.038763843
165	0xbda45902	-0.080247894
166	0x3d5f1a76	0.054468594
167	0x3c2ff598	0.010739706
168	0xbd4e67e7	-0.050392058
169	0x3daa6939	0.08320851
170	0x3d2bac3e	0.04191231
171	0x3d0c789e	0.034294717
172	0xbd14782f	-0.03624743
173	0xbd5b2dec	-0.05351059
174	0xbd57157a	-0.052510716
175	0x3d162dee	0.036664896
176	0x3cd75ce4	0.02628941
177	0xbd6f3c99	-0.0584074
178	0x3db5ddf1	0.088802226
179	0x3d68e38e	0.056857638
180	0xbd189e96	-0.037260614
181	0x3d4ecfb2	0.050491042
182	0xbd2971bf	-0.041368242
183	0x3cfae454	0.030626453
184	0x3da65a89	0.08122737
185	0xbdb0c951	-0.08632148
186	0xbd46bf77	-0.04852244
187	0xbbb4ba40	-0.005515367
188	0x3c6e7068	0.014553167
189	0xbda45cfb	-0.08025547
190	0xbd837db7	-0.064204626
191	0xbc192448	-0.009347029
192	0xbc668738	-0.014070325
193	0x3cac7048	0.021049634
194	0x3c4b2bb8	0.01240056
195	0x3ca40098	0.020019814
196	0x3bd3fec0	0.0064695776
197	0x3c37c658	0.011216722
198	0xbbb89320	-0.005632773
199	0x3d0f8d36	0.03504678
200	0x3d88681d	0.06660483
201	0xbd477c15	-0.04870232
202	0xbd4f1477	-0.050556626
203	0x3d2f726e	0.042833738
204	0xbd908754	-0.07057062
205	0x3d81e229	0.06341965
206	0x3d38aa86	0.0450845
207	0x3c674110	0.014114633
208	0xbd2d89dd	-0.042367805
209	0x3b3fc700	0.00292629
210	0xbd9e0602	-0.0771599
211	0xbdb3d075	-0.087799944
212	0x3dbc3685	0.09190086
213	0xbdb3437a	-0.087531045
214	0xbda5d696	-0.0809757
215	0xbd1b4605	-0.037908573
216	0x3bb394e0	0.005480394
217	0x3cb71a5c	0.022351436
218	0xbd44fab2	-0.048090644
219	0xbc1b2828	-0.009470023
220	0xbcb286d0	-0.0217928
221	0x3da73b49	0.081656046
222	0x3dad7919	0.08470363
223	0x3d244ac6	0.040110372
224	0xba1db180	-0.0006015524
225	0x3d95e28d	0.07318602
226	0xbda15e0a	-0.07879265
227	0x3d270376	0.040774785
228	0xbd68586d	-0.056724954
229	0x3d9bddd3	0.07610669
230	0xbdb0ad79	-0.08626837
231	0x3d148532	0.036259837
232	0xbda4533e	-0.0802369
233	0x3d694d0a	0.056958236
234	0x3c922e34	0.017844297
235	0x3dab7dc9	0.08373601
236	0xbd96bdbc	-0.07360408
237	0x3d80a26f	0.06280982
238	0xbd8561d4	-0.065128
239	0xbd57c481	-0.052677635
240	0x3d180a1e	0.037119024
241	0xbc869138	-0.016426668
242	0xbd9dccad	-0.077050544
243	0xbdaa1132	-0.08304061
244	0xbccf8f24	-0.02533681
245	0x3cdd5a28	0.027020529
246	0x3daf8d41	0.08571864
247	0x3d92fdd7	0.07177322
248	0x3ad1a200	0.0015993714
249	0xbd7530ee	-0.059861116
250	0xbdb2309a	-0.08700676
251	0x3db28f21	0.08718706
252	0xbd5eddda	-0.054410793
253	0xbc8c9a40	-0.017163396
254	0xbda14605	-0.07874683
255	0xbd8a25ff	-0.067455284

word_embeddings_layer.convs2.2.0.bias f4 [10]
0	0xbcfae7b0	-0.030628055
1	0x3dc2e023	0.09515407
2	0x3cebd75c	0.028789215
3	0xbb9a7b00	-0.00471437
4	0x3d1896f2	0.037253328
5	0xbb46e2e0	-0.003034763
6	0xbd464248	-0.048403054
7	0x3d5aa7be	0.053382628
8	0x3d81a2cf	0.063298814
9	0xbc484f58	-0.012225948

word_embeddings_layer.linear.0.weight f4 [30, 30]
0	0x3e2fdabe	0.17173287
1	0x3c3df700	0.011594534
2	0xbdc5beb8	-0.09655517
3	0xbdcbc357	-0.099493675
4	0x3dfb9430	0.12284124
5	0xbd977790	-0.073958516
6	0x3dec2a60	0.1153152
7	0xbe359b9a	-0.17735139
8	0x3bce1520	0.0062891394
9	0xbe012d29	-0.12614883
10	0x3d84a2a2	0.06476332
11	0x3e17d4c6	0.1482726
12	0x3d932388	0.071845114
13	0xbd808f96	-0.06277387
14	0xbe2f62a9	-0.1712748
15	0xbdb128d8	-0.086503685
16	0xbddc8a1f	-0.10768532
17	0x3e32870a	0.17434326
18	0xbdc909e5	-0.0981634
19	0x3d909308	0.07059294
20	0x3e1614f4	0.1465643
21	0x3d86cd4c	0.06582126
22	0xbe240e0f	-0.16020988
23	0xbca9e640	-0.020739675
24	0xbd5df3e4	-0.05418767
25	0x3df0ea80	0.11763477
26	0xbc8c4c38	-0.017126188
27	0xbc1dc640	-0.009629786
28	0x3e264f86	0.16241273
29	0x3d31f424	0.04344572
30	0x3dad541c	0.08463308
31	0xbd70bb3c	-0.05877231
32	0x3df48754	0.11939874
33	0x3cd70bb8	0.026250705
34	0xbd1637c8	-0.03667429
35	0x3d101d98	0.035184473
36	0xbe132952	-0.14371231
37	0x3bdbfae0	0.0067132562
38	0x3dab7b1c	0.083730906
39	0xbe2f101c	-0.17095989
40	0xbdc69d53	-0.09697976
41	0x3dea438c	0.11438665
42	0x3b87ac60	0.0041404217
43	0xbbcbc7e0	-0.0062188953
44	0x3c98a108	0.018631473
45	0xbda7d1ab	-0.08194288
46	0x3e1a9920	0.15097475
47	0xbc944c28	-0.01810272
48	0xbd882520	-0.06647706
49	0x3dc4d2c8	0.09610516
50	0xbe1b9cc6	-0.15196523
51	0xbd09f050	-0.033676445
52	0x3c96be70	0.018401355
53	0xbd6814dc	-0.056660518
54	0x3dcb80d4	0.099366814
55	0xbe1fa905	-0.1559182
56	0xbd5797c4	-0.05263497
57	0xbd9d2786	-0.07673554
58	0x3e2cff1e	0.16894194
59	0x3d953904	0.072862655
60	0xbe0b7653	-0.13619356
61	0x3d90ea40	0.0707593
62	0xbb7dbf40	-0.003871873
63	0x3e2b24f6	0.16713318
64	0x3dce5944	0.1007562
65	0xbdda5ffa	-0.10662837
66	0x3e26a690	0.16274476
67	0xbd05c098	-0.032654375
68	0xbd2a495c	-0.041573867
69	0x3d5f9ebc	0.05459474
70	0x3e39be26	0.18138942
71	0x3d61a3e0	0.055087924
72	0xbe346312	-0.17615917
73	0xbd6eb960	-0.058282256
74	0x3e2e1746	0.17001066
75	0xbd83c94d	-0.064348795
76	0xbdb3e319	-0.0878355
77	0xbe150528	-0.14552748
78	0xbdce6783	-0.10078337
79	0xbdcc6f3e	-0.09982155
80	0x3d3299bc	0.043603644
81	0x3d956328	0.07294303
82	0x3e326d16	0.17424425
83	0x3df562f8	0.119817674
84	0x3b30cc40	0.0026977211
85	0x3dc9a630	0.09846151
86	0x3dd5b928	0.104357064
87	0xbe214113	-0.1574748
88	0x3dbcac94	0.09212604
89	0xbdffc7ec	-0.12489304
90	0x3e105edc	0.14098686
91	0xbda2a168	-0.07940942
92	0x3d1b2a14	0.037881926
93	0xbafea100	-0.0019426644
94	0x3dad7954	0.08470407
95	0x3ce8a228	0.028397635
96	0xbe079dee	-0.13243839
97	0x3d9777e0	0.07395911
98	0x3ddc91bc	0.10769984
99	0xbdc2b852	-0.095078126
100	0xbdf28f25	-0.11843709
101	0xbdfe9c06	-0.12432103
102	0xbdb5edc9	-0.088832445
103	0xbcbc90b8	-0.023018226
104	0x3c5fa910	0.0136511475
105	0xbaa8c880	-0.0012877136
106	0xbd45ca94	-0.048288897
107	0x3de808bc	0.11329791
108	0x3c1e1500	0.0096485615
109	0xbdd91ce9	-0.10601217
110	0xbd45e95c	-0.048318252
111	0xbddbd5fa	-0.10734172
112	0xbd83e940	-0.06440973
113	0xbe305b3f	-0.17222308
114	0x3d02aae0	0.03190124
115	0xbe10dc40	-0.14146519
116	0x3d909dc0	0.070613384
117	0x3e001280	0.12507057
118	0xbe0b14ea	-0.13582197
119	0xbdc55338	-0.09635013
120	0xbe13b883	-0.14425854
121	0x3d47927c	0.048723683
122	0x3d10b340	0.035327196
123	0xbdc0fe66	-0.09423523
124	0x3de1df7c	0.110289544
125	0x3d9b2750	0.07575858
126	0xbe28ec02	-0.1649628
127	0xbc22b620	-0.009931117
128	0xbda0f710	-0.078596234
129	0xbd01aa50	-0.031656563
130	0x3dd03228	0.101658165
131	0xbca0df50	-0.019637734
132	0xbe01d7ee	-0.12680027
133	0x3e0382e4	0.128429
134	0xbe2ae2e4	-0.16688114
135	0xbd8069e8	-0.062702
136	0x3d9012c4	0.07034829
137	0x3e253f92	0.16137531
138	0x3e3572e0	0.17719603
139	0xbd2fadd0	-0.04289037
140	0x3d798bd8	0.06092438
141	0xbe2430cb	-0.16034238
142	0xbd118304	-0.035525337
143	0xbd689d90	-0.05679089
144	0x3d5449a0	0.051828027
145	0xbdf4fcf0	-0.119623065
146	0x3d2190b8	0.039444655
147	0x3dc12d0c	0.0943242
148	0x3e11b420	0.14228868
149	0xbcfce538	-0.030871019
150	0x3e2acddc	0.16680092
151	0xbe30a31a	-0.17249718
152	0xbd53e9fc	-0.051736817
153	0x3d8dc16c	0.06921658
154	0x3d3fc308	0.046816856
155	0x3db016d4	0.08598104
156	0xbdf81e61	-0.12115169
157	0x3de63acc	0.11241683
158	0xbe2f7678	-0.17135036
159	0xbe00310f	-0.12518714
160	0xbc4b6ec0	-0.012416542
161	0xbe35a107	-0.17737208
162	0xbe31b500	-0.17354202
163	0xbe25f786	-0.16207704
164	0x3e164f7e	0.14678761
165	0x3d2409f4	0.040048555
166	0xbd6e9bf0	-0.058254182
167	0xbbf5e0a0	-0.007503584
168	0xbe22f44d	-0.15913506
169	0xbe309218	-0.1724323
170	0xbe026112	-0.12732342
171	0xbe34de4f	-0.17662929
172	0x3df60058	0.12011784
173	0xbd82d7e7	-0.06388836
174	0xbd49dee8	-0.049284846
175	0xbe20ff0e	-0.15722296
176	0x3cf7b5f0	0.030238122
177	0xbce065f8	-0.027392372
178	0xbdfe8dfc	-0.12429425
179	0x3defbcd4	0.11705938
180	0x3e1d9646	0.15389356
181	0xbe054224	-0.13013512
182	0x3dd3d9e4	0.10344294
183	0xbcf2dbd0	-0.02964583
184	0xbae1ed80	-0.0017236918
185	0x3d9f27b4	0.07771245
186	0xbd085770	-0.033286512
187	0x3e1ed88c	0.15512294
188	0x3de60e24	0.11233166
189	0xbdf2b7d9	-0.118514724
190	0xbde38c7c	-0.1111078
191	0xbe393c69	-0.18089451
192	0x3d6f6d84	0.05845405
193	0xbe0ca035	-0.13732989
194	0xbe1cb3db	-0.15302984
195	0xbdefaa4e	-0.11702405
196	0xbe38d68d	-0.18050595
197	0xbe183a44	-0.14865977
198	0x3e26c216	0.16284975
199	0x3dd0dc9c	0.10198328
200	0x3e25a5da	0.16176549
201	0xbdb560aa	-0.08856328
202	0xbd995c4c	-0.07488307
203	0xbd833195	-0.064059414
204	0x3b69afc0	0.0035657734
205	0xbe0630c7	-0.13104545
206	0x3cdb43d8	0.026765749
207	0xbdefa3c4	-0.11701158
208	0x3cec57a8	0.028850392
209	0x3e2b404e	0.16723749
210	0x3cfc9d10	0.030836612
211	0x3e085fba	0.13317767
212	0xbe0526d8	-0.13003099
213	0xbcd31248	-0.025765553
214	0xbde6e1f0	-0.11273563
215	0xbca5f000	-0.020256042
216	0xbd94bdb2	-0.07262744
217	0xbdd44d87	-0.1036635
218	0xbe34969e	-0.17635581
219	0xbd8aa4d5	-0.067697205
220	0x3cc84b78	0.024450049
221	0xbd038ebc	-0.032118544
222	0xbe2e1eda	-0.17003956
223	0x3e0c6ff2	0.13714579
224	0x3e0aa01a	0.13537636
225	0xbde16e95	-0.1100742
226	0x3c980a58	0.01855962
227	0x3df847e8	0.1212309
228	0xbe318adb	-0.17338125
229	0xbe2531be	-0.16132256
230	0x3dcf7884	0.101304084
231	0xbb6cfc00	-0.0036160946
232	0x3d6e22b4	0.058138564
233	0xbd9b7e3d	-0.075924374
234	0x3d07969c	0.033102617
235	0x3df7fe60	0.12109065
236	0xbd36f408	-0.04466632
237	0xbd718d1a	-0.058972456
238	0xbe320476	-0.17384514
239	0xbce6ca78	-0.028172716
240	0x3decef64	0.11569098
241	0xbe30afae	-0.17254516
242	0xbc671150	-0.014103249
243	0x3e084758	0.13308465
244	0xbd5570a0	-0.05210936
245	0xbd8a260c	-0.06745538
246	0xbd619140	-0.05507016
247	0xbd977e3a	-0.07397123
248	0x3cb30228	0.021851614
249	0xbe34007f	-0.17578314
250	0x3d8ee2b8	0.06976837
251	0xbd3cde08	-0.046110183
252	0xbcbe6c70	-0.023245066
253	0xbc49d1f0	-0.012318119
254	0x3dd0e150	0.10199225
255	0xbde842c6	-0.11340861

word_embeddings_layer.linear.0.bias f4 [30]
0	0xbc6c26b0	-0.014413521
1	0xbc414520	-0.011796266
2	0xbe1a2339	-0.15052499
3	0xba9cc900	-0.0011961758
4	0xbdae8866	-0.0852211
5	0x3dd87d04	0.1057072
6	0x3e22a3da	0.15882817
7	0xbe2e6ab9	-0.17032899
8	0xbdd8934b	-0.10574969
9	0x3e33feda	0.17577687
10	0xbd9f980d	-0.07792673
11	0x3e26444a	0.16236988
12	0x3e3811f8	0.17975605
13	0xbd3b8b78	-0.045787305
14	0xbe1756dd	-0.1477923
15	0x3dbaf68c	0.09129056
16	0x3da9f860	0.08299327
17	0x3e2277f0	0.15866065
18	0x3cd80450	0.026369244
19	0x3dcb5090	0.099274755
20	0xbe204dac	-0.1565463
21	0x3cce1fb8	0.025161609
22	0x3d300194	0.042970255
23	0x3dea5a24	0.11442974
24	0xbdc827a6	-0.09773187
25	0xbcb2bc80	-0.0218184
26	0xbddee04b	-0.10882624
27	0xbdfba5b0	-0.12287462
28	0x3d9ba7f0	0.07600391
29	0x3ce41250	0.027840763

bilstm.weight_ih_l0 f4 [8, 30]
0	0x3e8fdac2	0.28096586
1	0xbc83e780	-0.016101599
2	0xbc8e4ce0	-0.017370641
3	0xbcde6ae0	-0.027150571
4	0x3ec38f46	0.38195246
5	0xbefa8274	-0.48927653
6	0x3e1c15dc	0.15242714
7	0x3ec6849e	0.38773054
8	0x3ed1fa9e	0.41011518
9	0xbeadbc1f	-0.33932588
10	0x3f0c2d9f	0.5475711
11	0xbef148f2	-0.47125965
12	0x3ebcc7e6	0.3687126
13	0x3f1412fd	0.57841474
14	0x3cb9dd40	0.022688508
15	0x3e5dd3fc	0.21662897
16	0xbf2b7bc0	-0.669857
17	0xbe8f3536	-0.27970284
18	0xbe8e3df7	-0.2778165
19	0xbf288904	-0.6583407
20	0xbe195544	-0.14973933
21	0x3efcbf06	0.4936449
22	0xbd8a4488	-0.067513525
23	0x3f32e115	0.698747
24	0xbf22f2f6	-0.6365198
25	0x3e9062f0	0.28200483
26	0x3f1c8781	0.6114426
27	0x3f2ff17d	0.68727857
28	0xbe8c70ab	-0.2742971
29	0xbf2371dc	-0.6384561
30	0xbe85109d	-0.25989237
31	0x3f0630ef	0.52418417
32	0x3d7dc3f0	0.06195444
33	0x3f2d04af	0.6758527
34	0xbf042d27	-0.51631397
35	0xbee2b3be	-0.44277757
36	0x3eb881ca	0.3603652
37	0x3e784568	0.24245226
38	0xbeeb35b0	-0.45939398
39	0x3f2867bf	0.65783304
40	0xbe8b9ff3	-0.2727047
41	0xbf1671ee	-0.5876759
42	0x3e4939f8	0.1965102
43	0xbecad38f	-0.3961453
44	0xbeac4952	-0.3364969
45	0xbeca3f93	-0.39501628
46	0x3e44f0e4	0.19232517
47	0x3ea99ce2	0.33127505
48	0x3ef37ea6	0.47557563
49	0xbeccdda2	-0.40012842
50	0xbe293988	-0.16525853
51	0x3f28f7af	0.66002935
52	0xbeb9fa05	-0.36323562
53	0xbe82dd26	-0.25559348
54	0xbe0b3abc	-0.13596624
55	0xbf204a0c	-0.62612987
56	0xbf05cbcc	-0.52264094
57	0x3f2144b1	0.6299544
58	0x3e05a900	0.1305275
59	0x3e0749b8	0.13211715
60	0x3e8f85e0	0.28031826
61	0x3edc2c4e	0.43002552
62	0x3ef32fa6	0.4749729
63	0x3f01a715	0.5064557
64	0x3e921f8a	0.28539687
65	0x3f0876ed	0.53306466
66	0x3eec8c2a	0.46200687
67	0xbdf22588	-0.11823565
68	0x3d8271a8	0.063693345
69	0xbebda42f	-0.37039325
70	0xbf0835f0	-0.532073
71	0x3f2bb18b	0.67067784
72	0xbf06cc72	-0.5265571
73	0xbee255d8	-0.4420612
74	0xbf2edb18	-0.6830306
75	0xbf0aa96b	-0.5416476
76	0x3e249818	0.16073644
77	0x3eadc5be	0.33939928
78	0xbf16e2a8	-0.589396
79	0x3d667ac0	0.056269407
80	0xbf05a35c	-0.5220239
81	0x3e091764	0.13387829
82	0x3ed83f16	0.4223563
83	0xbe8ae80c	-0.27130163
84	0xbe9ef17f	-0.31043622
85	0x3eebd04e	0.4605736
86	0xbee9529d	-0.4557084
87	0xbe13fb98	-0.14451444
88	0xbf16b6e9	-0.5887285
89	0x3efdb16e	0.4954943
90	0x3e66f050	0.2255261
91	0xbe8fd370	-0.28091002
92	0x3f00d1bd	0.50320035
93	0x3f2b657f	0.66951746
94	0x3e93c722	0.28862864
95	0xbeffaa50	-0.49934626
96	0xbe1de33c	-0.15418714
97	0x3f119c9b	0.56879586
98	0x3f038cdd	0.51386815
99	0xbe6e0c62	-0.23246911
100	0x3eef9262	0.4679137
101	0xbeecd50f	-0.462563
102	0x3e423b80	0.1896801
103	0x3f1f91d1	0.62331873
104	0x3e036b90	0.12834
105	0xbf0fd724	-0.56187654
106	0x3e592b8c	0.21208018
107	0x3ec9c52e	0.3940825
108	0x3efbca1a	0.4917763
109	0xbeee263d	-0.46513548
110	0xbe01f9fc	-0.12693018
111	0xbd16bd90	-0.036801875
112	0xbdfd3048	-0.123627245
113	0xbe20b1c4	-0.15692812
114	0xbe827392	-0.25478798
115	0x3e795d24	0.24351937
116	0x3eac0a96	0.33601826
117	0xbe0ca328	-0.13734114
118	0x3f0e3fad	0.5556591
119	0xbb790900	-0.003799975
120	0x3e308338	0.17237556
121	0x3e3536d4	0.17696697
122	0xbe768a24	-0.24076134
123	0xbcfe4900	-0.031040668
124	0xbda1bbd0	-0.078971505
125	0x3e88ea34	0.26741183
126	0xbec28109	-0.3798907
127	0xbea63109	-0.32459286
128	0xbf2ebad3	-0.6825382
129	0xbe9d7e6f	-0.30760524
130	0x3e66cbd4	0.22538692
131	0x3f12508f	0.5715417
132	0xbf3275e0	-0.6971111
133	0xbe823e4e	-0.2543816
134	0x3ee3c662	0.44487292
135	0xbec3c815	-0.38238588
136	0x3ef47136	0.47742623
137	0x3ce9c600	0.028536797
138	0xbf2a3208	-0.6648259
139	0x3df4dd88	0.11956316
140	0xbed9015b	-0.42383847
141	0x3e0cba68	0.13742983
142	0xbf2231f9	-0.633575
143	0x3f2a18d3	0.6644413
144	0xbe9a7829	-0.301698
145	0x3ee78b6a	0.45223552
146	0xbee3c94b	-0.44489512
147	0xbf17b674	-0.59262776
148	0x3e8e701a	0.27819902
149	0x3ed9a84e	0.4251122
150	0xbbd06800	-0.006360054
151	0xbf1916cd	-0.59800416
152	0xbe469db0	-0.1939609
153	0xbefae24a	-0.4900077
154	0x3e4d1b84	0.20030028
155	0x3dea7d70	0.114497066
156	0x3efb96b2	0.4913841
157	0x3f34b283	0.7058489
158	0xbea75c4e	-0.3268761
159	0x3f0f051f	0.5586719
160	0x3efb8832	0.49127346
161	0x3dde9af0	0.10869396
162	0xbf317a8f	-0.69327635
163	0xbefb19fe	-0.49043268
164	0x3e9dc06a	0.30810863
165	0x3f0682ff	0.52543634
166	0x3ec17bf2	0.37789875
167	0x3d887de8	0.0666464
168	0xbedc2c4f	-0.43002555
169	0xbf1f101c	-0.62133956
170	0xbecee48d	-0.40408745
171	0x3baca700	0.0052689314
172	0x3dbee1f0	0.09320438
173	0x3f0aa363	0.5415556
174	0xbf028f1e	-0.5099963
175	0x3ebd5a16	0.36982793
176	0x3f1957cf	0.5989961
177	0xbf239d45	-0.6391185
178	0xbec0e739	-0.3767641
179	0xbe4a136c	-0.19733971
180	0x3e0aecac	0.13566846
181	0x3f2225c3	0.6333887
182	0x3e13c528	0.14430678
183	0x3ef4f626	0.47844046
184	0x3f1277d3	0.5721409
185	0x3f0e1bfd	0.55511457
186	0xbf25184a	-0.6449019
187	0xbeec881e	-0.461976
188	0xbd3d5f10	-0.046233237
189	0xbb291900	-0.0025802255
190	0x3d7429e0	0.059610248
191	0x3f18128f	0.5940332
192	0x3f23f481	0.6404496
193	0xbe53d9ec	-0.206886
194	0xbea75e92	-0.3268934
195	0x3d6a9730	0.05727309
196	0x3db73be0	0.08946967
197	0x3edf46ba	0.43608648
198	0x3e809f66	0.2512161
199	0x3e61a180	0.22034264
200	0x3e6db574	0.2321375
201	0x3f06c62f	0.52646154
202	0x3ed79dbe	0.42112535
203	0xbd8e7148	-0.069552004
204	0xbefc9f47	-0.4934027
205	0x3ef41f02	0.47679907
206	0xbd6c2200	-0.057649612
207	0xbf01af38	-0.5065799
208	0xbdf15780	-0.117842674
209	0x3f0531a7	0.5202889
210	0xbea66a4d	-0.32502976
211	0xbd8ba2c8	-0.068181574
212	0x3e7444e0	0.23854399
213	0x3f022ab9	0.5084644
214	0xbdd8bcc8	-0.10582882
215	0xbf020633	-0.5079071
216	0xbe9757ea	-0.2955926
217	0xbe69ba3a	-0.22824946
218	0x3d9dfaa8	0.077138245
219	0xbef5d272	-0.4801212
220	0x3f1f8023	0.62304896
221	0x3e3ee4cc	0.18641967
222	0xbf0266a5	-0.50937873
223	0x3ec5b5a6	0.3861515
224	0x3d1229a0	0.035684228
225	0x3f311c6b	0.6918399
226	0xbc68ce80	-0.01420939
227	0xbc18c7c0	-0.009324968
228	0xbf2eb4af	-0.6824445
229	0xbf15852c	-0.5840633
230	0x3b220f00	0.002472818
231	0x3f199ea1	0.60007674
232	0xbedfe2a6	-0.43727607
233	0x3e0dc4d0	0.1384461
234	0xbef97f7a	-0.4873007
235	0xbf0c4cda	-0.54804766
236	0xbe851f19	-0.26000288
237	0xbef260a7	-0.47339365
238	0xbf15c619	-0.585054
239	0xbe5e404e	-0.21704218

bilstm.weight_hh_l0 f4 [8, 2]
0	0xbdc5dda0	-0.09661412
1	0x3eb43f6e	0.35204643
2	0x3ea6738a	0.32510024
3	0xbc181180	-0.009281516
4	0xbe25610c	-0.16150302
5	0xbe19d410	-0.15022302
6	0xbf14afb8	-0.58080626
7	0x3efbab22	0.49154
8	0x3f226041	0.6342812
9	0xbf266ce8	-0.6500993
10	0xbf2cd709	-0.6751562
11	0xbf299c30	-0.6625395
12	0xbde990a0	-0.11404538
13	0xbadfcc00	-0.0017074347
14	0xbeec657e	-0.46171182
15	0x3ec80de2	0.39073092

bilstm.bias_ih_l0 f4 [8]
0	0x3d3ebd30	0.046567142
1	0xbeb740ec	-0.3579172
2	0xbf2f1e53	-0.68405646
3	0x3f0cf63f	0.5506324
4	0x3f338a43	0.70132846
5	0x3d867618	0.06565493
6	0xbead6432	-0.33865505
7	0x3ee62bee	0.4495539

bilstm.bias_hh_l0 f4 [8]
0	0x3ed55d7a	0.4167288
1	0xbdcfce20	-0.10146737
2	0x3f29c0d1	0.6630984
3	0xbf05c33b	-0.52251023
4	0xbda5f458	-0.081032455
5	0x3f196827	0.5992455
6	0xbee002ef	-0.43752238
7	0xbe5f59c2	-0.21811584
