subtaskC/cnn-char-bilstm/checkpoints/epoch-2.pt (torch, 32142 bytes, 29 tensors)

word_embeddings_layer.char_embeds_layer.weight f4 [148, 8]
1.9061768 1.5022839 0.9144831 -2.1205947 0.72086656 -1.2487038 -0.08724755 -1.5785903
-0.75180644 1.6936107 -0.40276513 -1.408554 -0.7725092 -0.6054856 -0.8005835 0.7450848
1.6204224 -0.17575316 -0.501149 0.46940833 -0.8168653 1.0482436 0.84224397 1.697907
1.2864765 1.3067802 0.6503154 1.3372171 -0.2512085 -0.015616344 -0.24034841 0.8402777
-1.4011571 -0.8696263 -0.23490274 1.7553136 0.3261097 -0.53525 0.31700155 -0.81053483
-1.5986086 0.9983695 -0.9414566 -0.59491235 -1.2959677 2.083098 -1.2452137 -0.51309705
-0.9186451 -0.608228 0.11703582 0.501113 -0.4940801 1.1227049 -0.84871846 -0.7124601
-1.4328021 0.10732318 -0.0840958 0.75647324 -0.122620724 1.8151405 -1.1847544 1.4081486
1.4676344 0.92524225 2.275796 0.5692547 0.37156507 -0.25815865 -1.1097872 1.3116995
-0.20051625 0.49492234 0.015002547 0.5214883 0.5422284 -0.62793714 -2.2038376 -0.7782071
-0.031381957 -0.3846576 -1.3820266 -0.524452 0.53096396 0.5913623 1.2313026 -0.033858933
0.7275355 -0.4735678 -1.0469354 0.5040062 -1.7335038 -0.84953904 1.2246562 0.44969082
-2.5396438 0.4952791 0.7806239 0.012557655 0.6585735 0.57407427 0.99888015 -0.48814002
-0.26702774 0.7464908 0.42171654 0.084382124 0.21411791 1.3049929 0.079560466 -0.30226067
-1.4809958 -0.110253766 -0.6330755 0.43342572 0.6939481 0.022674259 -0.41929984 0.5395637
0.011251046 0.32821092 0.15364867 0.8056683 1.0504339 0.29914686 0.6792356 0.47175822
1.8884254 0.98659873 -1.4935465 -1.0347784 -0.13410439 1.7945536 0.72591954 0.5759722
1.1410891 0.021431016 -1.8315979 0.96429574 -0.42591596 1.0054594 -0.7275901 0.62997776
-0.98844385 0.98013455 1.5972013 1.5924193 0.34530735 -0.164876 -0.7044887 0.06300093
0.38970077 1.0155239 -0.46361822 1.6140138 -2.5098245 -0.4477715 -1.1999505 0.8196294
-1.9091111 0.2614011 0.08882561 -0.33889067 0.3018082 -0.713154 0.1603768 -1.1878074
-1.7786136 1.3488292 1.2815143 0.10187025 -1.4493128 0.7497473 0.8745859 1.9939065
0.03795385 0.1179455 -0.7415122 -0.2333158 -0.9008047 -1.6464472 -1.1559451 -0.52641696
-0.549549 -1.5881773 -2.0305269 0.21008125 0.8764383 -0.6780955 0.7679724 0.6648473
1.7854801 -0.9428748 0.9762561 -0.36144263 -1.2321405 0.31361547 0.49443826 1.3917819
0.5260621 2.1120381 -0.52075714 -0.9320059 0.18516134 1.0686918 1.3065343 0.45983452
-0.8475216 -1.0206463 -0.5096453 -0.6011434 0.09100574 0.39878362 -0.14390261 -2.3631039
-0.40669376 1.0993589 -1.8042284 1.495196 0.26281703 -0.40983137 1.0386962 1.6926745
0.25465453 1.9084321 0.3945185 -1.2282233 -0.81304604 -0.103718676 0.28933924 2.2693532
0.19239311 -0.7719282 -2.1168706 -1.2595836 -0.21161063 -0.0839482 -0.03838699 0.6410424
-0.9291302 0.27619088 -0.5388751 0.46258235 -0.8718892 -0.027118294 -0.35324576 1.463857
1.2554343 -0.7149558 0.85391945 0.51299113 0.539731 0.565505 0.5057917 0.22245368
00000000: 9afd f33f d74a c03f 901b 6a3f d3b7 07c0
00000010: b68a 383f 87d5 9fbf d8ae b2bd 3f0f cabf
00000020: 6376 40bf 3cc8 d83f 3b37 cebe 7f4b b4bf
00000030: 2ac3 45bf 1b01 1bbf 0af3 4cbf e1bd 3e3f
00000040: 006a cf3f a3f8 33be 4d4b 00bf 4a56 f03e
00000050: 161e 51bf d92c 863f 4d9d 573f 0455 d93f
00000060: 43ab a43f 9344 a73f 127b 263f ee29 ab3f
00000070: 679e 80be b2db 7fbc e51d 76be 701c 573f
00000080: 1e59 b3bf d49f 5ebf 588a 70be 1eae e03f
00000090: daf7 a63e 2506 09bf 074e a23e 367f 4fbf
000000a0: 359f ccbf 2595 7f3f 4d03 71bf 2d4c 18bf
000000b0: 45e2 a5bf 7a51 0540 2a63 9fbf 545a 03bf
000000c0: 532c 6bbf d5b4 1bbf 7ab0 ef3d f148 003f
000000d0: 11f8 fcbe cbb4 8f3f 9d45 59bf c963 36bf
000000e0: 0f66 b7bf 41cc db3d 6b3a acbd 3ba8 413f
000000f0: 9320 fbbd 8656 e83f 08a6 97bf 373e b43f
00000100: 72db bb3f addc 6c3f a4a6 1140 adba 113f
00000110: c73d be3e 5f2d 84be 820d 8ebf c5e5 a73f
00000120: 2254 4dbe 7666 fd3e 3ecd 753c 4280 053f
00000130: 7bcf 0a3f 7dc0 20bf ad0b 0dc0 9538 47bf
00000140: 5e8a 00bd d7f1 c4be 3fe6 b0bf 7c42 06bf
00000150: 41ed 073f 8563 173f 539b 9d3f aaaf 0abd
00000160: c43f 3a3f 7b77 f2be fb01 86bf 8d06 013f
00000170: 74e3 ddbf 647b 59bf 89c1 9c3f e03d e63e
00000180: 8689 22c0 3995 fd3e f8d6 473f 9fbe 4d3c
00000190: 4698 283f 88f6 123f 9cb6 7f3f 7ded f9be
000001a0: dcb7 88be 051a 3f3f 3beb d73e 89d0 ac3d
000001b0: ba41 5b3e 020a a73f 99f0 a23d e9c1 9abe
000001c0: 4591 bdbf bacc e1bd 3c11 22bf fae9 dd3e
000001d0: 95a6 313f 5ebf b93c 78ae d6be d920 0a3f
000001e0: 4f56 383c 430b a83e 1456 1d3e 4740 4e3f
000001f0: 9e74 863f c729 993e 62e2 2d3f 4b8a f13e
00000200: ecb7 f13f bc91 7c3f 882c bfbf 9e73 84bf
00000210: a952 09be efb3 e53f ddd5 393f ea72 133f
00000220: 350f 923f 1990 af3c cd71 eabf 16dc 763f
00000230: a811 dabe e5b2 803f 5843 3abf 3946 213f
00000240: a80a 7dbf 19ea 7a3f 1871 cc3f 65d4 cb3f
00000250: 20cc b03e 41d5 28be 5f59 34bf a206 813d
00000260: dc86 c73e b0fc 813f 5e5f edbe 0198 ce3f
00000270: f7a0 20c0 4e42 e5be fa97 99bf 3bd3 513f
00000280: c15d f4bf 5dd6 853e 34ea b53d 1483 adbe
00000290: 9b86 9a3e 4391 36bf d139 243e 130a 98bf
000002a0: 9ca9 e3bf 6fa6 ac3f a908 a43f 5aa1 d03d
000002b0: 1583 b9bf 70ef 3f3f dde4 5f3f 5438 ff3f
000002c0: 7f75 1b3d 698d f13d bed3 3dbf 56ea 6ebe
000002d0: 239b 66bf c8be d2bf 02f6 93bf 43c3 06bf
000002e0: 3eaf 0cbf 6549 cbbf 27f4 01c0 8a1f 573e
000002f0: 435e 603f ab97 2dbf d799 443f 6f33 2a3f
00000300: 9d8a e43f 3e60 71bf ebeb 793f 020f b9be
00000310: c8b6 9dbf 3592 a03e 0327 fd3e e925 b23f
00000320: 01ac 063f a22b 0740 5750 05bf f097 6ebf
00000330: ef9a 3d3e e5ca 883f 843c a73f 6e6f eb3e
00000340: 2df7 58bf 8aa4 82bf 1d78 02bf 89e4 19bf
00000350: 3861 ba3d 5e2d cc3e 355b 13be 183d 17c0
00000360: 2a3a d0be cbb7 8c3f f5f0 e6bf 9562 bf3f
00000370: f48f 863e 6bd5 d1be fff3 843f 8fa9 d83f
00000380: 1462 823e 8147 f43f 54fe c93e 6c36 9dbf
00000390: c923 50bf 756a d4bd 4624 943e 153d 1140
000003a0: b302 453e 169d 45bf cf7a 07c0 093a a1bf
000003b0: 75b0 58be 09ed abbd ad3b 1dbd 5b1b 243f
000003c0: 7adb 6dbf e468 8d3e b8f3 09bf 98d7 ec3e
000003d0: 2134 5fbf 2f27 debc a1dc b4be ab5f bb3f
000003e0: 12b2 a03f 5807 37bf 779a 5a3f 6353 033f
000003f0: d02b 0a3f f0c4 103f 917b 013f e6ca 633e

word_embeddings_layer.conv1.0.weight f4 [21, 8, 3]
0.019144727 -0.053676136 0.008906079 -0.04874092 0.054111097 0.16362423 -0.07312944 0.1699812
0.17187744 -0.13538966 -0.13787477 -0.19109644 -0.11886406 -0.11729118 -0.0148338815 -0.03793519
-0.102433175 -0.082856715 -0.1282376 0.18657818 -0.10340696 -0.11744051 0.12834257 -0.004881689
0.149269 0.1264898 0.17127195 -0.16891298 0.12824701 0.1679093 -0.13025136 0.166531
0.15285304 0.04993844 0.1040969 -0.062378183 -0.22535348 0.03964441 0.045002174 -0.082541615
0.12771901 -0.17701235 0.13685241 0.07134622 0.03791529 -0.062854476 0.14241526 0.058817472
0.023751311 0.05253141 0.167826 -0.08635338 -0.05383032 0.07383927 0.024831235 0.15107174
-0.09066611 0.03333098 0.057842337 -0.03615276 0.09979293 0.03285473 -0.20522602 0.016196262
-0.09823445 -0.00045217283 -0.08332984 -0.2385577 -0.060587376 0.025986064 -0.06045925 0.23283206
-0.029040432 0.16785826 0.071249746 -0.13590991 0.091441944 0.19530596 -0.18837966 -0.13894434
0.21449496 0.16960476 -0.12209947 0.103120245 -0.056591213 -0.2684114 0.020437634 0.11469253
-0.10062769 0.058645155 -0.20225742 0.023913091 0.13782677 0.17192887 0.15673417 0.082588375
-0.16864975 -0.059205007 -0.02214148 -0.058916748 -0.1328545 0.1738823 0.25069675 -0.19595845
0.096824154 0.12929559 0.16486454 0.10600389 0.19083385 -0.05902472 0.17603226 0.14484565
-0.21896115 -0.22135477 0.0056606554 0.03494448 -0.15587403 0.123571135 -0.008938637 0.061416995
-0.124546416 0.184294 0.17157762 -0.15412673 0.0012780102 -0.004001349 0.023781717 0.20980164
0.057448823 -0.010326378 0.20438527 -0.04232432 -0.086967014 -0.023711337 -0.12656501 0.015037445
-0.10545082 -0.005384923 0.017926654 0.034782052 -0.1605252 -0.109074675 0.1593896 0.22283211
-0.20146947 0.11104403 -0.117462315 0.05436901 0.20738769 0.18758923 -0.20367467 0.14862294
0.15738973 0.015117642 0.23296595 -0.10180884 -0.12809898 -0.1361661 0.051124092 0.1277165
0.042980935 -0.15152575 -0.14857204 0.012059062 -0.18334846 0.016846722 0.045319445 -0.10185183
0.0720238 0.052940954 0.09565653 -0.07700701 -0.14430924 0.09919719 0.0066320584 -0.071326666
-0.12812757 0.058267932 -0.2221623 0.026925795 0.1400387 -0.11583589 -0.09688068 -0.12595016
0.15950881 0.17296232 0.02892397 0.26947623 0.040534448 -0.2049267 0.058303118 0.06255698
0.18275909 -0.03358834 0.09830672 0.09023018 0.11749219 -0.23505235 0.14456463 -0.23739138
0.15259351 0.028496604 -0.14275125 0.09405493 -0.10179091 -0.2383512 -0.11171935 0.05310073
0.21022044 -0.043251872 0.15447158 -0.011853909 0.0077571482 0.12198675 -0.08964747 -0.1452941
-0.11271218 -0.20337987 -0.09427082 -0.052874256 -0.15015763 -0.09830916 0.0128697 -0.027253168
-0.09506407 0.051201604 -0.044545807 0.07006546 0.10374862 -0.059806455 0.015208516 -0.024690874
-0.13824981 -0.062497184 0.01934988 0.14809261 0.12862536 0.07952312 -0.10016404 -0.16859627
0.14503126 -0.13399169 0.005192538 -0.038576633 -0.04130109 -0.03308147 0.22357911 0.1368885
0.094334416 0.2154242 -0.21427442 0.022247741 0.12403837 0.12196155 -0.21103701 0.065316364
00000000: 67d5 9c3c 82db 5bbd ceea 113c 8fa4 47bd
00000010: 99a3 5d3d 1c8d 273e e3c4 95bd 8d0f 2e3e
00000020: a400 303e 96a3 0abe 0b2f 0dbe c9ae 43be
00000030: 006f f3bd 5c36 f0bd cf09 73bc ee61 1bbd
00000040: 7cc8 d1bd c8b0 a9bd b850 03be 5a0e 3f3e
00000050: 07c7 d3bd a684 f0bd 3c6c 033e 93f6 9fbb
00000060: f9d9 183e 8b86 013e ea61 2f3e 86f7 2cbe
00000070: 2f53 033e 6af0 2b3e 9d60 05be 1a87 2a3e
00000080: 8285 1c3e 408c 4c3d c130 d53d 4480 7fbd
00000090: 10c3 66be 2d62 223d 3354 383d 940b a9bd
000000a0: c6c8 023e ba42 35be 0a23 0c3e f81d 923d
000000b0: 104d 1b3d d9b9 80bd 4ed5 113e 97ea 703d
000000c0: 1c92 c23c 2d2b 573d 94da 2b3e 0ada b0bd
000000d0: 2e7d 5cbd 0b39 973d e06a cb3c 8db2 1a3e
000000e0: 27af b9bd 1186 083d 16ec 6c3d eb14 14bd
000000f0: 3c60 cc3d ae92 063d c526 52be 06ae 843c
00000100: 252f c9bd 9c11 edb9 d6a8 aabd 7848 74be
00000110: 782a 78bd bae0 d43c 1ea4 77bd 876b 6e3e
00000120: 33e6 edbc 09e3 2b3e 63eb 913d f82b 0bbe
00000130: ea45 bb3d 49fe 473e 99e6 40be 6d47 0ebe
00000140: 91a4 5b3e dfac 2d3e 490f fabd b530 d33d
00000150: 30cc 67bd 386d 89be d36c a73c ebe3 ea3d
00000160: e415 cebd e735 703d 921c 4fbe 63e5 c33c
00000170: 7622 0d3e 1f0e 303e ec7e 203e 1824 a93d
00000180: 85b2 2cbe f380 72bd 0d62 b5bc b052 71bd
00000190: 030b 08be 340e 323e 535b 803e 55a9 48be
000001a0: be4b c63d 1066 043e 40d2 283e 9118 d93d
000001b0: f369 433e e8c3 71bd cd41 343e 6b52 143e
000001c0: 5a37 60be d3aa 62be 057d b93b f121 0f3d
000001d0: 719d 1fbe dd12 fd3d 5c73 12bc 6390 7b3d
000001e0: 3112 ffbd 91b7 3c3e 0bb2 2f3e 66d3 1dbe
000001f0: e882 a73a c01d 83bb e0d1 c23c 3ed6 563e
00000200: 754f 6b3d f82f 29bc 5f4a 513e 445c 2dbd
00000210: c31b b2bd 473e c2bc 429a 01be 9e5f 763c
00000220: 99f6 d7bd 0274 b0bb ebda 923c a077 0e3d
00000230: b860 24be 8b62 dfbd 0737 233e 1a2e 643e
00000240: 034e 4ebe 0d6b e33d 1590 f0bd 0ab2 5e3d
00000250: 705d 543e 6417 403e 1890 50be 9d30 183e
00000260: c62a 213e fcaf 773c a08e 6e3e 2781 d0bd
00000270: 612c 03be 206f 0bbe 7f67 513d 1dc8 023e
00000280: c70c 303d 9129 1bbe 4523 18be 5f93 453c
00000290: b3bf 3bbe 2302 8a3c e2a0 393d b197 d0bd
000002a0: 3781 933d 9dd8 583d 92e7 c33d dab5 9dbd
000002b0: cdc5 13be e527 cb3d bd51 d93b b713 92bd
000002c0: e033 03be 5baa 6e3d 847e 63be 7c93 dc3c
000002d0: 4e66 0f3e 5e3b edbd 6169 c6bd 14f9 00be
000002e0: 4756 233e 091d 313e f6f1 ec3c caf8 893e
000002f0: 7307 263d 4ed8 51be 40cf 6e3d e01d 803d
00000300: 3325 3b3e ed93 09bd 0955 c93d 9aca b83d
00000310: bf9f f03d 90b1 70be c008 143e ba16 73be
00000320: 7941 1c3e b671 e93c 622d 12be df9f c03d
00000330: c177 d0bd 5612 74be 1dcd e4bd 2780 593d
00000340: 0744 573e e028 31bd cc2d 1e3e e636 42bc
00000350: ad2f fe3b 30d4 f93d 1899 b7bd fac7 14be
00000360: a5d5 e6bd d042 50be 0f11 c1bd ad92 58bd
00000370: ecc2 19be 5056 c9bd 6fdb 523c 0942 dfbc
00000380: f3b0 c2bd c6b8 513d aa75 36bd 7b7e 8f3d
00000390: 287a d43d 9df7 74bd 242d 793c 8444 cabc
000003a0: 5c91 0dbe 0cfd 7fbd a483 9e3c 97a5 173e
000003b0: 5eb6 033e 04dd a23d ce22 cdbd 80a4 2cbe
000003c0: 1383 143e 1e35 09be 2a26 aa3b 8802 1ebd
000003d0: 552b 29bd 6f80 07bd ecf1 643e 802c 0c3e
000003e0: 6732 c13d 2998 5c3e c16a 5bbe e540 b63c
000003f0: d407 fe3d fac6 f93d 161a 58be 96c4 853d

word_embeddings_layer.conv1.0.bias f4 [21]
-0.14539051 0.071482636 -0.12791075 -0.0339695 0.15660137 0.18372305 -0.09322708 -0.16592185
0.0041304617 0.08305997 0.009574898 -0.03735215 -0.10262444 0.057528112 0.22468515 -0.0927414
0.11296505 0.100031614 0.18609464 0.0020879859 -0.017172566
00000000: 40e1 14be 7d65 923d 09fb 02be 9a23 0bbd
00000010: 1c5c 203e e521 3c3e d7ed bebd 6be7 29be
00000020: d358 873b 581b aa3d 08e0 1c3c 91fe 18bd
00000030: c32c d2bd 99a2 6b3d dd13 663e 34ef bdbd
00000040: 385a e73d 60dd cc3d 988f 3e3e 97d6 083b
00000050: 7bad 8cbc

word_embeddings_layer.convs2.0.0.weight f4 [10, 21, 3]
0.10343347 0.09017068 0.1349922 -0.022583522 0.063205555 0.104216084 -0.06830345 0.037414785
0.008326541 0.11364377 0.012815211 0.055302724 0.11430508 -0.043681078 -0.08204657 -0.011053187
0.113903366 0.15226184 -0.056918707 0.05823291 -0.041260213 -0.020212198 0.14251785 0.07957206
-0.01844382 0.051469922 0.04078998 0.11642175 -0.023730433 -0.08831579 0.082699165 0.021578835
0.061892472 -0.01658577 0.10981609 0.16335262 0.0892693 0.04748358 0.13605079 0.02890271
0.03609744 0.15749781 0.11333043 -0.062533565 0.10669558 0.11224445 0.058157396 0.19340247
-0.011962762 0.12891777 0.18464215 -0.033740837 -0.059248116 -0.015905816 -0.01180108 -0.11703294
-0.031200668 0.051051356 0.102034174 0.08297064 0.1416632 0.13256858 -0.020651242 -0.10073819
0.0058463486 0.11944195 0.0046634506 -0.012032104 -0.088146225 -0.031366885 -0.092543885 0.1090168
0.009702595 -0.05539688 0.04765408 0.07276468 -0.015029213 0.034421567 0.106237 -0.06679766
-0.10000524 0.0071391873 -0.11950279 -0.12786955 0.108623974 0.040240288 -0.04828541 -0.048810076
-0.10070205 0.096141376 0.0004781537 -0.09128893 -0.07576476 0.07030608 -0.025353346 -0.02221932
0.034784984 -0.04862751 0.020587713 0.09331428 -0.07637671 0.0018895176 -0.12580633 -0.06706265
0.14290437 -0.023729805 0.09333255 -0.047715638 -0.08154993 -0.088860855 0.12264182 -0.046660066
0.104869924 0.077423066 0.04076507 0.12125301 -0.061879244 0.077246375 -0.10121172 -0.04588764
0.08857711 0.034766473 -0.017970547 -0.048663307 -0.106877886 0.09689833 0.03166402 0.03243727
0.06467932 0.124622166 -0.03102941 -0.01154539 0.12015787 0.10377923 -0.029226743 -0.09891632
0.05264021 0.0976034 0.04674707 0.11784205 -0.07640679 0.08784158 -0.053114135 0.09518676
0.120227404 0.06861012 0.13228479 -0.0567741 -0.08842936 -0.15362206 0.10706578 0.07218704
-0.056826048 0.079048395 0.13987993 -0.108208366 0.1272045 0.055003487 0.05170826 0.1435237
0.14306003 0.08522145 0.13495839 0.08842719 0.057855364 -0.08598264 0.05131174 -0.058190875
0.07165458 0.05432917 0.036431283 -0.05070644 -0.050058693 0.11263847 0.092224546 0.08835004
-0.03807488 0.0002942613 -0.039765097 0.100987695 -0.0233432 0.11466818 0.11941253 -0.08548172
0.040980432 0.015204449 -0.046334837 0.07694014 0.004607222 0.14218584 -0.043791056 0.09277964
-0.074262515 -0.035428826 0.044877443 0.13780478 0.11002256 -0.06960326 0.02330579 -0.030115211
0.025241088 -0.05704391 0.02134813 0.09156597 -0.06267994 -0.08054397 0.053962093 0.08539209
0.0071061184 0.15429866 -0.050744258 -0.04073931 -0.06538844 0.010188869 0.007850478 0.11419672
0.02915016 0.059982873 -0.036430042 0.13904235 0.14765806 -0.0792812 0.020842003 -0.064151525
0.08313265 -0.080704555 -0.026559427 0.1622307 -0.07842341 0.12544681 0.04242892 0.13416992
-0.034280606 0.1199445 0.044645615 0.012426375 0.13863231 -0.110129125 -0.07190375 0.13657783
-0.012936236 -0.09815514 0.00044129087 -0.009536176 0.014434126 -0.047323212 0.0788585 -0.07576854
0.047686014 0.091419995 0.0768785 0.042269178 -0.054186925 -0.12858944 -0.08259643 -0.12218763
00000000: edd4 d33d 68ab b83d 653b 0a3e 1401 b9bc
00000010: ea71 813d 3e6f d53d aee2 8bbd 3f40 193d
00000020: 0b6c 083c 11be e83d e4f6 513c 1c85 623d
00000030: c818 ea3d eeea 32bd 0808 a8bd 6d18 35bc
00000040: 2b46 e93d 87ea 1b3e 9723 69bd a285 6e3d
00000050: 7800 29bd 0d94 a5bc 33f0 113e adf6 a23d
00000060: 7e17 97bc 20d2 523d 6513 273d 876e ee3d
00000070: 5366 c2bc e9de b4bd 2e5e a93d 19c6 b03c
00000080: f682 7d3d e1de 87bc 42e7 e03d e945 273e
00000090: d3d2 b63d 247e 423d e650 0b3e 60c5 ec3c
000000a0: e9da 133d 1b47 213e c919 e83d 9911 80bd
000000b0: 3683 da3d 6be0 e53d 7336 6e3d 4c0b 463e
000000c0: 76ff 43bc 0503 043e d512 3d3e d533 0abd
000000d0: 27ae 72bd ea4c 82bc 5159 41bc f7ae efbd
000000e0: 8b98 ffbc 3a1b 513d 4bf7 d03d 83ec a93d
000000f0: 2810 113e 0fc0 073e cb2c a9bc d34f cebd
00000100: ba92 bf3b fb9d f43d dccf 983b 4d22 45bc
00000110: 0286 b4bd 907a 00bd a687 bdbd 3344 df3d
00000120: a2f7 1e3c d7e7 62bd ed30 433d a605 953d
00000130: 173d 76bc a1fd 0c3d c992 d93d 36cd 88bd
00000140: 8ccf ccbd d8ef e93b e1bd f4bd 3cf0 02be
00000150: 3f76 de3d 00d3 243d ecc6 45bd 13ed 47bd
00000160: e03c cebd c5e5 c43d b4b0 fa39 b1f5 babd
00000170: 8e2a 9bbd a2fc 8f3d d2b1 cfbc 4b05 b6bc
00000180: b37a 0e3d a42d 47bd 90a7 a83c 8f1b bf3d
00000190: 646b 9cbd b1a9 f73a 60d3 00be 2558 89bd
000001a0: 8655 123e 0265 c2bc 2325 bf3d 7971 43bd
000001b0: a603 a7bd aefc b5bd a22b fb3d a01e 3fbd
000001c0: 0bc6 d63d fc8f 9e3d 46f9 263d 8053 f83d
000001d0: 1775 7dbd 5933 9e3d 1748 cfbd aef4 3bbd
000001e0: ea67 b53d 4a67 0e3d f836 93bc 2d53 47bd
000001f0: cbe2 dabd a272 c63d 22b2 013d f1dc 043d
00000200: 9776 843d e839 ff3d 6431 febc e028 3dbc
00000210: 5415 f63d 348a d43d ec6c efbc a494 cabd
00000220: 439d 573d 4be4 c73d db79 3f3d 2c57 f13d
00000230: 2a7b 9cbd 49e6 b33d 358e 59bd 47f1 c23d
00000240: c939 f63d 7683 8c3d aa75 073e f58b 68bd
00000250: 741a b5bd 1a4f 1dbe 4e45 db3d ccd6 933d
00000260: 6ec2 68bd 20e4 a13d af3c 0f3e 599c ddbd
00000270: e541 023e 564b 613d 0acc 533d e0f7 123e
00000280: 547e 123e 9588 ae3d 8832 0a3e 5119 b53d
00000290: bff9 6c3d ab17 b0bd 422c 523d 8e59 6ebd
000002a0: a3bf 923d 4488 5e3d f838 153d 8eb1 4fbd
000002b0: 580a 4dbd 00af e63d 39e0 bc3d def0 b43d
000002c0: 68f4 1bbd 1547 9a39 bae0 22bd a3d2 ce3d
000002d0: 3d3a bfbc 27d7 ea3d 8e8e f43d 0a11 afbd
000002e0: 19db 273d 151c 793c 99c9 3dbd cb92 9d3d
000002f0: 2ef8 963b 2a99 113e 405e 33bd 4003 be3d
00000300: f216 98bd d11d 11bd 69d1 373d b21c 0d3e
00000310: 8253 e13d 278c 8ebd c9eb be3c 2db4 f6bc
00000320: 66c6 ce3c e0a6 69bd 46e2 ae3c f086 bb3d
00000330: 575e 80bd 3df4 a4bd 5b07 5d3d 0ce2 ae3d
00000340: 71da e83b 7800 1e3e 36d9 4fbd 43de 26bd
00000350: 60ea 85bd 37ef 263c 4b9f 003c f8df e93d
00000360: 51cc ee3c 9ab0 753d ab37 15bd 1e61 0e3e
00000370: ad33 173e 2f5e a2bd d9bc aa3c e061 83bd
00000380: 7341 aa3d 6e48 a5bd 2893 d9bc ce1f 263e
00000390: 749c a0bd 2175 003e f2c9 2d3d d763 093e
000003a0: d269 0cbd 76a5 f53d 52de 363d ff97 4b3c
000003b0: a1f5 0d3e 618b e1bd 4642 93bd 0fdb 0b3e
000003c0: 82f2 53bc 9005 c9bd 0f5d e739 9f3d 1cbc
000003d0: 1d7d 6c3c fcd5 41bd 9180 a13d 892c 9bbd
000003e0: 6952 433d 683a bb3d 7a72 9d3d 7222 2d3d
000003f0: 1cf3 5dbd f3ac 03be 5128 a9bd 823d fabd

word_embeddings_layer.convs2.0.0.bias f4 [10]
0.017636899 0.10962982 0.045010116 -0.048784878 -0.06821224 0.120608956 0.008432155 -0.007799124
0.020558482 -0.039846767
00000000: 427b 903c 9985 e03d 875c 383d a7d2 47bd
00000010: dcb2 8bbd d401 f73d 0527 0a3c cb8f ffbb
00000020: 436a a83c 5d36 23bd

word_embeddings_layer.convs2.1.0.weight f4 [10, 21, 4]
-0.13175239 -0.14715931 -0.04574425 -0.05828811 0.011571361 -0.10258846 -0.082590066 -0.0020879926
-0.020902205 -0.060481917 -0.031802714 -0.06953973 -0.16686322 -0.061901107 -0.10961688 0.03357412
0.056026723 -0.047429617 0.025479544 -0.11917989 0.036877498 0.043025915 -0.068926506 -0.15733828
-0.07506488 -0.10394644 -0.06963207 -0.17033716 -0.040613607 -0.10855532 -0.07777594 -0.09708847
-0.097548395 -0.18299136 -0.121951066 -0.03252288 0.022962458 0.035792764 -0.14903764 -0.023760151
-0.13205187 -0.15856907 -0.08708217 -0.14982581 -0.15639137 -0.18101263 -0.14898527 0.018129295
-0.010095596 -0.115826935 -0.14275771 -0.17775396 -0.13855827 -0.12363252 0.0048542432 -0.030195301
-0.13980147 -0.005412116 -0.15930891 -0.18947263 -0.038554557 -0.13249446 -0.036401015 0.019071667
-0.12405602 -0.15045995 -0.017471334 -0.16173412 0.010342654 -0.111739874 -0.009017794 -0.17186448
-0.14614567 -0.0682436 -0.06417818 -0.02347663 -0.010250349 -0.10764827 -0.085395284 -0.08015061
-0.08002718 -0.062047284 -0.17605662 -0.15275125 0.08076967 -0.057614136 0.092160955 0.019299485
0.028065378 0.09926168 -0.05749884 -0.011558173 0.032823686 0.041508894 -0.095830746 0.03643692
-0.056946874 0.0186169 0.07093433 0.016512256 0.036447644 0.0075443694 0.0796845 0.102313966
0.021458223 -0.06722449 -0.056897726 0.0981097 0.07568743 0.066033706 -0.09206233 0.107973345
0.027701372 0.075367205 0.08041323 0.03691962 -0.03520354 0.103485964 -0.060296647 0.08580573
-0.09451122 -0.038327362 -0.0633684 -0.05782636 0.07003359 -0.07563536 -0.09059712 0.0748119
0.06199171 0.014056681 -0.054360166 0.010129822 -0.028585399 0.07030816 -0.034074288 -0.03181543
-0.08236205 -0.031827796 0.077577904 0.10326415 0.0030982248 -0.044626184 0.11098966 0.021125626
-0.075273596 -0.078484595 -0.02035274 0.042407785 0.036920086 0.08476351 0.010874803 0.05214005
-0.03397729 -0.03133852 -0.013436532 -0.13310893 -0.06754883 -0.10000051 0.004970327 0.010040833
-0.013841904 -0.053076666 0.1046964 -0.030790629 0.056847528 0.08029829 -0.086056985 -0.027183346
-0.0075614695 0.039141767 -0.081532516 0.019571811 -0.1458881 -0.11719913 0.023502413 -0.0733192
0.07431425 -0.048196364 -0.10323594 0.061471887 0.037619844 -0.036360674 -0.12374243 -0.05773575
-0.1027235 0.04244636 -0.015929148 0.02982705 0.042053327 0.011625073 -0.10613739 0.075968005
0.03690164 -0.10644561 0.050075468 -0.011467038 -0.063070886 -0.10945134 -0.033948824 -0.121788025
0.007936312 0.06720059 -0.050759267 0.049240127 -0.07544343 -0.017844796 -0.06396494 0.014750608
-0.014195567 0.0060570897 -0.07892184 -0.11139579 0.028005913 0.027845472 -0.028603079 -0.0971816
-0.02082786 -0.049935777 0.044657264 -0.0654729 -0.011474472 -0.048838098 0.03261387 -0.015942844
0.021481318 -0.025968226 -0.17798918 -0.09631576 -0.09596743 -0.08694338 -0.019193076 -0.005739802
-0.037601776 0.07314824 -0.08976647 -0.054113537 -0.053761855 -0.031217018 -0.065284595 0.08068988
-0.10579041 -0.118376456 -0.0671942 0.012344376 -0.048674818 -0.029709551 -0.04801274 0.021827675
0.038230952 0.06810267 -0.01147659 -0.08220294 -0.10255532 -0.0089873 0.031095123 -0.07419492
00000000: 19ea 06be eeb0 16be 535e 3bbd 83bf 6ebd
00000010: ce95 3d3c e619 d2bd fb24 a9bd b4d6 08bb
00000020: 1a3b abbc e3bb 77bd 9043 02bd d96a 8ebd
00000030: 31de 2abe 048c 7dbd d17e e0bd 0485 093d
00000040: 477c 653d 8f45 42bd 7aba d03c 9614 f4bd
00000050: dc0c 173d f13b 303d 5729 8dbd 491d 21be
00000060: 9ebb 99bd dfe1 d4bd 429b 8ebd dd6c 2ebe
00000070: 745a 26bd 4052 debd fe48 9fbd 52d6 c6bd
00000080: 74c7 c7bd 1662 3bbe 7bc1 f9bd b636 05bd
00000090: c41b bc3c 6f9b 123d 539d 18be a6a4 c2bc
000000a0: 9b38 07be ee5f 22be 2358 b2bd f06b 19be
000000b0: 0f25 20be 605b 39be 988f 18be e383 943c
000000c0: 0068 25bc ac36 edbd 142f 12be 2205 36be
000000d0: 38e2 0dbe 0c33 fdbd 5810 9f3b 235c f7bc
000000e0: 1e28 0fbe 1f58 b1bb e021 23be 1d05 42be
000000f0: 62eb 1dbd a1ac 07be 3b19 15bd 2f3c 9c3c
00000100: 1511 febd 2c12 1abe 0b20 8fbc a19d 25be
00000110: 3c74 293c e0d7 e4bd 5fbf 13bc 3efd 2fbe
00000120: 36a7 15be 4dc3 8bbd da6f 83bd 1052 c0bc
00000130: 14f1 27bc b276 dcbd b9e3 aebd 0126 a4bd
00000140: 4ae5 a3bd 4b25 7ebd 3048 34be d36a 1cbe
00000150: 926a a53d cdfc 6bbd e2be bc3d f419 9e3c
00000160: 5de9 e53c b549 cb3d e783 6bbd 7e5e 3dbc
00000170: 2172 063d 3b05 2a3d e942 c4bd e13e 153d
00000180: 2041 69bd 7882 983c 0546 913d b644 873c
00000190: 204a 153d c236 f73b a131 a33d fc89 d13d
000001a0: 28c9 af3c feac 89bd 970d 69bd bded c83d
000001b0: 0302 9b3d ae3c 873d 2d8b bcbd 2121 dd3d
000001c0: fded e23c 1f5a 9a3d b1af a43d 0739 173d
000001d0: 9631 10bd 73f0 d33d 9ef9 76bd eaba af3d
000001e0: 198f c1bd 27fd 1cbd 4bc7 81bd 55db 6cbd
000001f0: c56d 8f3d b6e6 9abd fc8a b9bd fb36 993d
00000200: 05eb 7d3d fe4d 663c c4a8 5ebd 8ef7 253c
00000210: ed2b eabc b9fd 8f3d 7b91 0bbd e550 02bd
00000220: 6fad a8bd dd5d 02bd 2ae1 9e3d 287c d33d
00000230: 960b 4b3b f2c9 36bd 8c4e e33d a60f ad3c
00000240: 0b29 9abd 88bc a0bd caba a6bc c9b3 2d3d
00000250: 8439 173d 7e98 ad3d 3b2c 323c ce90 553d
00000260: c52b 0bbd d25c 00bd e624 5cbc b54d 08be
00000270: 0a57 8abd 11cd ccbd 20de a23b 4e82 243c
00000280: 27c9 62bc eb66 59bd 116b d63d a13c fcbc
00000290: f4d8 683d 6e73 a43d a53e b0bd 9caf debc
000002a0: 34c6 f7bb 1e53 203d 85fa a6bd 1055 a03c
000002b0: b163 15be 1906 f0bd 2288 c03c 6028 96bd
000002c0: 1232 983d 8d69 45bd 5d6d d3bd f2c9 7b3d
000002d0: 4417 1a3d eeee 14bd ac6c fdbd 527c 6cbd
000002e0: b360 d2bd 3cdc 2d3d d87d 82bc dc57 f43c
000002f0: 1c40 2c3d 1777 3e3c 8f5e d9bd 1d95 9b3d
00000300: 2d26 173d 2800 dabd ef1b 4d3d 3ee0 3bbc
00000310: 4f2b 81bd 0628 e0bd ec0d 0bbd 006c f9bd
00000320: 4e07 023c 77a0 893d f3e8 4fbd 04b0 493d
00000330: 1682 9abd 402f 92bc 0d00 83bd 89ac 713c
00000340: 8694 68bc 8d7a c63b c6a1 a1bd 7a23 e4bd
00000350: a86c e53c 301c e43c 0151 eabc 2607 c7bd
00000360: 309f aabc 7589 4cbd 89ea 363d a816 86bd
00000370: 6cff 3bbc 750a 48bd 1f96 053d 919a 82bc
00000380: 97f9 af3c 51bb d4bc cc42 36be 3241 c5bd
00000390: 928a c4bd 5f0f b2bd cc3a 9dbc f314 bcbb
000003a0: 5204 1abd bfce 953d 7cd7 b7bd 28a6 5dbd
000003b0: 6435 5cbd d5ba ffbc eeb3 85bd bc40 a53d
000003c0: a4a8 d8bd 5b6f f2bd 1d9d 89bd 1140 4a3c
000003d0: 3f5f 47bd 7261 f3bc 02a9 44bd f4cf b23c
000003e0: 0f98 1c3d 6a79 8b3d 4f08 3cbc 045a a8bd
000003f0: 8608 d2bd 783f 13bc 33bb fe3c 82f3 97bd

word_embeddings_layer.convs2.1.0.bias f4 [10]
-0.10017671 -0.08553232 0.02809521 -0.08481534 0.02841244 -0.072039604 0.059745986 0.14049622
-0.05191043 0.119017914
00000000: 7229 cdbd 922b afbd ed27 e63c aab3 adbd
00000010: 35c1 e83c 8089 93bd 35b8 743d 3ede 0f3e
00000020: 08a0 54bd aabf f33d

word_embeddings_layer.convs2.2.0.weight f4 [10, 21, 5]
-0.0057051964 -0.08116752 0.03425174 0.051101796 0.08290961 -0.09472359 0.08417226 0.07455825
0.09376924 0.05165237 -0.040457644 0.079072505 0.08729662 -0.038986184 -0.018344268 0.06867131
0.078240044 0.06702342 0.07848986 -0.034970514 -0.021435099 -0.03233902 0.049412843 0.04106085
-0.01640397 -0.0062353127 -0.07416849 -0.080915384 0.10788117 -0.02469073 0.03721952 -0.024979739
-0.014723055 -0.0017398703 0.08493596 -0.041673735 0.097298495 0.08174051 0.08118933 -0.10149971
-0.038121346 -0.077324465 -0.014977794 -0.013665266 0.026587745 0.09133476 0.02944132 -0.081691206
-0.08147076 0.10804976 0.0031500573 0.017488502 -0.07086352 -0.01529123 0.0123753585 -0.078508325
0.060516447 0.048521567 -0.053464036 -0.0046426565 -0.03506515 0.0060598175 -0.041241158 0.087846324
-0.101669684 -0.052019555 -0.045213714 0.032172855 0.040140882 -0.0005508352 0.08852058 -0.08978913
0.02647618 -0.07340044 -0.05577208 -0.08829538 -0.061016347 -0.07710091 0.074393064 -0.03645738
0.056895398 -0.040703177 -0.002633024 0.021497563 0.07608899 -0.034244135 0.04017696 0.015836975
0.06808219 0.07171961 0.035293635 -0.0368785 -0.033782117 0.02744065 0.04725249 -0.014516058
0.03783363 -0.06720549 0.043667138 -0.01894197 -0.063946284 -0.071248785 -0.068082355 0.05955398
-0.045512617 -0.0789924 -0.07307177 -0.12900259 -0.028644156 -0.06864698 -0.013283781 0.029340895
-0.09938146 0.0251524 -0.043904047 -0.09227626 -0.060615525 -0.020305732 0.012940763 -0.012110162
-0.06783709 0.037821315 0.01156271 -0.13438526 -0.015505035 -0.039109223 -0.037710443 -0.02346548
-0.055026446 0.12982361 -0.12020405 0.067005344 -0.08926978 -0.019158242 -0.03706608 -0.040559407
0.007888191 0.06284745 -0.059136685 -0.061213072 0.049774796 0.037849247 0.060752053 0.056318987
-0.004126632 -0.08107332 0.024353981 -0.055771813 -0.11428021 -0.053876773 -0.026017388 0.14105472
0.052398574 0.0750286 0.060590528 -0.0645228 0.0585004 -0.060439773 -0.015891233 0.09004057
-0.06597734 -0.009499651 -0.061129093 0.052019116 0.049819894 -0.09153328 0.0122304335 -0.020239428
-0.099922664 0.036777318 0.039998077 0.035577487 -0.01680927 -0.058125187 -0.026729316 0.024823442
-0.012426342 -0.087312415 0.05917066 0.05079999 -0.04172997 0.060843576 -0.04208785 0.046420652
0.09451763 -0.08814686 -0.028911667 -0.008816649 0.024970781 -0.06048199 -0.05906134 0.005415087
-0.03213811 0.076248646 0.004263011 -0.033852752 -0.0426026 -0.055602454 -0.060060523 -0.014720471
0.007517811 -0.1322222 -0.09371718 0.01882907 -0.10940448 0.0821836 0.08483397 0.04490939
0.0037351954 0.049354583 -0.08057587 -0.08290921 0.0962094 -0.07839803 -0.07760794 -0.03063307
0.010173923 0.028095417 -0.038665146 -0.0005840693 -0.014727487 0.09230003 0.09422128 0.054032873
0.021147314 0.07398667 -0.07974255 0.046284784 -0.050500352 0.08432575 -0.078786574 0.043649007
-0.06032194 0.06896581 0.026314389 0.08935902 -0.06363471 0.06729446 -0.048925918 -0.0410185
0.042276517 -0.013799558 -0.07785217 -0.076899484 -0.02046985 0.03971205 0.09394085 0.08654465
0.009443155 -0.050046735 -0.07440796 0.09553175 -0.035210088 -0.008211267 -0.06369513 -0.047313057
00000000: a8f2 babb 283b a6bd 8d4b 0c3d 1e50 513d
00000010: 83cc a93d 71fe c1bd 8162 ac3d ffb1 983d
00000020: 160a c03d 6f91 533d eab6 25bd c4f0 a13d
00000030: 92c8 b23d faaf 1fbd b846 96bc 8ba3 8c3d
00000040: 513c a03d 9343 893d 4bbf a03d 3e3d 0fbd
00000050: a998 afbc ec75 04bd 1f65 4a3d 6c2f 283d
00000060: 9e61 86bc 9851 ccbb a6e5 97bd f7b6 a5bd
00000070: cef0 dc3d 3744 cabc 7f73 183d 4fa2 ccbc
00000080: f838 71bc 5c0c e4ba e8f2 ad3d 14b2 2abd
00000090: 6f44 c73d 9267 a73d 9746 a63d 14df cfbd
000000a0: 2125 1cbd 4a5c 9ebd 6c65 75bc 48e4 5fbc
000000b0: 8bce d93c b80d bb3d ec2e f13c b84d a7bd
000000c0: 24da a6bd 3149 dd3d 3171 4e3b 0c44 8f3c
000000d0: e520 91bd 1188 7abc 04c2 4a3c f9c8 a0bd
000000e0: 18e0 773d 8dbe 463d 1bfd 5abd 6d21 98bb
000000f0: 7aa0 0fbd 6f91 c63b 7dec 28bd c6e8 b33d
00000100: 3238 d0bd 7512 55bd 0432 39bd afc7 033d
00000110: c46a 243d ed65 10ba 474a b53d 5de3 b7bd
00000120: 93e4 d83c f852 96bd 4471 64bd 35d4 b4bd
00000130: 47ec 79bd 15e7 9dbd 645b 983d 5554 15bd
00000140: 260b 693d 60b8 26bd d08e 2cbb a81b b03c
00000150: 8bd4 9b3d 9443 0cbd 9990 243d 8bbc 813c
00000160: ad6e 8b3d bbe1 923d 0f90 103d e90d 17bd
00000170: 1e5f 0abd 37cb e03c d48b 413d c3d4 6dbc
00000180: 70f7 1a3d 08a3 89bd 50dc 323d 312c 9bbc
00000190: 45f6 82bd e2ea 91bd c36e 8bbd e0ee 733d
000001a0: 706b 3abd c4c6 a1bd a7a6 95bd 4119 04be
000001b0: 26a7 eabc ca96 8cbd 37a4 59bc 515c f03c
000001c0: 8288 cbbd 680c ce3c bbd4 33bd 56fb bcbd
000001d0: fc47 78bd 3558 a6bc 7e05 543c b369 46bc
000001e0: 2cee 8abd 86ea 1a3d 8571 3d3c 4a9c 09be
000001f0: d508 7ebc fe30 20bd 4476 1abd ae3a c0bc
00000200: 6963 61bd 7bf0 043e 8a2d f6bd 193a 893d
00000210: 13d3 b6bd bff1 9cbc 9ad2 17bd 9f21 26bd
00000220: 793d 013c 2ab6 803d 4f39 72bd 8fba 7abd
00000230: a8e0 4b3d d007 1b3d 25d7 783d bdae 663d
00000240: b338 87bb c509 a6bd 0082 c73c fc70 64bd
00000250: be0b eabd e4ad 5cbd 6b22 d5bc a670 103e
00000260: e39f 563d 98a8 993d c62d 783d 8824 84bd
00000270: 1e9e 6f3d b28f 77bd 552e 82bc 3167 b83d
00000280: 211f 87bd 6da4 1bbc 8062 7abd ff11 553d
00000290: f20f 4c3d cd75 bbbd 2862 483c 28cd a5bc
000002a0: 41a4 ccbd d0a3 163d 06d5 233d b3b9 113d
000002b0: 98b3 89bc ad14 6ebd 70f7 dabc 885a cb3c
000002c0: db97 4bbc dad0 b2bd ef5c 723d a613 503d
000002d0: 0ced 2abd 1d37 793d 4f64 2cbd 9523 3e3d
000002e0: 7692 c13d 5786 b4bd 29d8 ecbc b573 10bc
000002f0: 868f cc3c f7bb 77bd 4eea 71bd 0b71 b13b
00000300: 40a3 03bd 4028 9c3d bab0 8b3b 2fa9 0abd
00000310: 1080 2ebd 66bf 63bd 0602 76bd 212e 71bc
00000320: f857 f63b 4265 07be cbee bfbd 6c3f 9a3c
00000330: 750f e0bd e04f a83d 6fbd ad3d e9f2 373d
00000340: 2eca 743b 0828 4a3d f604 a5bd 4ecc a9bd
00000350: 6f09 c53d 258f a0bd e9f0 9ebd 34f2 fabc
00000360: 87b0 263c 5c28 e63c 585f 1ebd 3a1c 19ba
00000370: 8f4b 71bc cc07 bd3d 16f7 c03d 9351 5d3d
00000380: 223d ad3c 5386 973d 1050 a3bd 1d95 3d3d
00000390: 75d9 4ebd fbb2 ac3d db5a a1bd 4dc9 323d
000003a0: 2314 77bd f23d 8d3d 4691 d73c dd01 b73d
000003b0: ea52 82bd aed1 893d 8b66 48bd 0403 28bd
000003c0: 242a 2d3d 8b17 62bc f570 9fbd 7a7d 9dbd
000003d0: 63b0 a7bc 1aa9 223d 0f64 c03d 523e b13d
000003e0: 76b7 1a3c cefd 4cbd 3363 98bd 26a6 c33d
000003f0: 7438 10bd 8d88 06bc 9872 82bd 56cb 41bd

word_embeddings_layer.convs2.2.0.bias f4 [10]
-0.03088422 0.091554 0.037512988 -0.01977292 0.051965564 -0.022213088 -0.016221702 0.039854288
0.012636735 -0.004539906
00000000: e700 fdbc aa80 bb3d 38a7 193d d2fa a1bc
00000010: d8d9 543d 39f8 b5bc 60e3 84bc 403e 233d
00000020: 4f0a 4f3c 7ec3 94bb

word_embeddings_layer.linear.0.weight f4 [30, 30]
0.19336098 0.03718436 -0.07337849 -0.079072155 0.12075243 -0.048571486 0.13507494 -0.13408178
0.023857882 -0.1330085 0.09072467 0.17708382 0.10710872 -0.029208843 -0.1439882 -0.05600819
-0.07574868 0.20177694 -0.06736089 0.097168215 0.17362742 0.09161477 -0.13212997 0.043488324
-0.027259383 0.16547799 0.0027041573 0.02698048 0.18759513 0.0733271 0.0918341 -0.05900596
0.12725045 0.03118456 -0.06302116 0.03996067 -0.13707444 0.016168911 0.08597147 -0.20368083
-0.074353784 0.1152548 0.0294933 0.010766159 0.028531568 -0.06886112 0.16706176 -0.011400785
-0.05874727 0.0995963 -0.14118315 -0.079147846 0.015305956 -0.08695944 0.08846235 -0.143956
-0.04397352 -0.08172639 0.20984991 0.06750727 -0.13619356 0.0707593 -0.003871873 0.16713318
0.1007562 -0.10662837 0.16274476 -0.032654375 -0.041573867 0.05459474 0.18138942 0.055087924
-0.17615917 -0.058282256 0.17001066 -0.064348795 -0.0878355 -0.14552748 -0.10078337 -0.09982155
0.043603644 0.07294303 0.17424425 0.119817674 0.0026977211 0.09846151 0.104357064 -0.1574748
0.09212604 -0.12489304 0.19256674 -0.0370006 0.09076569 0.048807696 0.042591665 0.07746489
-0.08523355 0.10866494 0.16008356 -0.059206583 -0.15146351 -0.07782496 -0.07318122 -0.019766303
0.06049067 -0.038879436 0.0065744333 0.16353866 0.055641133 -0.060743496 -0.0010895862 -0.07870708
-0.014391712 -0.20948185 0.06275607 -0.17253426 0.12454634 0.16593081 -0.14128163 -0.052582774
-0.15785287 0.033038966 0.02227654 -0.109605804 0.1351813 0.062375154 -0.17457841 -0.021072779
-0.092978165 -0.0270464 0.12557973 -0.034319755 -0.115767024 0.13792872 -0.17595392 -0.03959101
0.05953289 0.14955354 0.16369854 -0.056939814 0.047647353 -0.16994412 -0.044122536 -0.036215905
0.051736712 -0.09703348 0.026129639 0.09319929 0.16716239 -0.04682704 0.17337556 -0.17145875
-0.045001797 0.07686057 0.026164055 0.088996716 -0.11476862 0.103716955 -0.16115351 -0.11853246
-0.021972023 -0.17920615 -0.1868742 -0.17696287 0.1437548 0.026689833 -0.0562505 -0.005318298
-0.1579396 -0.17021741 -0.120771706 -0.1857097 0.13044932 -0.10599849 -0.04952477 -0.19844447
0.039088763 -0.05375395 -0.13604644 0.115578726 0.13601504 -0.14661668 0.08634097 -0.052854765
0.018727059 0.062992826 -0.05135451 0.14538977 0.086633444 -0.10069128 -0.11855197 -0.19369903
0.036196522 -0.16249874 -0.16005816 -0.12228838 -0.17970006 -0.16156901 0.15195082 0.0871743
0.14613909 -0.09772337 -0.09875505 -0.07032891 0.002913573 -0.13724388 0.005489176 -0.118894815
0.011319898 0.15467064 0.01881724 0.12626517 -0.14197654 -0.03583005 -0.10301671 -0.031707577
-0.073084965 -0.09766985 -0.18619397 -0.06587579 0.03611602 -0.040122017 -0.16116853 0.1469097
0.1313758 -0.09854963 0.014706736 0.108166754 -0.18110749 -0.17253298 0.09338174 -0.0017493747
0.052733477 -0.06496405 0.0235872 0.12495675 -0.05614263 -0.04925449 -0.16339906 -0.03826932
0.1059382 -0.18187134 -0.024161922 0.13125607 -0.04293807 -0.0772176 -0.06429295 -0.08357088
0.021030232 -0.16647048 0.059673376 -0.0556323 -0.03331644 -0.021541769 0.091923125 -0.11907895
00000000: 6c00 463e a14e 183d 7647 96bd 95f0 a1bd
00000010: 0d4d f73d e5f2 46bd 1651 0a3e bc4c 09be
00000020: 9b71 c33c 6133 08be dbcd b93d 7655 353e
00000030: d15b db3d 6247 efbc a571 13be d868 65bd
00000040: 2022 9bbd 9d9e 4e3e 82f4 89bd 2100 c73d
00000050: 63cb 313e 86a0 bb3d 144d 07be d020 323d
00000060: 124f dfbc 1073 293e 3b38 313b 2b06 dd3c
00000070: f018 403e 852c 963d 8413 bc3d 3cb0 71bd
00000080: f14d 023e c376 ff3c 3d11 81bd cdad 233d
00000090: 3e5d 0cbe aa74 843c cf11 b03d b591 50be
000000a0: cc46 98bd b50a ec3d ef9b f13c 8b64 303c
000000b0: 09bb e93c 0f07 8dbd 3d12 2b3e 5cca 3abc
000000c0: faa0 70bd 25f9 cb3d 5192 10be 4418 a2bd
000000d0: d5c5 7a3c ca17 b2bd c02b b53d 3469 13be
000000e0: 941d 34bd 2a60 a7bd e5e2 563e 4041 8a3d
000000f0: 5376 0bbe 40ea 903d 40bf 7dbb f624 2b3e
00000100: 4459 ce3d fa5f dabd 90a6 263e 98c0 05bd
00000110: 5c49 2abd bc9e 5f3d 26be 393e e0a3 613d
00000120: 1263 34be 60b9 6ebd 4617 2e3e 4dc9 83bd
00000130: 19e3 b3bd 2805 15be 8367 cebd 3e6f ccbd
00000140: bc99 323d 2863 953d 166d 323e f862 f53d
00000150: 40cc 303b 30a6 c93d 28b9 d53d 1341 21be
00000160: 94ac bc3d ecc7 ffbd 3730 453e f18d 17bd
00000170: 5de3 b93d 94ea 473d 9974 2e3d eaa5 9e3d
00000180: ed8e aebd b98b de3d f2ec 233e 9a82 72bd
00000190: 4019 1bbe b162 9fbd 09e0 95bd f1ec a1bc
000001a0: 11c5 773d 0b40 1fbd 586e d73b ae76 273e
000001b0: f5e7 633d 2cce 78bd 72d0 8eba 2d31 a1bd
000001c0: 37cb 6bbc 6982 56be 4186 803d d2ac 30be
000001d0: 2712 ff3d c4e9 293e 22ac 10be 0961 57bd
000001e0: 2fa4 21be de53 073d 4a7d b63c 0279 e0bd
000001f0: f76c 0a3e 177d 7f3d afc4 32be d2a0 acbc
00000200: 566b bebd 6990 ddbc f997 003e df92 0cbd
00000210: 4317 edbd 303d 0d3e 442d 34be 2f2a 22bd
00000220: c2d8 733d 9024 193e 97a0 273e b939 69bd
00000230: df29 433d d505 2ebe d5b9 34bd 2157 14bd
00000240: e0e9 533d 7db9 c6bd d30d d63c 45df be3d
00000250: 9e2c 2b3e b6cd 3fbd 5d89 313e e292 2fbe
00000260: ce53 38bd 1369 9d3d 0056 d63c e943 b63d
00000270: cf0b ebbd 8e69 d43d 6d05 25be 25c1 f2bd
00000280: acfe b3bc d181 37be f35b 3fbe c135 35be
00000290: 7534 133e a3a4 da3c ed66 66bd 1e45 aebb
000002a0: ebba 21be 794d 2ebe 2857 f7bd af2a 3ebe
000002b0: 8294 053e bc15 d9bd 7cda 4abd 0735 4bbe
000002c0: 8a1b 203d 1a2d 5cbd c24f 0bbe 8ab4 ec3d
000002d0: 8747 0b3e af22 16be 89d3 b03d 3d7e 58bd
000002e0: 7d69 993c 6202 813d 1b59 52bd 0ee1 143e
000002f0: e06c b13d 3b37 cebd 60cb f2bd 0a59 46be
00000300: ce42 143d 1266 26be 49e6 23be 5572 fabd
00000310: 4b03 38be 5972 25be ff98 1b3e 7088 b23d
00000320: 7ca5 153e 3123 c8bd 1640 cabd 9b08 90bd
00000330: a5f1 3e3b a989 0cbe 8cde b33b 207f f3bd
00000340: 1877 393c fb61 1e3e 9d26 9a3c a84b 013e
00000350: 4c62 11be 88c2 12bd 6dfa d2bd cedf 01bd
00000360: 92ad 95bd 2107 c8bd a2a9 3ebe e3e9 86bd
00000370: 64ee 133d fc56 24bd 5d09 25be 7f6f 163e
00000380: 6187 063e 63d4 c9bd 86f4 703c 8886 dd3d
00000390: 3e74 39be 7cac 30be ed3e bf3d 464b e5ba
000003a0: 0fff 573d df0b 85bd f239 c13c 53e9 ff3d
000003b0: d0f5 65bd 13bf 49bd 1552 27be 4ac0 1cbd
000003c0: 21f6 d83d 7b3c 3abe 39ef c5bc fe67 063e
000003d0: d4df 2fbd 4324 9ebd 06ac 83bd 3627 abbd
000003e0: 9847 ac3c 3d77 2abe 126c 743d b2de 63bd
000003f0: d276 08bd 5d78 b0bc 3142 bc3d aadf f3bd

word_embeddings_layer.linear.0.bias f4 [30]
0.0059013492 -0.0012031426 -0.15052499 0.0511402 -0.09847063 0.113700695 0.14305833 -0.17955792
-0.11565657 0.19614173 -0.07792673 0.16127446 0.1453831 -0.06393433 -0.16582912 0.07354979
0.073500484 0.16665855 0.05177261 0.12394735 -0.1536774 0.025559038 0.041050445 0.10078922
-0.11591962 -0.038707536 -0.07397028 -0.099857606 0.07691039 0.03666047
00000000: 1b60 c13b c4b2 9dba 3923 1abe 6378 513d
00000010: f8aa c9bd e9db e83d e27d 123e 08de 37be
00000020: 5add ecbd 61d9 483e 0d98 9fbd 2225 253e
00000030: 4fdf 143e 01f0 82bd 1ccf 29be 46a1 963d
00000040: 6c87 963d 8aa8 2a3e 840f 543d 1cd8 fd3d
00000050: 9c5d 1dbe 3061 d13c 8324 283d 946a ce3d
00000060: 4467 edbd cb8b 1ebd bb7d 97bd 2582 ccbd
00000070: 3283 9d3d 4a29 163d

bilstm.weight_ih_l0 f4 [8, 30]
0.28738433 -0.010941924 -0.008245946 -0.027822 0.40404952 -0.4794961 0.1446366 0.4177682
0.40949833 -0.32254097 0.5912675 -0.45971483 0.38980818 0.60172325 0.044847105 0.2682545
-0.6235467 -0.26504868 -0.26083663 -0.64826465 -0.13872455 0.500488 -0.058547914 0.7501192
-0.60513824 0.35777077 0.6148269 0.706371 -0.22741237 -0.6249223 -0.28492445 0.49631122
0.045014746 0.6715669 -0.531472 -0.4539508 0.33118784 0.20733185 -0.48346767 0.63963765
-0.30561423 -0.6131564 0.16663902 -0.4343618 -0.35714558 -0.4138746 0.19686432 0.32324967
0.44666463 -0.42018035 -0.20031112 0.71824825 -0.40637237 -0.30218175 -0.12877934 -0.6398519
-0.5415989 0.6310383 0.10367024 0.10601432 0.35327697 0.50345194 0.5546165 0.59094065
0.22301604 0.61211747 0.53267616 -0.06666848 0.14063461 -0.29424125 -0.578052 0.7487511
-0.50340647 -0.43728548 -0.6212282 -0.58666486 0.25557095 0.42642564 -0.51751953 0.13259946
-0.4615689 0.23786382 0.48860788 -0.24670686 -0.24394737 0.45719865 -0.37920594 -0.049182605
-0.60709506 0.56935644 0.19622728 -0.3117402 0.4805497 0.6602415 0.29758775 -0.51739085
-0.18510474 0.5314327 0.48463097 -0.255595 0.43256336 -0.49058664 0.15798585 0.5834718
0.103619434 -0.5793425 0.20539294 0.37902436 0.45995772 -0.49011067 -0.16388741 -0.0015231518
-0.16649601 -0.2029999 -0.2554618 0.22339937 0.31066793 -0.14879319 0.52732074 -0.033543427
0.15619224 0.16455488 -0.25382957 -0.027618604 -0.102724984 0.25754777 -0.39347735 -0.35792786
-0.6878159 -0.3246639 0.18668027 0.5533742 -0.70768315 -0.27275422 0.41523597 -0.40987685
0.45372456 0.015716383 -0.6844457 0.10897832 -0.44662648 0.12775101 -0.6457414 0.6341068
-0.31887245 0.4307921 -0.4515978 -0.6119024 0.2565432 0.406971 0.022285057 -0.56419533
-0.168998 -0.46742517 0.18921174 0.13631544 0.5181571 0.7394767 -0.29280016 0.5863711
0.5097953 0.13840336 -0.66752046 -0.45696992 0.32981774 0.5389609 0.39045042 0.08701928
-0.39767104 -0.5904042 -0.36925444 -0.0007124702 0.14081231 0.58579516 -0.50098246 0.3864151
0.6294994 -0.62328625 -0.35590616 -0.16598028 0.20054941 0.7152616 0.22352836 0.6127896
0.48742238 0.6496672 -0.59571457 -0.42324933 0.0516009 0.07844917 -0.03128056 0.66380996
0.6662497 -0.18321852 -0.29129258 0.01280888 0.14238349 0.5303732 0.31725785 0.31573775
0.28091836 0.6567503 0.48801497 -0.039350115 -0.4317452 0.48310372 0.039094876 -0.43583784
-0.12058549 0.59225893 -0.34649715 -0.08744086 0.22220123 0.51717305 -0.09789974 -0.5190269
-0.32255363 -0.25386906 0.06037259 -0.49414113 0.5752803 0.16804762 -0.53415936 0.35790244
0.015076065 0.66887045 -0.022629363 -0.017613206 -0.7056673 -0.5974298 -0.0248379 0.6369754
-0.4659456 0.107454404 -0.49173683 -0.56428516 -0.27415404 -0.47935253 -0.6094211 -0.237117
00000000: 0a24 933e c145 33bc 011a 07bc f7ea e3bc
00000010: 94df ce3e 8380 f5be 9e1b 143e b7e5 d53e
00000020: c4a9 d13e 1724 a5be 4f5d 173f be5f ebbe
00000030: f094 c73e 890a 1a3f 99b1 373d a758 893e
00000040: c2a0 1fbf 76b4 87be 618c 85be acf4 25bf
00000050: cf0d 0ebe fb1f 003f f0cf 6fbd d007 403f
00000060: 57ea 1abf bb2d b73e 4c65 1d3f bbd4 343f
00000070: cade 68be e8fa 1fbf 9ee1 91be 811c fe3e
00000080: 6261 383d cfeb 2b3f 8d0e 08bf 3d6c e8be
00000090: 7491 a93e cd4e 543e 1389 f7be 4bbf 233f
000000a0: 7879 9cbe d1f7 1cbf 6ba3 2a3e ab64 debe
000000b0: c9db b6be 5fe7 d3be cd96 493e fb80 a53e
000000c0: 3ab1 e43e e121 d7be 5c1e 4dbe 1edf 373f
000000d0: 0a10 d0be 91b7 9abe bbde 03be 56cd 23bf
000000e0: 3aa6 0abf ba8b 213f 1051 d43d 091e d93d
000000f0: b8e0 b43e 3ae2 003f 59fb 0d3f e347 173f
00000100: 515e 643e bbb3 1c3f 775d 083f 7c89 88bd
00000110: 8502 103e caa6 96be 37fb 13bf 27ae 3f3f
00000120: 3fdf 00bf e2e3 dfbe d008 1fbf ab2f 16bf
00000130: 32da 823e 7654 da3e 297c 04bf 27c8 073e
00000140: c252 ecbe 9392 733e d02a fa3e b9a0 7cbe
00000150: 57cd 79be f115 ea3e 4827 c2be b373 49bd
00000160: 956a 1bbf 58c1 113f ceef 483e 699c 9fbe
00000170: 9c0a f63e 9605 293f 6c5d 983e ba73 04bf
00000180: 198c 3dbe f90b 083f 8d21 f83e 59dd 82be
00000190: f278 dd3e 2c2e fbbe 0bc7 213e 685e 153f
000001a0: 6d36 d43d ca4f 14bf 8752 523e 7b0f c23e
000001b0: 947f eb3e c9ef fabe 1ad2 27be 7ea4 c7ba
000001c0: ee7d 2abe 35df 4fbe e4cb 82be cec2 643e
000001d0: de0f 9f3e 3e5d 18be 7efe 063f d564 09bd
000001e0: dcf0 1f3e 1381 283e f3f5 81be 6940 e2bc
000001f0: 7a61 d2bd 4ddd 833e dd75 c9be 5242 b7be
00000200: b414 30bf 593a a6be 1d29 3f3e eea9 0d3f
00000210: b92a 35bf 71a6 8bbe cf99 d43e 61db d1be
00000220: 964e e83e a5bf 803c d537 2fbf 0730 df3d
00000230: 3aac e4be 29d1 023e 4f4f 25bf d354 223f
00000240: 4043 a3be c890 dc3e d437 e7be a3a5 1cbf
00000250: a159 833e 815e d03e 278f b63c 1b6f 10bf
00000260: d00d 2dbe 5a52 efbe b9c0 413e 4696 0b3e
00000270: f2a5 043f 584e 3d3f e7e9 95be 6b1c 163f
00000280: f281 023f 9cb9 0d3e 9fe2 2abf f6f7 e9be
00000290: dfdd a83e 57f9 093f 1ee9 c73e 2a37 b23d
000002a0: 8a9b cbbe bb24 17bf eb0e bdbe 11c5 3aba
000002b0: 1a31 103e acf6 153f 6340 00bf 33d8 c53e
000002c0: df26 213f b08f 1fbf 5539 b6be bcf6 29be
000002d0: d35c 4d3e 621b 373f 9ee4 643e c7df 1c3f
000002e0: 6d8f f93e 9750 263f c080 18bf 23b4 d8be
000002f0: 775b 533d f5a9 a03d 0b20 00bd 73ef 293f
00000300: 578f 2a3f a39d 3bbe 4d24 95be 56dc 513c
00000310: facc 113e 8ac6 073f 9f6f a23e 61a8 a13e
00000320: 88d4 8f3e ca20 283f 19dd f93e 962d 21bd
00000330: b50d ddbe 5f59 f73e f321 203d 2326 dfbe
00000340: 86f5 f6bd 489e 173f 1368 b1be 3214 b3bd
00000350: b888 633e 7465 043f a97f c8bd f2de 04bf
00000360: c025 a5be 20fb 81be 4049 773d 1100 fdbe
00000370: 9245 133f ad14 2c3e abbe 08bf fd3e b73e
00000380: 9a01 773c 183b 2b3f 3761 b9bc 9249 90bc
00000390: 9da6 34bf 29f1 18bf da78 cbbc d210 233f
000003a0: 6c90 eebe 0e11 dc3d eec4 fbbe fe74 10bf
000003b0: eb5d 8cbe b26d f5be 0503 1cbf cdce 72be

bilstm.weight_hh_l0 f4 [8, 2]
-0.2473469 0.35264227 0.360533 0.010685554 -0.23015614 -0.19404963 -0.5448999 0.5120793
0.71587837 -0.62519664 -0.7068936 -0.680685 -0.19274226 -0.02345355 -0.4291865 0.4115481
00000000: 8148 7dbe 878d b43e c897 b83e 7612 2f3c
00000010: 0dae 6bbe f2b4 46be 8f7e 0bbf a117 033f
00000020: ce43 373f e30c 20bf fbf6 34bf 5f41 2ebf
00000030: 3a5e 45be a921 c0bc 55be dbbe 6fb6 d23e

bilstm.bias_ih_l0 f4 [8]
0.056597296 -0.38060394 -0.61065197 0.5242524 0.6806186 0.089466564 -0.28880686 0.4269763
00000000: 91d2 673d 85de c2be b053 1cbf 6835 063f
00000010: 053d 2e3f 3f3a b73d 7ede 93be a39c da3e

bilstm.bias_hh_l0 f4 [8]
0.42675897 -0.12415405 0.7365029 -0.54889023 -0.10174218 0.6230573 -0.38767418 -0.24069373
00000000: 2780 da3e 7b44 febd 748b 3c3f 1284 0cbf
00000010: 345e d0bd af80 1f3f 3b7d c6be 6b78 76be
