subtaskC/cnn-char-bilstm/checkpoints/epoch-5.pt (torch, 32142 bytes, 29 tensors)

word_embeddings_layer.char_embeds_layer.weight f4 [148, 8]
00000000: 46ab f13f 4da9 bd3f 0bb7 653f 7421 06c0
00000010: c35f 393f 3caa 9cbf 3601 9bbd 6af7 c9bf
00000020: dc52 40bf 0627 d83f e34e d4be 459a b3bf
00000030: c38c 43bf d438 15bf 6a59 4abf a2f4 383f
00000040: 05c6 cd3f 36d6 51be 0155 0cbf 7366 e93e
00000050: f974 55bf 150c 873f 43e6 5c3f ced0 d83f
00000060: 3147 a23f 6087 a23f 49de 213f 24fc ad3f
00000070: 2e28 7abe 28b9 c5bc 9646 66be 5e07 503f
00000080: a219 b4bf 128b 62bf 9cdd 5dbe 0dc5 de3f
00000090: 0f67 ac3e 11e5 02bf ae71 a33e 4f5e 52bf
000000a0: cb32 cdbf ff1e 803f 34dc 71bf aefc 0cbf
000000b0: 3841 a4bf ee06 0440 3280 9ebf 9057 08bf
000000c0: 6e90 64bf 57cd 15bf 9bdb 7d3d 02bb ff3e
000000d0: 7e84 fbbe 0c56 903f 7336 58bf 4667 38bf
000000e0: 254f b7bf 86aa de3d 0087 85bd 5a5c 4c3f
000000f0: dd70 04be f977 e13f f5a5 97bf 1e25 b63f
00000100: 59bf bc3f 02df 6f3f bfc4 1240 3712 163f
00000110: 4adb b03e a310 88be 2c01 90bf 4c03 aa3f
00000120: 991e 8ebe 8fe3 d73e 16b0 35bd 9da1 173f
00000130: 8c31 fd3e 19f9 0abf c6f6 09c0 be7c 5dbf
00000140: 35e5 bfbc cb39 c5be fe00 b5bf e5a4 08bf
00000150: b506 0b3f 4bb8 283f 911b a13f a247 85bd
00000160: 85bd 383f fe9e dabe 00ea 7abf be7a f83e
00000170: efc2 dbbf 2261 4ebf d354 963f b0a3 de3e
00000180: 70f6 22c0 0afe f83e 5f48 443f 21f1 33bd
00000190: 5316 243f 6d8b 153f 3bc3 803f b5f8 00bf
000001a0: dfd6 8bbe 3d6c 3f3f f2a0 c33e 88aa a83d
000001b0: 96c7 3c3e f7c4 b03f bef6 b23d d8dd 9cbe
000001c0: 8e7f bdbf 988e 69bd 316b 13bf d723 ac3e
000001d0: f673 363f 7d0e 243d 3cc0 e2be 113c 063f
000001e0: 140e 883d ca77 c23e 2c98 3c3e 2d89 453f
000001f0: ccb5 843f 9216 793e f432 223f 2e4c 063f
00000200: a957 ee3f 92df 6b3f 6731 bfbf 6555 8cbf
00000210: 5272 f7bd c428 f73f eae9 3f3f 868d 063f
00000220: 488a 983f 9cb3 ccbc 73be eebf b697 803f
00000230: 636b e3be d28e 813f c155 3dbf 0ab8 1f3f
00000240: ce5f 82bf 824e 713f 851d c53f 2a20 cc3f
00000250: 2d5a cb3e 93b9 abbd f761 2dbf cde6 adbb
00000260: 4fac c63e d2cc 873f 0511 e6be ee3e c83f
00000270: 48fb 1fc0 d5d7 fbbe 9ad8 91bf 140f 4b3f
00000280: 26a5 f5bf d789 8a3e 9990 103e e631 c9be
00000290: b086 a63e fb1f 41bf 9eb2 063e 7273 9abf
000002a0: c2ee ebbf 8385 a93f abb2 a23f bddb 063e
000002b0: f573 b5bf a8b2 313f 3a83 783f 777e fc3f
000002c0: ae1e ce3b 9c2a cf3d bbf6 3bbf ee70 60be
000002d0: 5ed2 5abf 75db d5bf 73a4 8ebf 756f 1dbf
000002e0: 9a28 05bf de82 cebf f92a 00c0 a3d8 883e
000002f0: cd6c 773f 5acf 38bf 20a2 3c3f a6b1 303f
00000300: 2c59 df3f d126 70bf e81c 783f 2fec aebe
00000310: 395a 99bf 29d1 8b3e 7bfc f13e 501e af3f
00000320: 01ac 063f a22b 0740 5750 05bf f097 6ebf
00000330: ef9a 3d3e e5ca 883f 843c a73f 6e6f eb3e
00000340: 5e12 53bf eb30 83bf 484b 0bbf bca9 23bf
00000350: 58cd b43c 10e4 d13e 31fb 39be 5913 17c0
00000360: 4367 cfbe 7f67 8b3f ab1f efbf 9bdb c23f
00000370: 57ad 613e 0c1d 9bbe 10a0 7d3f 2f1d d93f
00000380: e4d3 c43e bd02 0840 2471 1c3f 993e bdbf
00000390: 186f 81bf b1ee 26be 8eb1 c83e 6473 2140
000003a0: 473c c93e 22e1 66bf 4d96 16c0 9fa0 a5bf
000003b0: 3479 cfbe 87b2 1bbe 2c56 8cbd a33f 5a3f
000003c0: 7adb 6dbf e468 8d3e b8f3 09bf 98d7 ec3e
000003d0: 2134 5fbf 2f27 debc a1dc b4be ab5f bb3f
000003e0: 12b2 a03f 5807 37bf 779a 5a3f 6353 033f
000003f0: d02b 0a3f f0c4 103f 917b 013f e6ca 633e
1.8880394 1.4817291 0.89732426 -2.0957918 0.72411746 -1.2239451 -0.0756859 -1.577863
-0.75126433 1.6886909 -0.41466436 -1.4031454 -0.7638666 -0.5828984 -0.79042685 0.7224828
1.6076056 -0.20491871 -0.54817206 0.45585975 -0.8338161 1.0550562 0.8628885 1.6938722
1.2677976 1.2697563 0.63229805 1.3592572 -0.2442939 -0.024136141 -0.22487864 0.8126124
-1.4070323 -0.88493454 -0.21666569 1.7403885 0.33672377 -0.5113078 0.31922668 -0.82175153
-1.6031126 1.0009459 -0.9447663 -0.5507306 -1.2832403 2.062923 -1.2382872 -0.5325861
-0.8928288 -0.5851645 0.06197701 0.49947363 -0.4912452 1.127626 -0.8445808 -0.7203258
-1.4321028 0.108723685 -0.0651989 0.7982842 -0.12933679 1.7614738 -1.1847521 1.4230077
1.4745895 0.9369966 2.2932584 0.58621544 0.34542304 -0.26575193 -1.1250358 1.3282256
-0.2775772 0.421658 -0.04435738 0.5923098 0.49451864 -0.5428634 -2.1556869 -0.86518466
-0.023424724 -0.38520655 -1.4140928 -0.5337661 0.5430711 0.6590621 1.2586538 -0.065078035
0.72164184 -0.42699426 -0.98013306 0.48531145 -1.7168864 -0.8061696 1.1744636 0.4348426
-2.5462914 0.48631316 0.7667293 -0.04393113 0.64096564 0.5841587 1.005958 -0.50379497
-0.2731237 0.74774534 0.3820873 0.08235651 0.18435511 1.3810109 0.087384686 -0.30638003
-1.4804552 -0.057020754 -0.57585436 0.33621094 0.7127069 0.04005288 -0.44287288 0.52435404
0.0664331 0.37982017 0.18417424 0.7716244 1.036798 0.24325016 0.63359 0.5245999
1.8620502 0.92138016 -1.4936951 -1.096356 -0.12082352 1.9309316 0.749663 0.525597
1.19172 -0.024987988 -1.865187 1.0046299 -0.44417867 1.012171 -0.73958975 0.62390196
-1.0185487 0.9426042 1.5399634 1.5947316 0.39717236 -0.08385005 -0.6772761 -0.0053070546
0.38803336 1.0609381 -0.4493486 1.5644205 -2.499712 -0.49188104 -1.1394227 0.7931988
-1.9191024 0.27058288 0.1411766 -0.39295882 0.32524633 -0.75439423 0.13154075 -1.2066481
-1.8432238 1.324387 1.2710775 0.13169761 -1.4176012 0.6941323 0.97075236 1.9726094
0.0062902784 0.10115549 -0.73423356 -0.2191808 -0.85477245 -1.6707598 -1.1143936 -0.61498195
-0.5201508 -1.6133687 -2.0026228 0.2672778 0.9665039 -0.72191393 0.73684883 0.6902107
1.7449088 -0.9380923 0.9691911 -0.3416457 -1.1980659 0.27308014 0.4726294 1.3681126
0.5260621 2.1120381 -0.52075714 -0.9320059 0.18516134 1.0686918 1.3065343 0.45983452
-0.824499 -1.0249304 -0.54411745 -0.6393087 0.022070572 0.4099431 -0.18162228 -2.360556
-0.4050847 1.089096 -1.8681539 1.5223268 0.2203878 -0.30295599 0.9907236 1.6962031
0.3844291 2.1251671 0.6111014 -1.4784728 -1.0112028 -0.16301991 0.39197963 2.522668
0.393038 -0.90187275 -2.3529236 -1.2939643 -0.40522158 -0.15204822 -0.068523735 0.8525335
-0.9291302 0.27619088 -0.5388751 0.46258235 -0.8718892 -0.027118294 -0.35324576 1.463857
1.2554343 -0.7149558 0.85391945 0.51299113 0.539731 0.565505 0.5057917 0.22245368

word_embeddings_layer.conv1.0.weight f4 [21, 8, 3]
00000000: bb6c f23c 1e79 34bd 477a 323c ae6f 9abd
00000010: 624a ba3c 177e 0d3e 3773 91bd 1f1b 083e
00000020: a88b 283e 0436 04be 1673 fdbd 1527 4ebe
00000030: f4ba cfbd d1a1 0dbe bb0a 03bd 5c60 2ebd
00000040: ab6d e8bd f018 81bd 3f1d e0bd 3fc6 443e
00000050: 063c 8abd 1345 b0bd c6e7 143e 8962 8f3c
00000060: b98a 063e 8f8d fe3d 52cb 243e a206 45be
00000070: c54e e53d add8 203e 936a e0bd 6570 f83d
00000080: 4486 223e 4ad7 a63d af4a ad3d 743f 6abd
00000090: d8f0 4cbe 7d38 433d 65d2 e53c 47ca 8cbd
000000a0: 6223 183e 6be5 2ebe 4d6c bd3d ece4 2f3c
000000b0: f037 ce3d 0636 9fbd dd80 223e fd80 b13d
000000c0: 5e5a 3f3d 0cef 1d3d 02f8 193e 91d9 cabd
000000d0: c6e0 b0bd 03ee a63d cf66 593b 6d79 e13d
000000e0: ea02 1bbd dd74 e93c 0987 723d cc26 1abd
000000f0: d802 4d3d 4398 4d3d 1865 65be 6dc7 c03c
00000100: 7421 30be 7aa1 c23c 4c40 8dbd a540 6fbe
00000110: 4c29 b1bd 5c54 7b3d 31d9 8fbd ba7d 8c3e
00000120: 8b1c 82bc ee46 2f3e 3fe0 863d c8b5 1fbe
00000130: 4e2f 9b3d 030d 403e aeb4 4bbe 2af7 03be
00000140: 0db7 5a3e fdc5 193e f27b fabd 33cc bb3d
00000150: e385 09bd 3c14 88be eb4d 893d 4795 f43d
00000160: d2fa d3bd 81fa 243d 89cf 3bbe b0aa 1f3d
00000170: 1566 223e df2e 3f3e e040 3c3e b12e a43d
00000180: cb83 2abe a51c 4f3a cfe6 033d 7d96 d1bd
00000190: 5482 1bbe 19af 1a3e 3117 9d3e 94a3 47be
000001a0: da43 ea3d 313b 013e 4471 273e cc7c f43d
000001b0: 5eb7 443e bc7a c3bd 2490 0f3e 211e ad3d
000001c0: e991 4dbe bba1 80be d622 113c c265 273c
000001d0: a68f 16be 51ff 1c3e b0b8 cf3c a28c a73d
000001e0: 880d 04be 300f 683e 2a98 2a3e ef73 2cbe
000001f0: 9045 8bbc 1fa7 6cbc a601 493d f7c5 363e
00000200: 3681 6a3d 1330 213c 5862 523e 230e 74bd
00000210: 6d9e b8bd 08ed 893c a214 abbd 6bb7 dc3b
00000220: 8b20 d4bd 1aab 69bb 248a 433d 8ac7 e23c
00000230: 46cf 13be 9042 e0bd 8cfe 303e 2ef0 6b3e
00000240: 6508 2ebe 806d fc3d 57cb f9bd e615 e23c
00000250: 8514 4d3e 42fe 3a3e d8c7 3abe 3e4a 2c3e
00000260: 65d4 2c3e 6d2d d83c ee17 5b3e 7f78 cfbd
00000270: 05cd 01be 3e05 1bbe 8a04 2e3d 698b 0b3e
00000280: d979 273d 8dd7 16be fdd9 d4bd 76fe f9bb
00000290: c79f 35be 61bb 803c a2fa 773d 3308 dcbd
000002a0: 5e11 ab3d 4627 873d f94c 913d 5d01 b9bd
000002b0: 2cbe 20be 7d7f 7b3d 7931 18bc 65f8 e5bd
000002c0: ef21 3cbe daa3 a43d 00ac 59be 1b9f 85ba
000002d0: bdba c53d 640d dfbd 6d1e efbd 808b e5bd
000002e0: 96ad 423e 2f68 4a3e 5b15 5d3d d085 8e3e
000002f0: 6f31 493e 8f7b 3ebe f68e 8f3d b223 753d
00000300: d746 483e 03a5 39bc e7ee b13d d455 8d3d
00000310: 5eeb d03d e7b4 85be 2294 2d3e 169b 9dbe
00000320: b5f2 cb3d 0a12 4c3d cb37 1bbe c2f6 913d
00000330: 9ed0 a0bd f541 86be 5b4a 08be abe6 3c3d
00000340: 3c0c 5c3e 53d7 85bd 5eb5 6b3e af55 a33c
00000350: acbe 3e3d be33 143e 39c9 b2bd 724e 13be
00000360: 69ed e5bd 5660 4cbe a887 b0bd 4cb7 85bd
00000370: 574f 0bbe a1d4 9bbd 5662 483d 62e2 8dba
00000380: bcc7 85bd c4e1 723d 3424 28bd 8045 883d
00000390: 10ff 9d3d c720 63bd 07aa 2e3d 3f24 1dbd
000003a0: 07a0 14be 001b a4bd eb41 103d a4fc 193e
000003b0: a81a fa3d 9eae a53d 8e1d 9fbd 9fe0 5dbe
000003c0: 7e05 2c3e 786b 10be 5499 95bb 824a b3bd
000003d0: 809b 93bd 5869 33bd be4f 323e 2933 b83d
000003e0: c35a be3d 21bb 623e 2935 3ebe fb9d 883c
000003f0: d88b 0a3e 3388 0f3e 69d0 67be 0529 643d
0.029592862 -0.04406082 0.010893411 -0.075408325 0.022740547 0.1381763 -0.071020536 0.13291596
0.16459525 -0.1291123 -0.123754665 -0.20132096 -0.1014308 -0.1383126 -0.031992655 -0.042572364
-0.113490425 -0.063035846 -0.10943078 0.1921625 -0.0674973 -0.08606925 0.1454154 0.01750304
0.13138856 0.12429344 0.16093186 -0.19240811 0.11196665 0.15707655 -0.109578274 0.121308126
0.15871531 0.08146532 0.084615104 -0.05718942 -0.2001375 0.047661293 0.028054425 -0.06874519
0.14857247 -0.17079704 0.09249172 0.010735732 0.10069263 -0.07773976 0.1586947 0.08667181
0.04671704 0.03855805 0.15036014 -0.09904779 -0.08636622 0.08150866 0.003317285 0.11009488
-0.037844576 0.028498108 0.05921081 -0.037634656 0.05005154 0.050194036 -0.22401845 0.023532594
-0.17200261 0.023758639 -0.06897029 -0.23364504 -0.08650455 0.06135975 -0.07023848 0.27439672
-0.015882751 0.17116901 0.0658574 -0.15596688 0.07577382 0.18754964 -0.19893143 -0.12887254
0.21358891 0.15016933 -0.12230672 0.09169807 -0.03357495 -0.26577938 0.06704315 0.11942535
-0.103505746 0.04027796 -0.18340887 0.03898114 0.15859254 0.18670224 0.18384123 0.08016718
-0.16651838 0.00079006917 0.032202538 -0.102337815 -0.15186435 0.15105857 0.30681756 -0.19495994
0.11438723 0.12620236 0.16351801 0.119378656 0.19210574 -0.09544894 0.14019829 0.08453012
-0.20075192 -0.2512339 0.008858403 0.010217132 -0.14703235 0.1533177 0.02535662 0.081811205
-0.12895787 0.22662044 0.16659608 -0.168411 -0.017000943 -0.014444142 0.049073838 0.17848955
0.05725213 0.009838122 0.20545328 -0.059583794 -0.09014592 0.016836658 -0.08353545 0.0067357323
-0.103577696 -0.0035654963 0.047739163 0.027683038 -0.14434537 -0.10950196 0.17284602 0.2304084
-0.1699539 0.12325573 -0.12196987 0.027598333 0.20027359 0.18261054 -0.18240297 0.16825196
0.16877897 0.026388848 0.21395847 -0.10130405 -0.12675865 -0.15138718 0.042484798 0.136274
0.040887687 -0.14730664 -0.103931405 -0.007629211 -0.17736731 0.01571435 0.060541756 -0.107437514
0.08352922 0.06599288 0.070947595 -0.09033463 -0.15697545 0.06140088 -0.009289139 -0.11229018
-0.1837232 0.08039065 -0.21257019 -0.0010194512 0.09654758 -0.10891226 -0.11675725 -0.11208248
0.1901153 0.19766305 0.053975444 0.27836466 0.19647764 -0.18601821 0.070096895 0.059848495
0.19558273 -0.011330846 0.08688145 0.06901136 0.10201143 -0.2611458 0.1695104 -0.30782384
0.09958402 0.04982189 -0.15158002 0.071271434 -0.078522906 -0.26222196 -0.13309614 0.04611842
0.21489042 -0.065352105 0.23018405 0.019938318 0.046568558 0.14472863 -0.087297864 -0.14385393
-0.11226923 -0.19958624 -0.086196244 -0.06529102 -0.13604484 -0.07608915 0.048921905 -0.0010824914
-0.06532237 0.059297338 -0.04105015 0.06653881 0.07714665 -0.05545118 0.04264262 -0.038364645
-0.1451417 -0.08012962 0.035219114 0.15037781 0.122121155 0.08089946 -0.07769309 -0.21667717
0.1679897 -0.14103496 -0.0045653973 -0.087544456 -0.07207394 -0.043801636 0.17413232 0.08994133
0.09294655 0.22141697 -0.18574966 0.016676893 0.13529909 0.140168 -0.22638096 0.05570318

word_embeddings_layer.conv1.0.bias f4 [21]
00000000: 15cf 31be 6e30 7b3d c08c 07be 0223 2ebd
00000010: d4f3 e83d 6605 353e 6242 d6bd 33db 4bbe
00000020: c012 65bb 2d50 923d 4773 9b3b 2087 35bd
00000030: efed edbd f86c 293d 655e 583e da1a bcbd
00000040: 44f2 e13d 2c8d d43d a50d 283e 6fc4 eabb
00000050: 8caf 22bd
-0.17364152 0.061325483 -0.13237286 -0.042513855 0.113746315 0.1767784 -0.1046188 -0.19907837
-0.0034953803 0.071441986 0.0047439667 -0.04431832 -0.11617648 0.041363686 0.21129759 -0.09184809
0.110325366 0.10378489 0.16411455 -0.00716453 -0.039718196

word_embeddings_layer.convs2.0.0.weight f4 [10, 21, 3]
00000000: 20af ba3d 737f a13d 2059 f63d 0d8d f6bc
00000010: 3772 5c3d 5e79 d93d 0c1a c5bd 72a3 683d
00000020: a671 423d 5f40 d43d 35c7 5e3c c9d6 673d
00000030: 1639 b23d 16dc 2dbd f570 bebd cb63 dc3c
00000040: 1a7d cd3d e6bd 393e 137c b9bd b22f e13c
00000050: 0567 8fbd 44d2 373d 2bfa 083e 4617 b73d
00000060: dc88 2fbd a6d8 8f3d 5e65 8739 7de1 043e
00000070: c92e 6abd 00db c0bd dcde 8b3d 499c 413c
00000080: c76c 583d 076d 63bd 4a16 d43d a9f5 1e3e
00000090: 5ed0 9e3d 0b3b 183d 45e4 f53d e157 a6bc
000000a0: bbad 89bc b62c db3d d43f b03d 49ae 82bd
000000b0: 2cd0 d73d 7465 3e3e 5633 dc3d 5c5d 873e
000000c0: 33af f9bc 7a47 243e 7559 363e 0810 04bd
000000d0: 41f2 01be e58e 0fbb 3f6d cebc 8f7a 26be
000000e0: dbab 44bd 172d 283d 5840 b43d efc4 853d
000000f0: 0abc 1e3e 2190 263e b02f febb d020 e7bd
00000100: cb15 3fbc 79da c03d 4059 9ebc f6a0 adbc
00000110: f27a e1bd 5cb9 8e3c 62bc e2bd 36f4 aa3d
00000120: 498e b43c fcc9 05bd 1df7 c53c 6039 e23d
00000130: b412 92bd fd61 4f3c 5dc2 da3d 2ccd 06bc
00000140: a49d 16be 2876 b63a 8ae5 f5bd 58d4 36be
00000150: c641 b93d 5764 8f3d 9e5e 8bbd 3003 e7bd
00000160: a433 0ebe 53df b83d 2065 f7bb b08e ebbd
00000170: 65a9 91bd 7c73 5f3d 4241 3ebd 9a41 e1bc
00000180: 95a1 4d3d b68d 67bd 6c62 1f3c 825b 883d
00000190: 2076 d2bd 24cc cdbc aae4 17be 42b5 d1bd
000001a0: 62c7 1b3e 23ce 67bd 1a72 873d dcdc 5dbd
000001b0: e874 f5bd 380e c1bd fbb9 d23d e08f 2ebd
000001c0: 703c b63d e78e a13d 5d00 fbbc 4a65 163e
000001d0: bafb 03be 78cb 713d 5f50 0abe 6391 91bd
000001e0: 95e6 7b3d 03df db3b 89fe e5bc 6cba 77bd
000001f0: adca eebd a122 c73d 2fd9 7dbd dc9b 54bd
00000200: e11d 913a 9fa6 293d 3c0f d8bd c632 38bd
00000210: 52c7 ff3d a1c6 953d 1809 04bd 82b1 1fbe
00000220: 2f89 3c3d 4dcc a93d 8bb5 afb9 6c41 a93d
00000230: cf5b d0bd 38c3 063d ef74 bbbd e51c c03d
00000240: 1059 9c3d ff87 023d 1769 0a3e 1218 90bc
00000250: fe58 05bd b1f4 35be 78c6 893d 13bb b43c
00000260: 8b72 fbbd ec0a 013d a014 fa3d f25f 74bd
00000270: b43f d73d 8e57 de3c fdc5 9dbc fa6c fb3d
00000280: 58a6 b93d fe94 aa3d 3f7b 473d d718 32bc
00000290: a225 04bd 83ff 84bd 5443 c03c 82fa d9bc
000002a0: 6016 e53c 3224 2b3c 243b 833c 7da9 d2bd
000002b0: 81dd e3bd 9ed5 ba3d cecb 003e 3e26 c33c
000002c0: 4d4d 15be 143c a0bd e3ea fbbd 6e1b db3c
000002d0: b562 c0bd e2c9 9e3c b8ec 643d 25e6 44be
000002e0: 73da 40bd f242 34bd 5421 c6bd f6e0 7a3d
000002f0: 3689 d0bc 8ff0 e63d 2d4d 8bbd 0990 a93d
00000300: 8240 a9bd 6647 51bd d000 553d e44e 183e
00000310: 40b4 dc3d e714 b7bd cac8 1c3d 3265 c1bc
00000320: 64ed df3c 24cd 3dbd 432f b03c 717c ab3d
00000330: 4cbe 7bbd a670 87bd 0609 513d f2d8 bf3d
00000340: 565e 5a3c e758 233e a24b 61bd 8280 e9bc
00000350: 2627 89bd 2f5a 923c b9ed 893a 6dfc fc3d
00000360: 1276 b23c b788 0a3d 6893 64bd 1e0a 113e
00000370: 85ff 0e3e 03a7 bfbd 6132 173d 34a7 70bd
00000380: 41ad bb3d f043 b5bd 676a 51bd 8240 0e3e
00000390: dc4f 48bd 1cd7 fc3d c305 493d 45b4 0a3e
000003a0: fefc 18bd 14d8 ff3d e066 603d fc57 b43c
000003b0: ae58 153e b017 aebd 1ea5 b2bd b283 093e
000003c0: a035 0abd 03aa 26be 7217 03bd ea03 12bd
000003d0: f6a5 45bc a7d9 49bd 594c 7f3d 5018 c9bd
000003e0: 8963 393d beca b53d de15 b73d 85d1 fe3b
000003f0: a44c 02bc f519 b6bd 87d9 58bd 9f8f f2bd
0.09115434 0.07885637 0.12028718 -0.030096555 0.05381986 0.10618852 -0.09624109 0.0567965
0.047471665 0.1036384 0.013597299 0.05660132 0.087022945 -0.04244622 -0.092988886 0.026903054
0.10033627 0.18138847 -0.090568684 0.027488563 -0.07002071 0.04487826 0.13376682 0.08939986
-0.04285513 0.07023744 0.0002582473 0.12976642 -0.057173524 -0.09416771 0.068296164 0.011817046
0.052838113 -0.0555239 0.10355814 0.155234 0.07754587 0.037165683 0.120064296 -0.020305576
-0.016806474 0.10701887 0.08605924 -0.063808985 0.105377525 0.18593389 0.10751979 0.26438415
-0.03047905 0.16042891 0.17807563 -0.03224185 -0.12690069 -0.002190524 -0.025198577 -0.1625769
-0.048015457 0.041058626 0.08801335 0.06531703 0.15501419 0.16265918 -0.0077571496 -0.11285555
-0.011662911 0.0941667 -0.019329667 -0.021194916 -0.11009778 0.01742237 -0.110710874 0.08347361
0.022040503 -0.03266333 0.024165684 0.110461 -0.071324736 0.01265764 0.10681603 -0.008227628
-0.14708573 0.0013920711 -0.12006672 -0.1785444 0.090457484 0.0700156 -0.06805156 -0.11279905
-0.13886887 0.09026971 -0.007549897 -0.11501825 -0.071123876 0.054553494 -0.046448953 -0.027497102
0.050202925 -0.05653163 0.009728055 0.06658079 -0.10276437 -0.025121756 -0.14833322 -0.1023965
0.15212777 -0.05659307 0.0661356 -0.054165706 -0.11985189 -0.0942654 0.10289379 -0.04261768
0.08898246 0.078885846 -0.030639822 0.14687076 -0.12888995 0.059031934 -0.13507222 -0.071078084
0.061499197 0.0067099347 -0.028075473 -0.06048052 -0.11659751 0.09723402 -0.0619747 -0.05190645
0.0011071527 0.041418668 -0.10549781 -0.044970296 0.12489189 0.07313276 -0.032235235 -0.15595058
0.046029266 0.082909204 -0.0003351386 0.08264431 -0.10173761 0.03290102 -0.09153163 0.09380511
0.07634175 0.031867977 0.13516651 -0.017589603 -0.032555573 -0.17769124 0.06727308 0.02206186
-0.12277707 0.031504557 0.12210965 -0.059661813 0.10510197 0.027141359 -0.019259447 0.12276645
0.09064931 0.08329199 0.04870152 -0.01087018 -0.032262452 -0.064940475 0.023469605 -0.02660871
0.02796477 0.010445641 0.016019411 -0.102862336 -0.11126233 0.091227755 0.12577745 0.023821946
-0.14580269 -0.07823959 -0.123006605 0.026746478 -0.09393827 0.019383375 0.055889815 -0.19228418
-0.04708333 -0.044009157 -0.096743256 0.061249696 -0.025456052 0.11276352 -0.068018295 0.08279426
-0.08264257 -0.05109348 0.052002728 0.14873844 0.107765675 -0.08939534 0.038277425 -0.023607824
0.027334876 -0.046338215 0.021506911 0.08373345 -0.061460778 -0.06613283 0.051033996 0.09367551
0.0133281555 0.15951882 -0.05500377 -0.02850366 -0.0669692 0.017865269 0.0010523117 0.12352834
0.021784816 0.033821788 -0.05580464 0.14164016 0.1396466 -0.09358027 0.03691328 -0.058753207
0.09163905 -0.08850849 -0.051126864 0.13891795 -0.048904285 0.12345716 0.04907776 0.1354533
-0.037350647 0.124923855 0.05478561 0.02201461 0.1458461 -0.08500612 -0.087229 0.13429144
-0.033742547 -0.16275792 -0.03200478 -0.035648264 -0.012063494 -0.049279835 0.06232867 -0.0981909
0.04526094 0.08876561 0.08939718 0.0077764415 -0.007952843 -0.0889167 -0.052941825 -0.118438

word_embeddings_layer.convs2.0.0.bias f4 [10]
00000000: 635c 1b3c ff48 b73d 21fe ccbb db83 72bd
00000010: 3ba2 81bd 9da5 f73d 0ba1 4c3b f718 32bc
00000020: 2b8e a83c f615 30bd
0.009482476 0.0894947 -0.0062558805 -0.05920778 -0.06329771 0.12092135 0.0031223919 -0.01087021
0.020575603 -0.042989694

word_embeddings_layer.convs2.1.0.weight f4 [10, 21, 4]
00000000: b492 0bbe e295 20be 4812 4ebd d76b 98bd
00000010: 35eb 213b 00c7 f9bd a3a4 c3bd a7c5 f23a
00000020: bde7 c7bc 80e0 91bd 556e fbbb e13e a5bd
00000030: 546a 32be 9d02 afbd 6aa6 e5bd 49a3 203d
00000040: 3fbb 603d 498a 68bd e086 e93c 6ed7 eebd
00000050: 3de2 4b3c a539 5c3d 0ba0 7cbd 10b6 1abe
00000060: c650 65bd 3332 f8bd a251 5cbd 5854 0fbe
00000070: 585b 8cbd e8eb 0bbe e890 80bd 3f43 abbd
00000080: 3452 efbd 4d35 42be 709f d1bd f286 d4bc
00000090: 02e8 d13c cde8 e43c 9fe3 23be d7b2 41bd
000000a0: 7e6d fabd 87e8 0fbe 99d1 86bd d314 0bbe
000000b0: 135c 2ebe a01d 4dbe 0bc3 19be 26c3 e03c
000000c0: 9d37 24bc a07a 07be b687 20be d1d0 48be
000000d0: b140 0fbe a03a 09be 6510 7a3b 96b4 f6bc
000000e0: 8cd3 15be a6d9 093c d1dc 24be 3fb4 4fbe
000000f0: 3cff 51bd 772b 24be bea0 09bd 4dd3 883c
00000100: f48d 0dbe efbc 15be ac05 b5bc 8341 24be
00000110: 93c6 c6bc f1af 0bbe 1d16 c4bc 58f0 59be
00000120: e651 23be ddc4 88bd b14c 97bd 1402 52bd
00000130: 897d 35bd 40e2 ffbd 608b b2bd a4c5 d7bd
00000140: 778c a6bd 776c a0bd 39f3 35be a88d 22be
00000150: f6d7 743d aa4d 96bd 0449 b93d 6777 583c
00000160: 23c8 ca3c b8c3 bb3d 7260 6fbd ece4 68bc
00000170: 9f9d 073d 2f10 9e3d 4a3c d2bd 8537 af3c
00000180: 0f57 6cbd 9cab e63c 2246 8d3d fc3e d43c
00000190: 859a 283d 003d 863c 4879 843d 22c7 e23d
000001a0: 2743 003d faf4 65bd de4d 22bd 9cae cf3d
000001b0: 3912 9a3d e5f9 643d c58c 9cbd 6e23 e33d
000001c0: 5847 9b3c fd50 9c3d 9dc5 973d 2c1e e93c
000001d0: 46ad 26bd ae2a df3d 35d7 a5bd b042 203e
000001e0: 7444 d1bd 5bbd 47bd c14b afbd ded8 83bd
000001f0: c7c5 e23d 7e8d 83bd 127a eabd 5e83 a43d
00000200: 880e 953d 077b ff3c 9e3d 6cbd f5ab 943c
00000210: 4c48 6dbd 817d 453d ad00 71bd 9f3e 28bd
00000220: a573 b2bd 4a45 0fbc e74a ad3d bbd5 eb3d
00000230: 5238 743b 06e8 05bd d5c4 ec3d 2f62 103d
00000240: 1fbd 97bd 6c4c cfbd 9435 19bd 858b 333d
00000250: 75d5 153d 94b6 ca3d 8d21 613c 9cd0 ab3d
00000260: a86e f6bb 7426 2ebd 0293 163c 26b9 1fbe
00000270: c730 a2bd 0e92 b6bd 1e33 11bc 085d f83b
00000280: 6b67 47bc 30c8 0cbd c3f4 d33d 5a94 c1bc
00000290: f556 733d 5aaf 843d 7ca9 d0bd ea9b 60bd
000002a0: ad65 c2bc 5bfa a43c 88e5 b3bd a372 583c
000002b0: b83a fbbd cff6 edbd e510 eb3c a58f 63bd
000002c0: 6a53 d53d df22 aabc f808 bbbd 96d7 b83d
000002d0: 1b69 7d3d 50d7 a1bc 6adc c7bd b759 26bd
000002e0: 5c06 bebd f3ec 8f3d aeec 7cbb cf0d 223d
000002f0: 27b1 4f3d 49f7 0e3d 3bdb a4bd 0080 c83d
00000300: 25c9 3f3d 4a84 a6bd 0f14 803d 64c3 1bbb
00000310: f257 d6bd aef9 dcbd 654a f6bc cd4f dfbd
00000320: deec 133d 8d9b a23d bd8e 03bd fb26 3d3d
00000330: 3287 8bbd 9105 5fbc ff88 54bd 57ac 243c
00000340: 9c14 bd3c 4f51 b83c 1eee 96bd a174 b5bd
00000350: 5803 703d b12c 983d c1c4 e8bb f3b7 afbd
00000360: e0e9 04bd 55f1 67bd d2f1 073d cf4b a4bd
00000370: 09d2 dbbb 8360 ecbc 96e2 2b3d b934 e5ba
00000380: e02d 633d 16a7 033c ab90 22be ad83 55bd
00000390: fd44 81bd 2a38 f6bd 2c51 55bd 8304 df3c
000003a0: 34d7 a9bc 5320 bc3d d7a9 acbd 3709 ffbc
000003b0: 1407 16bd e6fe 87bd d9f2 a8bd f8f4 8e3d
000003c0: e976 e3bd 8b67 cebd fea7 81bd 6aa8 1b3c
000003d0: e817 9dbd 5c67 8bbd 183c 6ebd 40fd f03b
000003e0: 7a43 1e3d abed 923d 6cfe 89bb 3e9b b5bd
000003f0: ca56 8fbd 7c1f 803b b24a 3f3d 624d 54bd
-0.13630182 -0.15682176 -0.050310403 -0.07442444 0.0024706845 -0.12196159 -0.09552886 0.001852204
-0.024402494 -0.07122898 -0.0076730647 -0.08068634 -0.17423373 -0.0854542 -0.112133816 0.03921822
0.05486607 -0.056772504 0.028506696 -0.11662184 0.012444076 0.05376591 -0.061676066 -0.15108514
-0.055985235 -0.1211895 -0.05378879 -0.13997018 -0.0685336 -0.1366421 -0.06277639 -0.083624355
-0.11685601 -0.18965645 -0.102354884 -0.025943253 0.025623325 0.02794304 -0.160048 -0.047289696
-0.12227915 -0.14053546 -0.06582946 -0.13582163 -0.17027311 -0.20030832 -0.15015809 0.027436804
-0.010023025 -0.13230371 -0.1567677 -0.19610907 -0.13989522 -0.1340127 0.0038156745 -0.030115407
-0.1463148 0.008413708 -0.1609986 -0.20283602 -0.0512688 -0.16032206 -0.03360056 0.016702319
-0.13823682 -0.14622854 -0.022097431 -0.16040616 -0.02426461 -0.13641335 -0.023936326 -0.2128309
-0.1594921 -0.06678174 -0.073876746 -0.051271513 -0.044309173 -0.12494326 -0.0871799 -0.10535744
-0.0813226 -0.07833188 -0.17768563 -0.1587435 0.05977627 -0.07339032 0.0904713 0.0132120615
0.024753636 0.0916819 -0.058441587 -0.0142147355 0.033109304 0.077179305 -0.102654055 0.021388778
-0.057700213 0.028158002 0.068981424 0.02590894 0.041162986 0.016386509 0.06468445 0.11073138
0.03131404 -0.05614183 -0.03962504 0.10140726 0.07523007 0.05590238 -0.07644037 0.11090742
0.018954918 0.07632635 0.074107386 0.02845677 -0.04069259 0.108968124 -0.08097688 0.1565044
-0.102181345 -0.048764568 -0.08559371 -0.064378485 0.11072879 -0.06423472 -0.11449064 0.08032869
0.07278162 0.031186594 -0.05767595 0.018148402 -0.057930276 0.048215393 -0.058838535 -0.041075345
-0.08713464 -0.008744547 0.08461552 0.11515375 0.0037265015 -0.032691978 0.1156098 0.035249885
-0.07409119 -0.10121998 -0.03740461 0.043834228 0.03658052 0.09898105 0.013740909 0.083893985
-0.0075205155 -0.04251714 0.009190323 -0.15597972 -0.0791946 -0.089145765 -0.008862285 0.0075794496
-0.012170653 -0.0343706 0.10349419 -0.02363031 0.0594091 0.06478758 -0.101885766 -0.05483619
-0.023730123 0.02013891 -0.08784014 0.013210925 -0.12267059 -0.11619341 0.02869458 -0.055556912
0.104163006 -0.020768581 -0.0913257 0.09025495 0.061867815 -0.01975599 -0.097588375 -0.040612902
-0.09278557 0.07027616 -0.003859322 0.03956395 0.050706055 0.0349038 -0.080496274 0.09790039
0.046822686 -0.08130701 0.06253826 -0.0023767585 -0.10465993 -0.1078981 -0.030064771 -0.10903893
0.036114566 0.07939825 -0.032118548 0.046179753 -0.06812896 -0.013612167 -0.051888462 0.010050855
0.023081116 0.022499708 -0.07369636 -0.08860136 0.05859694 0.07430399 -0.007103533 -0.085800074
-0.032449603 -0.056626637 0.033189602 -0.08022272 -0.0067083878 -0.028854614 0.041964136 -0.0017487026
0.05546367 0.008035442 -0.15875499 -0.05212753 -0.063119866 -0.12022431 -0.052079365 0.027223831
-0.0207325 0.09185853 -0.08430832 -0.031132324 -0.036627844 -0.06640415 -0.082494445 0.06980318
-0.11106665 -0.10078343 -0.0633087 0.009500602 -0.076705754 -0.068068236 -0.05816278 0.0073544085
0.03863857 0.07174238 -0.0042112377 -0.08867501 -0.069989756 0.003910003 0.046702094 -0.05183161

word_embeddings_layer.convs2.1.0.bias f4 [10]
00000000: eb4d d7bd 16c9 b0bd fe97 053d 6bdf 9abd
00000010: 9b32 293d f619 8fbd bd63 7d3d 8551 1e3e
00000020: 1519 b0bd 15e2 ee3d
-0.105129085 -0.08632104 0.032615654 -0.07562145 0.041308027 -0.069873735 0.061862696 0.15460785
-0.08598534 0.116642155

word_embeddings_layer.convs2.2.0.weight f4 [10, 21, 5]
00000000: ff2c 973c 5867 83bd 398f 3f3d a546 793d
00000010: 5f53 b53d dea4 c7bd 538f b53d c5c4 b13d
00000020: c352 c83d 74bd 7b3d b81b 96bd 1f75 d43d
00000030: 3c24 a53d 9733 78bd 6d57 d43b 8820 803d
00000040: 3041 a03d 5e37 443d 4d69 833d 3120 94bd
00000050: f436 51bc b054 51bd 26ce a33c c5f1 283d
00000060: c1fe a4bc c0c8 323b 0495 b5bd c003 d3bd
00000070: ea40 db3d 14fa f6bb 7f49 963d da97 76bb
00000080: 950f 30bc 4a68 b6bb 37c8 be3d 6e94 a7bd
00000090: 3bd8 853d 8f0d 833c e8d5 723d b5f3 07be
000000a0: bba0 18bd 8ee4 b7bd 53e8 88bc ed08 b8bc
000000b0: af1c 233d f9da ab3d 66c7 423c be89 c6bd
000000c0: 3062 33be 9035 2a3e 4f62 76bc 5448 d73c
000000d0: e118 97bd 9e3f 0abd 6106 f9bb 8761 8ebd
000000e0: 7bd4 9b3d 2e9d 2f3c bf08 d6bd 39f1 a43b
000000f0: 8f79 bfbc b122 c03c 476c d5bc 542b d63d
00000100: 6fcc d9bd 44c0 6abd eba1 f0bc c97a bb3b
00000110: c8ba 263d fd29 11bd 1380 b43d 6577 bcbd
00000120: c49c b33c f1bb acbd c576 86bd f87e e5bd
00000130: bf05 e2bd eee8 e3bd 2a86 a43d 7a31 83bd
00000140: e3bc 183d 3dab 4cbd d687 65bc 3c35 debc
00000150: 4f1a d13d 86a5 14bc 250f 1e3d 1437 4e3d
00000160: 0466 9d3d b0af a33d 578a 433d 205b c6bc
00000170: 37d7 88bc 6dc4 f43c f927 553d 8d32 bdba
00000180: e6c4 f93c a15e 9cbd f3ff 2d3d 8b45 91bc
00000190: aea5 7bbd a8dd b6bd aaca cabd 4b48 3b3d
000001a0: 1844 b5ba 322d e5bd 0e97 01be caa3 31be
000001b0: c057 5cbd 0709 dfbd 519e 1ebd 776a cc3c
000001c0: f7c0 ebbd 3ac1 9b3c 30af 42bd 6cbe b3bd
000001d0: cbb9 4fbd ca91 e7bc 0e8a 1e3d d322 c5bc
000001e0: 17dd 4dbd 8f86 223d 7b3d c33c 3462 12be
000001f0: 5528 0fbc 94ad 22bd 82e9 2cbd 8701 58bc
00000200: 0da8 1cbd 034c 0d3e 6e68 11be a3a8 a43d
00000210: c0d8 9dbd f152 91bc 8ba8 e4bc a93e 42bd
00000220: a622 423c 8270 903d 0ab5 25bd 2878 21bd
00000230: 663b 153d 06ae 7b3d 1163 af3d a096 d23c
00000240: 185d 073c 8436 9ebd b9f9 c83c d6b1 19bd
00000250: ffc6 02be 95e6 c8bc 2ef5 cdbc 68d3 063e
00000260: 94d8 3c3d e935 9a3d a3b3 593d 1618 35bd
00000270: 583d 903d f781 81bd 2a07 72ba 79ab be3d
00000280: 03b2 8ebd 5fe3 0bbc 4796 4bbd 577e 973d
00000290: 6560 5b3d 6711 e1bd e89f f2bc 9289 4ebd
000002a0: 0f0b 04be ce3e 0ebc 39ff 133d 0700 643d
000002b0: 2e54 19bb a702 2ebd 8f2f 16bd d781 053d
000002c0: 211c 6b3c 8c8d afbd 3680 923d e43f 413d
000002d0: be21 4cbd 406e cf3c 717e 4dbd d1a1 693d
000002e0: ccd3 b73d 2464 a6bd f803 04bc a042 debc
000002f0: 1cf3 2e3d 75a3 9ebd 3286 81bd 9e70 6bbc
00000300: 6e36 5cbd ada4 923d 66ac 41bc d8ce c4bd
00000310: 6433 5ebd 037f 00be 2145 b7bd f1c2 52bd
00000320: 7f0c efbc 4506 42be bed3 c9bd ab7d 863b
00000330: 58f8 06be 0268 b03d 5442 a63d c427 523d
00000340: 69f6 733b 3384 3e3d 9063 28be a2a3 24be
00000350: 6e1b c33c 8740 1cbe c644 06be 5603 abbd
00000360: 3cc7 32bd 3f46 abbc 7427 acbd 2bdd f5bc
00000370: 1b8f d7bb 5ad7 913d 2d2f b13d 5714 323d
00000380: b22f 9f3c 2210 5a3d 4541 bebd f5fc 0f3d
00000390: f311 6dbd 2b9d a83d 2247 adbd 7d3c 493d
000003a0: a7a2 81bd ae48 a63d 14c4 d13c 4bd9 803d
000003b0: 09af a4bd 46cf 5f3d fedb 66bd 5809 40bd
000003c0: 965e f73c c0d2 a7bc b7a5 adbd 2467 a6bd
000003d0: b1bf d4bc 3927 af3c 3539 d53d d48f a53d
000003e0: 1aff 343c 8a8a 57bd b852 b5bd 51f2 ab3d
000003f0: 02b3 7abd 9553 23bd 0505 81bd d10f a5bc
0.018454073 -0.06416196 0.046767447 0.060858388 0.088537924 -0.09748243 0.088652276 0.08680109
0.097814105 0.061459973 -0.07329506 0.103739016 0.08063552 -0.060596075 0.0064801485 0.06256205
0.078249335 0.047904365 0.06416569 -0.072327025 -0.0127694495 -0.051106155 0.01999576 0.041246194
-0.020141007 0.00272803 -0.08866313 -0.1030345 0.10705741 -0.007537136 0.07338237 -0.0037627132
-0.010745903 -0.0055666314 0.09315532 -0.081826076 0.06535383 0.015997676 0.05928603 -0.1327656
-0.03726266 -0.0897914 -0.016712343 -0.022465194 0.039822277 0.08391375 0.011888361 -0.09694241
-0.17517924 0.16621995 -0.015038087 0.026279606 -0.07377792 -0.033752076 -0.0075996374 -0.069521956
0.07608887 0.010718627 -0.10450887 0.005033639 -0.023373393 0.023454042 -0.026052607 0.10457483
-0.10634696 -0.057312265 -0.029374084 0.0057214242 0.040705472 -0.035440434 0.08813491 -0.0920246
0.021925338 -0.084342845 -0.06565622 -0.11205858 -0.11036252 -0.11128412 0.08033402 -0.06405921
0.03728951 -0.049967993 -0.014009437 -0.027124994 0.10210096 -0.009072667 0.03858866 0.050345495
0.076854736 0.07992494 0.047739353 -0.024213374 -0.016704185 0.02987882 0.052040074 -0.0014434621
0.030489396 -0.076352365 0.04248042 -0.017733356 -0.0614373 -0.08928996 -0.09901936 0.04572324
-0.0013829498 -0.11190261 -0.12655279 -0.17347637 -0.053794622 -0.10890394 -0.0387252 0.02495311
-0.115114145 0.019013036 -0.047530353 -0.087765545 -0.050714295 -0.02826776 0.038705878 -0.024064457
-0.050259676 0.039679106 0.023833027 -0.14295274 -0.008737643 -0.03971632 -0.042214878 -0.013183958
-0.038246203 0.13798527 -0.14199993 0.080399774 -0.077073574 -0.017739745 -0.027912399 -0.04742304
0.011849081 0.07052709 -0.040455855 -0.03942123 0.0364336 0.06144526 0.08563817 0.02570659
0.008261941 -0.07725242 0.02453314 -0.037523113 -0.12771223 -0.024524013 -0.025141325 0.13166583
0.046104982 0.07529814 0.05314983 -0.044212423 0.070429504 -0.06323617 -0.0009232635 0.093100496
-0.06967547 -0.008538096 -0.049703863 0.07397144 0.053558726 -0.10989647 -0.029617265 -0.050424166
-0.12894844 -0.008681966 0.03613207 0.05566409 -0.0023396122 -0.042483 -0.03666645 0.032594528
0.014349968 -0.0857192 0.071533605 0.04718007 -0.049836867 0.025321126 -0.050169412 0.057039086
0.08975944 -0.08124569 -0.008057587 -0.027131379 0.042712316 -0.07746021 -0.06324424 -0.014370112
-0.053762846 0.07160316 -0.011820888 -0.09609765 -0.05424823 -0.12548451 -0.08948732 -0.05145544
-0.029180763 -0.18947704 -0.0985484 0.0041043363 -0.13180673 0.08613588 0.0811812 0.051307455
0.003722573 0.046512794 -0.1644423 -0.16078046 0.02381679 -0.1525899 -0.13112172 -0.08350246
-0.043647036 -0.02090752 -0.084059626 -0.030012688 -0.006578339 0.07121153 0.08651576 0.04347643
0.019431923 0.05323804 -0.09289793 0.035153348 -0.057878446 0.082331024 -0.08460833 0.04912995
-0.063298516 0.08119331 0.025606193 0.06291445 -0.08041198 0.05464103 -0.056362145 -0.04688391
0.03019647 -0.020486236 -0.08478873 -0.08125141 -0.025970312 0.021381008 0.10411302 0.08084074
0.011047149 -0.052622356 -0.08853668 0.083958276 -0.06120587 -0.039874632 -0.062997855 -0.020149143

word_embeddings_layer.convs2.2.0.bias f4 [10]
00000000: aa46 a5bc ed3a ba3d f307 f23b c8d9 a2bc
00000010: 7812 663d 51e6 5dbc 2e0d 7dbc d57c 303d
00000020: 0e46 fabb f8d8 f8bb
-0.020175297 0.090932705 0.0073862015 -0.019879237 0.056169957 -0.013543681 -0.015445037 0.0430878
-0.0076377457 -0.007594224

word_embeddings_layer.linear.0.weight f4 [30, 30]
00000000: 9aab 413e b2fe d33c 9f33 96bd f837 a2bd
00000010: 489d 0f3e 5280 58bd 6b27 063e 348a f1bd
00000020: 9372 463c 7201 0abe 5afd cd3d 631a 343e
00000030: 69fd 023e 5433 51bc bb78 1bbe 7699 2cbd
00000040: 3fa1 a9bd f6f1 4c3e 9ef8 9abd e3cb c33d
00000050: 909e 383e 1b4a e53d 2d98 cfbd 5072 8d3d
00000060: 5b3a f6bc e462 443e efc6 c8bb ce06 493d
00000070: c0ce 493e 3322 713d ca21 5b3d d1bc edbd
00000080: 99f9 bc3d cfb2 5d3b b568 11bd 00b1 963b
00000090: b3fe 25be 0aff debb c421 4f3d 5cd4 80be
000000a0: 4535 31bd f7b0 9a3d 7423 543d 0d41 1b3d
000000b0: af1b 84bc 3423 59bd d9ae 103e 4173 49bd
000000c0: 91d1 8abd a530 8c3d 904d f1bd 0829 8cbd
000000d0: 3acf 293d 7eec 8cbd a0b7 653d 84ed f9bd
000000e0: d20e a6bd e904 73bd d104 793e cf9f aa3c
000000f0: 5376 0bbe 40ea 903d 40bf 7dbb f624 2b3e
00000100: 4459 ce3d fa5f dabd 90a6 263e 98c0 05bd
00000110: 5c49 2abd bc9e 5f3d 26be 393e e0a3 613d
00000120: 1263 34be 60b9 6ebd 4617 2e3e 4dc9 83bd
00000130: 19e3 b3bd 2805 15be 8367 cebd 3e6f ccbd
00000140: bc99 323d 2863 953d 166d 323e f862 f53d
00000150: 40cc 303b 30a6 c93d 28b9 d53d 1341 21be
00000160: 94ac bc3d ecc7 ffbd 2311 4a3e dd7d 3abc
00000170: e8b2 c43d 0ed2 483d 086e 4a3d 6a11 a43d
00000180: 29e8 42bd 3cd8 0d3e 29d6 2b3e f988 3a3c
00000190: 2597 1abe 7bdc 86bd 84bd 6bbd a174 19bc
000001a0: e4e8 a43d 4e14 d4bc 0430 983c 0aa5 2a3e
000001b0: f8d9 573d 3562 7fbd 48c1 c1bc 0d5e 95bd
000001c0: 4392 dcbc 9da6 39be b522 8a3d fc83 22be
000001d0: 7b1c 073e 5b1f 163e 4c26 17be 3904 f8bc
000001e0: a331 14be a710 ef3c e2d4 133d 3e68 bbbd
000001f0: dc76 a33d c534 a23d fea1 89be 667c 01be
00000200: 503d 9ebd 42be 2bbe 5313 c83d 7920 edbc
00000210: fb0f 3cbe 6cf1 bb3d 75ff 27be d9a5 a9bd
00000220: bbb7 793d 1406 2b3e 19d2 353e 36c0 18bd
00000230: cef2 303d 2381 88be 5896 d7bd 0123 c8bd
00000240: 2957 883d b7ce 19be e256 203d 0e99 c63c
00000250: 98f7 193e 9ed1 43bd bd23 273e 9d1a 44be
00000260: 588a 51bd 3283 923d a7ff a73c cee6 9d3d
00000270: b988 18be a636 823c 0bd7 29be 991f 3abe
00000280: 27b2 74bc 385e 4bbe bc18 49be ffc4 37be
00000290: d604 e93d 544e 853c b2c6 8cbd 3c70 9ebc
000002a0: fbac 1dbe df69 39be fe3c dfbd 503e 7ebe
000002b0: c2b7 e63d c156 01be 9bad 80bd a0e6 58be
000002c0: 3821 093d 1481 c7bd 02c1 04be ab0c da3d
000002d0: 5fff 0c3e 0690 11be cf21 b03d d5fb 57bd
000002e0: 2bb2 60bb 2bcb 8e3d 402d 95bd 66be dc3d
000002f0: 787a b23d e170 26be 2025 04be ee8b 43be
00000300: 7084 7bbc 6464 45be ab4d 24be c4fb 14be
00000310: d760 37be b819 21be e396 213e 73e9 c03d
00000320: 00c6 183e 22cc f7bd 8b86 c2bd 1fc7 f4bd
00000330: 482c ee3b b947 37be 8dd9 cb3b 51fb fdbd
00000340: 09b4 2e3c 25b4 1f3e bb55 a43a 1c2f e33d
00000350: b2b8 22be f8b5 55bd 3db5 aebd 92bf 4abd
00000360: 7527 6dbd 71ee a3bd 1790 50be deea 44bd
00000370: 8b4d 5d3d a392 55bd 322b 13be 609b 283e
00000380: 725b 053e f54b a5bd ded0 6a3c 3313 b93d
00000390: 1aaa 48be e4c3 42be 8488 e13d 7c30 833c
000003a0: 3351 903d 18bc 40bd fbdc 073c cf08 123e
000003b0: 4d7c 97bd 4b4c 01bd 3026 15be e144 63bd
000003c0: fb40 ea3d 7883 71be a50d c7bc bf7b 133e
000003d0: 8fc6 82bd 23c6 6ebd 1f09 e0bd 3c6b fbbd
000003e0: 7a5e 2a3d ad97 59be ac33 1b3d ffad 9ebd
000003f0: 72e4 6fbd 5db9 2dbd 6700 c73d fbba 1ebe
0.18913117 0.025878284 -0.07334065 -0.079208314 0.14024842 -0.05285675 0.13100974 -0.11793938
0.012112278 -0.13477114 0.100580886 0.1758819 0.12791981 -0.012768585 -0.15182774 -0.04213854
-0.082827084 0.20014176 -0.07566951 0.09560373 0.18029237 0.11195775 -0.10136447 0.06906569
-0.030057123 0.19178349 -0.0061272304 0.049078755 0.19707775 0.058870506 0.05349902 -0.116082795
0.092272945 0.0033828502 -0.035500247 0.0045987368 -0.16210441 -0.0068053054 0.05056931 -0.25162017
-0.043263692 0.075532846 0.051791623 0.037903834 -0.016126482 -0.053012088 0.14129199 -0.04918218
-0.06778253 0.06845216 -0.11782372 -0.068437636 0.041457392 -0.06881045 0.05608332 -0.12203506
-0.081082955 -0.059330855 0.24318244 0.020828156 -0.13619356 0.0707593 -0.003871873 0.16713318
0.1007562 -0.10662837 0.16274476 -0.032654375 -0.041573867 0.05459474 0.18138942 0.055087924
-0.17615917 -0.058282256 0.17001066 -0.064348795 -0.0878355 -0.14552748 -0.10078337 -0.09982155
0.043603644 0.07294303 0.17424425 0.119817674 0.0026977211 0.09846151 0.104357064 -0.1574748
0.09212604 -0.12489304 0.197331 -0.011382547 0.09604436 0.04902845 0.04942134 0.08011134
-0.047584686 0.13852018 0.16780914 0.011385196 -0.1509672 -0.06585022 -0.057553783 -0.009366185
0.08052233 -0.025888588 0.018577583 0.1666452 0.052698106 -0.062349517 -0.023651734 -0.072933294
-0.026925212 -0.18129964 0.06744901 -0.1587066 0.13194458 0.14660399 -0.14760703 -0.030275451
-0.1447206 0.029182745 0.036091693 -0.09150742 0.07981655 0.07920221 -0.26881403 -0.1264511
-0.07726538 -0.16771796 0.09769311 -0.028946148 -0.18365471 0.09176907 -0.16406043 -0.08283586
0.060966235 0.16701537 0.17755927 -0.03729268 0.043200307 -0.26661023 -0.10526723 -0.097723015
0.066572495 -0.15020262 0.039145358 0.024242904 0.15035856 -0.04780733 0.16322227 -0.19150777
-0.051157326 0.0715393 0.020507647 0.07710038 -0.14895906 0.015895199 -0.16585939 -0.18176116
-0.014935053 -0.1986016 -0.19638342 -0.17946242 0.113778755 0.016272701 -0.068738356 -0.019340627
-0.15398018 -0.18106793 -0.10900305 -0.24828458 0.11265518 -0.1263075 -0.062831126 -0.21181726
0.033478945 -0.097414166 -0.12964252 0.106469475 0.13769291 -0.14215097 0.086001985 -0.0527304
-0.0034285884 0.06972345 -0.072840214 0.10778503 0.08714765 -0.16253997 -0.12904787 -0.19096348
-0.0153514 -0.19276577 -0.16045253 -0.14549166 -0.17908035 -0.15732467 0.15780215 0.09419527
0.14919281 -0.12099482 -0.09498318 -0.11952042 0.0072684623 -0.17898454 0.0062210024 -0.124014504
0.010663041 0.15596063 0.0012537757 0.1109297 -0.15890768 -0.052175492 -0.08530662 -0.049499102
-0.057898957 -0.080044635 -0.20367466 -0.04807555 0.05402903 -0.052141797 -0.14371946 0.16465521
0.13023165 -0.08071128 0.014332024 0.09036865 -0.19596139 -0.19020039 0.110123664 0.01601433
0.070467375 -0.04705438 0.008292432 0.14261173 -0.07396755 -0.0315669 -0.14565349 -0.05548561
0.11438175 -0.23585308 -0.024298498 0.14402674 -0.06385528 -0.058294427 -0.1093924 -0.12276313
0.041594006 -0.21249266 0.037891075 -0.07748031 -0.05856747 -0.042413104 0.097168736 -0.15501015

word_embeddings_layer.linear.0.bias f4 [30]
00000000: d014 5c38 100f 05bd 3923 1abe d68a 4d3d
00000010: 4a54 9fbd 1f5c db3d 2b36 163e 06cd 49be
00000020: 3a10 bdbd fe39 4f3e b395 c5bd 309b 273e
00000030: 9542 103e 3928 4abd e9bc 32be 010e 8f3d
00000040: 6c87 963d d581 413e 2727 113d 3bc4 f93d
00000050: c81b 20be 89aa c33c 6212 033d 6b27 cc3d
00000060: 4467 edbd e0c1 27bd 431a a1bd 952d c4bd
00000070: 9f13 8e3d 4c67 2e3d
5.247147e-05 -0.032485068 -0.15052499 0.050181232 -0.07779749 0.1071093 0.14669101 -0.19707116
-0.092316106 0.20236966 -0.096476935 0.16367793 0.14087899 -0.049354766 -0.17454876 0.06985093
0.073500484 0.18897183 0.03543773 0.12195631 -0.15635598 0.023885028 0.031999953 0.09968456
-0.11591962 -0.040956378 -0.07866337 -0.095790066 0.06937336 0.04257898

bilstm.weight_ih_l0 f4 [8, 30]
00000000: 85b7 923e 8969 57bc 0ec6 02bc a658 e8bc
00000010: beb4 d13e 4c02 f5be 6583 093e 3818 d53e
00000020: abce cd3e 8b89 a5be 891c 183f ef96 ebbe
00000030: f999 c53e f265 1b3f c3a4 383d 7ba1 8b3e
00000040: d6f4 20bf 7661 86be 9c6f 86be 27ec 25bf
00000050: 9c3f 0cbe 10d6 fd3e 4866 56bd 5b40 423f
00000060: 7665 1bbf 9957 ba3e 1fef 1b3f 259e 333f
00000070: cf57 64be 76ef 20bf 9c1a 6cbe 685b 093f
00000080: b7b7 df3d f149 393f 83b6 13bf f7f5 d1be
00000090: 07b2 b93e 9375 4b3e a7fe e0be 1584 3c3f
000000a0: 29fe b4be e3d3 11bf 288d 2d3e f6d5 edbe
000000b0: b72b a6be b7a2 debe 8dc4 8d3e bcec c23e
000000c0: 08b5 0a3f eaa6 b7be 65bc 4ebe f88b 3f3f
000000d0: fe95 c2be 66a5 a1be ddce 45bd 5f72 23bf
000000e0: ac23 f5be aeb0 393f d20f 723d 0ace 2d3e
000000f0: f9ab b23e ca8c fd3e 299a 0e3f fa54 163f
00000100: 08c2 743e 986e 1a3f 1a1c 033f 51c2 ccbb
00000110: 24e2 033e e882 95be 7816 12bf 5e43 3e3f
00000120: e189 f2be a685 d6be c755 20bf 959f 11bf
00000130: 7d0a 853e 6c97 d93e 4262 03bf e343 083e
00000140: d50a ebbe 042d 9f3e f9e6 0b3f baaa 51be
00000150: 8403 74be 8f7e fe3e 8479 c4be b1dc b0bc
00000160: f40e 19bf 7a02 113f 8427 693e 1fba 8ebe
00000170: 0312 063f 8c8a 2f3f 73de 783e 243b fbbe
00000180: 4ef2 29be 9c04 0b3f 3451 013f 40c5 51be
00000190: 9d1a ce3e 44a9 ebbe a3b7 2c3e 7240 0e3f
000001a0: d6e3 eb3d e5b3 16bf 5d7b 843e fa74 d03e
000001b0: e947 033f c15b e8be e402 39be f3a6 5a3b
000001c0: 2427 2fbe 1935 5fbe 1e23 66be 15bb 633e
000001d0: e2ff ae3e 1ad3 a4bd 8515 023f 1c7e 5ebb
000001e0: f9fe 033e 5450 153e c837 8fbe 42aa 83bd
000001f0: c7e8 86bd c23c 623e cbe5 dabe 87bb abbe
00000200: cb81 38bf 4ca7 babe a8d8 673e 1ff3 023f
00000210: 5c90 30bf 495a 6fbe 7d7b bf3e fc4d bfbe
00000220: ae22 d03e 4620 d5bc 4c2e 37bf baaf 953d
00000230: d2a4 e2be 6fc7 d83d d062 25bf 6cd2 2a3f
00000240: 0f24 b9be 8438 f03e e61e f8be fa07 26bf
00000250: 9f88 963e e82d bf3e 3f92 413d 028b 06bf
00000260: ea0b e3bd 5682 d5be a764 e03d 1a88 2f3e
00000270: 71d9 063f 1cac 453f fcb4 86be f8da 213f
00000280: 9091 ea3e 9fee 273e 731a 17bf 30a9 f2be
00000290: 2cee 973e 487e 023f 1b13 d33e ee91 fd3d
000002a0: 5e17 acbe 8793 0bbf 8f82 96be 5c61 ab3d
000002b0: 1b6b 783e 6171 123f f3e4 efbe 0699 c03e
000002c0: b9af 2a3f 9ca3 0bbf 5ae1 bcbe 4edb 13be
000002d0: 0292 3f3e 95f0 2a3f 3421 843e 2341 193f
000002e0: 4250 fa3e b843 1c3f 43c6 26bf f636 98be
000002f0: 4a97 c43b f190 183e 7619 d7ba 855a 253f
00000300: af7d 423f 68b7 07be f85a a1be 8a9a 9c3d
00000310: 9216 583e 0109 043f 64c5 bc3e 79ff 9f3e
00000320: a4e3 a93e af8b 5f3f a101 223f 03f7 f33c
00000330: b776 dbbe e675 0d3f 5807 f73c 5ccf 28be
00000340: fded b2bd 95ac 153f fbe4 6cbe 1cbb 023b
00000350: 59b8 ab3e 4f4f 203f 2bed 5bbe 18de d1be
00000360: ff5c 5ebe d2e3 9ebe 7767 283e b594 b5be
00000370: 810e ee3e 1bf9 903e 9fcf 15bf 8b9c 803e
00000380: 5bd5 0a3e abde 133f d3ba f83d 8d44 c13d
00000390: 837f 18bf 9749 f6be d240 0dbe c46c 0f3f
000003a0: 6653 12bf 1eb7 253c d7d9 bfbe 6aa3 22bf
000003b0: 8562 24be 491d aebe a1f3 36bf ffe1 f8bd
0.2865564 -0.01314772 -0.00798179 -0.028362583 0.40958208 -0.47853315 0.1342903 0.4162004
0.40196738 -0.323315 0.5941854 -0.4601359 0.38594034 0.6070243 0.045079004 0.27271637
-0.6287359 -0.26246232 -0.26257026 -0.64813465 -0.1369614 0.4957738 -0.052343637 0.7587945
-0.6070169 0.36394957 0.60911745 0.70163184 -0.22299121 -0.6286539 -0.23057026 0.536551
0.10923713 0.7237845 -0.57700366 -0.4100797 0.36268637 0.1986907 -0.43944284 0.7363904
-0.3535016 -0.5696394 0.16948378 -0.46452302 -0.32455227 -0.43483517 0.2768902 0.3807124
0.5418248 -0.35869533 -0.20189054 0.7482295 -0.3800506 -0.31571501 -0.048292983 -0.6384639
-0.47878778 0.72535217 0.05909712 0.16973129 0.3489683 0.49521476 0.5570398 0.58723414
0.23902142 0.60325 0.51214755 -0.0062487503 0.12879235 -0.29201436 -0.57065535 0.74321544
-0.47370818 -0.4189884 -0.62630886 -0.5688413 0.25984564 0.42498338 -0.51321805 0.13307147
-0.45906702 0.31089032 0.5464931 -0.20475283 -0.23829466 0.49705932 -0.3837396 -0.021589609
-0.5978844 0.56644404 0.2276898 -0.27876374 0.52371234 0.6857078 0.24303608 -0.49068558
-0.16596338 0.5430391 0.5051453 -0.20485401 0.4025468 -0.46027577 0.16866927 0.55567086
0.11518066 -0.5886825 0.2587537 0.40714246 0.512816 -0.45382503 -0.18067509 0.003336367
-0.17104775 -0.21797599 -0.22474334 0.22239335 0.34179598 -0.08048077 0.50814086 -0.0033949679
0.12890233 0.14581424 -0.27972245 -0.064289585 -0.065873675 0.2209349 -0.42753443 -0.3354151
-0.7207305 -0.36455762 0.22641242 0.51152223 -0.68970275 -0.23374285 0.37398902 -0.37364185
0.40651459 -0.026016366 -0.7155502 0.07308908 -0.44266373 0.10584914 -0.646039 0.6672733
-0.36160323 0.46918118 -0.48461074 -0.6485592 0.2940111 0.3733971 0.04725861 -0.5255586
-0.11086257 -0.41701 0.10956698 0.17141762 0.5267554 0.77215743 -0.26309955 0.63224745
0.4581418 0.1639962 -0.59024733 -0.47394705 0.29673898 0.5097394 0.41225514 0.123813495
-0.33611578 -0.54521984 -0.29396483 0.08368179 0.24259607 0.5720425 -0.46854362 0.37616748
0.6667438 -0.54546523 -0.3689068 -0.14439127 0.18708041 0.6677335 0.25806582 0.59865016
0.48889357 0.6104083 -0.65146273 -0.29729432 0.0059994804 0.14899041 -0.0016410786 0.64591247
0.7597303 -0.13253558 -0.31514716 0.076466635 0.2110236 0.5157624 0.36869347 0.31249598
0.3318149 0.87322515 0.63283736 0.02978087 -0.4286401 0.55258024 0.030154869 -0.16485351
-0.08736799 0.58466464 -0.23134224 0.0019947952 0.33539084 0.62621015 -0.21477191 -0.40989757
-0.21715163 -0.31033188 0.16445719 -0.35465017 0.4649544 0.28315052 -0.5851993 0.25119433
0.13557951 0.5776164 0.12145009 0.09436903 -0.5956957 -0.4810302 -0.13794258 0.5602534
-0.57158506 0.010114459 -0.37470886 -0.635306 -0.16053207 -0.34006718 -0.714655 -0.1215248

bilstm.weight_hh_l0 f4 [8, 2]
00000000: 1d88 79be 64cf a73e 0cb3 8b3e a6db f93c
00000010: 5951 4ebe 7463 6cbe 8bb7 1fbf 17f5 053f
00000020: ed8f 383f c9ba 22bf b88e 65bf c674 47bf
00000030: c755 63be 1431 a1bd 3ad9 09bf 2bf6 083f
-0.2436833 0.32775414 0.2728504 0.030500244 -0.20148219 -0.23084813 -0.6238944 0.523271
0.72094613 -0.6356626 -0.89670897 -0.7791256 -0.2220069 -0.07870689 -0.53847086 0.5350062

bilstm.bias_ih_l0 f4 [8]
00000000: ccfb 5f3d 565c a9be 7e70 1dbf 56e4 0c3f
00000010: 6444 243f 4382 dc3d 7a4e 9ebe c60b 0a3f
0.05468349 -0.3307826 -0.61499774 0.55035913 0.64166856 0.10767033 -0.30919248 0.53924215

bilstm.bias_hh_l0 f4 [8]
00000000: 4785 d93e ba3b 98bd a56e 3b3f 24d5 05bf
00000010: 9511 10be ae29 243f 35ed d0be a182 03be
0.42484495 -0.07433267 0.73215705 -0.5227835 -0.14069207 0.641261 -0.40805975 -0.128428
